paper/Cable_equation/runs/compare/checkpoint.pt (torch, 59031 bytes, 36 tensors)

func_approx.network.0.weight f4 [30, 2]
000000 a0 0d 4e 3b 51 80 bd 3e 31 cc 1e bf f5 8e ef be
       0.0031441227 0.3701196 -0.6203032 -0.46788755
000010 eb 86 8a be 82 e2 7e 3e 8e 54 b8 bc e5 86 20 3f
       -0.2705606 0.24891093 -0.022501256 0.6270583
000020 48 20 83 bd 6f f7 47 3e d8 41 27 be 0b b1 6e bd
       -0.064026415 0.19527982 -0.16333711 -0.05827431
000030 fa 27 3a bf 53 30 df be 52 22 8f be f2 9b 9b 3d
       -0.7271725 -0.43591556 -0.27955872 0.075981036
000040 0b 9b 83 3e 3d 1d b0 3e 9e de f4 be 34 3e 8c be
       0.25704226 0.34397307 -0.47826093 -0.27391207
000050 91 61 81 3e 39 74 21 3f 19 9a 0f be 85 9d 16 3f
       0.2526975 0.63067967 -0.14023627 0.58834106
000060 29 4b f8 bd bb fe 51 3d d3 c3 19 3f 3c 98 39 bf
       -0.12123711 0.05126832 0.6006443 -0.72497916
000070 f5 4c d5 be e1 87 60 be 2e 88 9b be 03 34 18 3f
       -0.41660276 -0.21926834 -0.30377334 0.59454364
000080 ec bd d7 be db 7b 92 be d8 02 02 bf 1d 9e 22 bf
       -0.42137086 -0.2861012 -0.5078559 -0.6352251
000090 a0 31 c8 be 36 98 2b 3f 9a 71 af 3e ac a0 ba 3e
       -0.3910036 0.6702913 0.3426636 0.36450708
0000a0 60 25 9a 3c df 49 9d be ce c7 be 3d f4 68 39 bf
       0.01881665 -0.30720422 0.093154535 -0.7242577
0000b0 43 7e f8 be 86 5e da be 6f 7e d1 3e 97 eb ed 3e
       -0.4853383 -0.4265024 0.40916774 0.46468803
0000c0 46 6d a7 be 73 c0 fd 3c b6 6e ec 3e f0 f1 23 3f
       -0.32700557 0.030975556 0.46178216 0.6404104
0000d0 a5 7b 79 3e d5 1b 0f 3d 12 8a fd 3e 3e 15 dd be
       0.24363573 0.034938652 0.49519402 -0.4318027
0000e0 16 5d b4 3d 03 73 1f bf 5d 07 f8 be 86 f0 90 be
       0.08806817 -0.6228487 -0.48443118 -0.28308505

func_approx.network.0.bias f4 [30]
000000 da cc ad 3e 72 70 7a 3e af 90 d8 be 03 24 64 3e
       0.33945352 0.24456957 -0.42297885 0.22279362
000010 ad d6 c8 3e bc f9 1e bd cc b6 b8 bc 64 2e 28 3e
       0.39226285 -0.038812384 -0.022548102 0.16423947
000020 84 30 d4 3e 41 38 2a 3f 25 66 0a bf 3c 1f 86 be
       0.41443264 0.66492087 -0.5406211 -0.26195705
000030 f1 3f 8b 3e 53 56 0b 3f 61 17 25 3f db eb 16 3f
       0.2719722 0.54428595 0.644888 0.58953637
000040 9c 86 2a 3e 39 9e 23 bf 6b 66 93 3d 83 c8 d3 be
       0.16652912 -0.63913304 0.07197269 -0.41363916
000050 e1 c7 30 bf 90 48 1b 3f f1 05 0f 3f df a4 3d bf
       -0.6905499 0.60657597 0.5586844 -0.740797
000060 9f a6 e8 3d 38 0a be bd e2 11 1c be ca 09 99 be
       0.113599055 -0.09279293 -0.15241197 -0.2989028
000070 f2 ea 70 3e ef 11 d2 be
       0.23527125 -0.41029307

func_approx.network.2.weight f4 [30, 30]
000000 a0 ff af 3d 65 df b8 3d 8e dd 13 3e 37 ba d4 3d
       0.085936785 0.09026984 0.14439985 0.1038708
000010 8c 48 2b be 58 a7 f1 bd cb 26 c2 3d ea 3f 36 3d
       -0.16726893 -0.117994964 0.094800554 0.044494547
000020 18 bd 13 be 2a b7 f2 bd 9f c4 5c 3e ae 45 3a 3e
       -0.14427602 -0.11851342 0.2155938 0.18190643
000030 bd ff 39 bd 54 9c 82 bd 1a 37 3b be 75 e2 83 3d
       -0.045409907 -0.063774735 -0.18282738 0.064396776
000040 6a a8 0d be 02 be 09 be 45 67 e4 3c fb ec 3c 3d
       -0.13833776 -0.13451388 0.027881274 0.04612444
000050 a2 85 a6 bd 38 3f 6f 3d 23 a6 f5 bd 47 73 40 3e
       -0.08130957 0.0584099 -0.11994579 0.18793975
000060 9e 1a 04 3e f9 5c 18 be ce 04 3e bd c6 83 85 bc
       0.12900779 -0.14879216 -0.0463913 -0.016298186
000070 69 f0 48 bd 47 6c 49 3d 3e e5 32 3d 9d 44 ee 3c
       -0.049057398 0.049175527 0.043675654 0.029085452
000080 05 60 b0 bd 7b 93 28 3d 81 b8 49 be 15 4a ba bd
       -0.08612064 0.041156273 -0.19699289 -0.09096161
000090 18 f4 08 bd ea eb 9d bd 7d 76 a0 bd 63 fa eb bd
       -0.03343591 -0.07711013 -0.078351 -0.11522367
0000a0 fe f1 d5 bd ea c2 03 3b 93 60 23 be 4c fe 05 bc
       -0.10446547 0.0020105192 -0.15954809 -0.008178305
0000b0 3b d2 25 3e 2a 2d b0 bd ce d9 b8 3c 4f b1 23 bc
       0.16193478 -0.08602364 0.022564795 -0.009991004
0000c0 89 80 a7 3c 1d 42 a0 3d 40 67 42 3e b8 ff 14 3e
       0.020447033 0.0782511 0.18984699 0.14550674
0000d0 da 44 4e 3e b6 a2 70 bd a7 20 1a be 2b 92 dc bd
       0.20143452 -0.058748923 -0.15051518 -0.10770067
0000e0 b0 02 da 3d 36 c4 ec 3a 44 80 06 bd 50 a6 04 be
       0.10645044 0.0018063847 -0.032837167 -0.12954068
0000f0 66 0f 3f be 4c 09 03 be 3a c8 bf bb 94 7f c4 3d
       -0.18658218 -0.12796515 -0.0058527263 0.09594646
000100 4e ca a1 3d a4 61 1a be 88 1e 12 3e 94 2f ef bd
       0.07899915 -0.1507631 0.14269459 -0.11678997
000110 b2 87 88 bd a3 97 6d bd 86 38 db bc c9 1a 1f 3c
       -0.06666507 -0.05800594 -0.02676035 0.009710976
000120 0f 12 23 be 8a fa 41 be 5e 4c 27 bc 1d d4 05 3d
       -0.15924858 -0.1894323 -0.010211078 0.03267299
000130 3a 47 69 bd d9 95 ca 3d b5 1a 03 be 20 f3 d0 bc
       -0.056952693 0.098918624 -0.12803157 -0.025506556
000140 5a a0 3c 3e 0c 98 ee bd 28 c1 3e 3e 96 72 5f 3d
       0.18420544 -0.116500944 0.18628371 0.054552637
000150 03 05 0e be df c9 b8 3d c1 d3 3a bd 93 7f e9 bd
       -0.138691 0.09022879 -0.0456121 -0.11401286
000160 eb 3b c6 3d 01 4d f1 bd bc 3d 89 3c 4b 2b 12 bd
       0.09679397 -0.117822655 0.01675307 -0.03568582
000170 ea 8c fc 3d 59 5a 35 3d e3 e8 b5 3d d7 1c 79 3d
       0.12331565 0.044275615 0.0888231 0.06081852
000180 bb cc 3c bd c4 82 18 bd 1f 50 15 be 75 b4 e8 3d
       -0.046093684 -0.037234083 -0.14581345 0.113625444
000190 4e e4 f1 3d f1 88 dd 3d 3b 2a dc bd b2 54 92 3c
       0.11811124 0.10817135 -0.10750242 0.017862651
0001a0 a9 94 f0 bd 5a 4b b9 bd d3 c5 d8 bd cb f2 67 3d
       -0.11747105 -0.09047575 -0.10584607 0.05662803
0001b0 04 d6 f5 bd ac a6 a6 bc 50 03 80 3b 37 14 09 3e
       -0.12003711 -0.020343147 0.003906645 0.13386618
0001c0 8c 56 05 be 25 0c 11 be a5 18 d7 bd 6c 9a 00 3e
       -0.13021296 -0.14164789 -0.105027474 0.12558907
0001d0 67 a8 83 bd 23 6c 22 3e 0a 18 b4 3d c3 b0 91 3c
       -0.064286046 0.15861563 0.087936476 0.017784482
0001e0 09 99 55 bd 87 6e 10 3c ab 2e 72 3d 32 4f c7 bd
       -0.0521479 0.008815414 0.059126537 -0.09731902
0001f0 13 1c 4e bd 66 fe 8b 3d 6d ff cd bd ec 51 66 bd
       -0.050319742 0.06835632 -0.10058484 -0.05623047
000200 1c db d4 3d 9e a4 cb bd 0a 00 8f bd 3c 26 3f 3e
       0.10393354 -0.099435076 -0.06982429 0.18666929
000210 9a de fe bb ba cb e7 bc 5b e0 e4 bd b1 a2 a7 3c
       -0.007778001 -0.028295387 -0.11175605 0.02046332
000220 80 68 af bd 78 cd 30 bc 2c d0 30 bd 44 62 9d bd
       -0.08564854 -0.010791175 -0.04316728 -0.07684758
000230 b8 03 46 3d e9 ea 09 3e 3b ad 8f 3d 4a ab e3 3d
       0.04834339 0.13468517 0.07015463 0.11116655
000240 11 eb 1b 3e 15 fd 25 be a7 8c 19 3d 70 4e 1d be
       0.1522639 -0.16209824 0.037487652 -0.15361953
000250 e4 c6 99 bd aa 8d c2 3d c8 03 15 3d 56 25 18 3e
       -0.075086385 0.094996765 0.03638056 0.14857993
000260 0a 19 83 bd 32 67 17 bd b1 e8 9a 3d 69 ff 2c be
       -0.0640126 -0.03696365 0.075639136 -0.16894306
000270 6a b9 0c 3e 9f ca 16 be bc de 70 bb c6 8d e9 bb
       0.13742605 -0.14725731 -0.0036753854 -0.0071274964
000280 a8 40 14 be 46 5d 09 bd 4f d6 04 3e 3a 22 31 bd
       -0.1447779 -0.033536218 0.12972377 -0.04324553
000290 da 98 b5 bd 4c d1 02 be 1c f9 2e be d2 f7 ac 3d
       -0.08867045 -0.12775153 -0.17087215 0.084457055
0002a0 d0 16 f8 bd 9d 7a 19 be dd 85 bd bd 6f f2 19 3e
       -0.12113726 -0.1498818 -0.09254048 0.15033887
0002b0 d7 4c ec 3d e4 22 df 3d d3 91 93 3d 0a 9d 99 bd
       0.115380935 0.10895327 0.07205548 -0.07500656
0002c0 41 8e 71 bd 08 9f 91 3d d9 b5 68 3e de e9 55 3d
       -0.058973555 0.07110411 0.2272562 0.052224986
0002d0 59 1e e7 bd 68 ca 97 bd 9e 93 37 be 8c 48 af ba
       -0.11285085 -0.07411653 -0.17927405 -0.0013373061
0002e0 61 37 fd bd 24 92 1e be 01 af 29 3e ea 6a f1 bd
       -0.12364078 -0.15485436 0.16570665 -0.1178797
0002f0 f4 59 e5 bc 29 98 99 3d e3 68 38 bd da 66 3e be
       -0.027996995 0.07499725 -0.045021903 -0.18593922
000300 d7 01 3b be b0 a3 21 3e aa dd 41 3d 43 3f b3 3d
       -0.1826242 0.15785098 0.047330536 0.087523006
000310 a2 10 52 bd 1a d3 67 3d d2 6a a9 bd a9 b3 13 bd
       -0.051285394 0.056597807 -0.082723275 -0.03606001
000320 1d 27 c5 bd 25 52 e4 3d 93 95 9b 3d 80 6b 11 bd
       -0.09626601 0.1114848 0.075968884 -0.03550291
000330 a6 e2 18 bd 8c ac 02 be 61 41 f4 3d 74 c8 e4 bd
       -0.037325524 -0.12761134 0.119265325 -0.11171046
000340 9f 77 20 3e 61 fe 6e bd 3a 75 d9 bd 9e 6b 70 3d
       0.15670632 -0.058348063 -0.10618062 0.05869638
000350 01 29 7a bd aa 97 18 3d 90 f7 58 3c f4 b3 db bd
       -0.06107426 0.037254013 0.013242617 -0.10727683
000360 0c d4 73 3d 21 fe dc 3d 1a da 31 3d dc c0 ba bb
       0.059528396 0.10790659 0.04342089 -0.00569926
000370 0f 92 0b be 2f 7d b2 3c c7 d2 4f 3d fa 30 d1 bd
       -0.13629936 0.021788208 0.050738122 -0.1021442
000380 05 58 b7 3d 15 31 1e 3e e8 51 8c bd 87 53 05 3d
       0.08952335 0.15448411 -0.0685156 0.03255036
000390 78 60 f2 3d 45 89 48 3a 57 84 27 3d 8a 04 bf bc
       0.11834806 0.0007649849 0.040897693 -0.023317594
0003a0 ac 6a fa bd 11 dd 56 3b 22 16 1f 3e dc 4f 0f 3e
       -0.12227377 0.0032785574 0.15535787 0.13995308
0003b0 e6 80 a2 3d db 63 59 bc 7a 6e fb 3c 90 fb 6e bd
       0.07934742 -0.013268436 0.030692328 -0.058345377
0003c0 84 9c 0c be 9c 27 24 be 98 34 46 3e 0a 39 12 3e
       -0.13731581 -0.16030735 0.19356 0.14279571
0003d0 0e fa f1 bd 25 48 93 3d 3f 05 10 3e 99 7a 3c 3e
       -0.11815272 0.07191495 0.14064501 0.18406142
0003e0 cc a7 20 3e b9 fa ff 3d 4d 0c 2e bb 13 c2 6c bc
       0.1568901 0.124989934 -0.0026557625 -0.014450568
0003f0 3c 58 2a 3e a2 f7 b1 3d 43 7b fb bd 57 41 5a 3e
       0.16635221 0.0868981 -0.1227937 0.21313988

func_approx.network.2.bias f4 [30]
000000 37 f2 b6 3b 43 a3 0f 3e f1 35 36 3b 7d 17 4d bd
       0.0055830735 0.14027123 0.0027803148 -0.05007123
000010 c1 87 ad 3d be 8d 48 3c a3 b1 12 3d 06 f3 ba bd
       0.08473159 0.012240825 0.03581394 -0.09128384
000020 7d c7 22 bc 2b 8f d4 bb 0a fc a7 3c 0f 2d 32 be
       -0.009935257 -0.0064867935 0.020505924 -0.17400001
000030 ef 18 0b 3d 2d 2e fd bd ec d0 13 bc ca 2a cb 3d
       0.033959325 -0.12362323 -0.009021979 0.09920271
000040 58 0f dd bd 11 f1 04 be 8e 12 37 bd d6 ae 92 bd
       -0.10793942 -0.12982585 -0.04469543 -0.071622536
000050 08 f3 1b 3d 50 1c c6 39 5a 6b 96 3d 6d dc ee bd
       0.03807357 0.00037786597 0.073446944 -0.11663137
000060 a7 64 2f 3c 29 5c 94 3d c2 99 28 3e 09 87 c0 bc
       0.01070515 0.07244141 0.16464904 -0.02350189
000070 9f 6f 96 bd 44 09 9b 3c
       -0.07345509 0.018925317

func_approx.network.4.weight f4 [30, 30]
000000 10 5b 33 3e c8 e3 05 be be aa 16 be 7c 13 95 3d
       0.17515206 -0.13075173 -0.1471357 0.07279107
000010 4e e1 72 bc 73 ec 5b be 6c 23 05 be f9 2a 5c 3d
       -0.014824225 -0.21476917 -0.13001794 0.05375192
000020 6c 6d 73 bd d5 bb 36 3e 55 2b 13 3e 38 01 dd 3c
       -0.059430525 0.1784509 0.14371999 0.02697812
000030 b5 35 6d bc be 53 76 bb 15 14 ab bc 59 ff e7 bc
       -0.014478137 -0.0037586535 -0.0208836 -0.028320001
000040 d3 d6 02 be c0 ee ff bc d6 2d 10 be c0 d3 fc 3d
       -0.12777261 -0.031241775 -0.14079985 0.123450756
000050 83 50 cb bd 43 e9 30 3e f7 75 47 bd 74 c8 f3 bd
       -0.09927466 0.17276482 -0.048696484 -0.11903468
000060 de aa 05 3e cf 55 08 3d 6a 15 d1 3d 4a 5a 2a 3e
       0.13053462 0.03328496 0.102091625 0.16636005
000070 27 df 3b be 2a 35 00 3e 38 2c 8d bd 05 57 75 bd
       -0.18346845 0.1252028 -0.068932 -0.05989744
000080 4a c2 18 3e 89 55 09 3e e0 98 0f be 9c 80 bd 3b
       0.14917865 0.13411535 -0.14023161 0.0057831537
000090 80 f6 2e 3e fd 33 d3 3d 44 23 2f 3e 1b e7 db bd
       0.1708622 0.1031265 0.17103297 -0.10737439
0000a0 d8 f9 f4 bd 83 b3 2c 3e 5d 25 74 3d 4e f8 fe 3d
       -0.119617164 0.16865353 0.059605945 0.12449704
0000b0 f7 25 cc bd d7 34 4c bd f4 f7 75 bd 04 d5 39 be
       -0.09968179 -0.04985508 -0.06005092 -0.18147665
0000c0 04 9f 0f 3d d1 11 f6 3d f5 00 ea 3c de 8a 96 3b
       0.03506376 0.12015117 0.02856491 0.004594191
0000d0 2e bd d1 3d 11 e9 f2 bd d2 a0 ff 3d b0 9c 44 be
       0.10241161 -0.1186086 0.12481846 -0.19200397
0000e0 25 a1 1c be 8f f5 d2 bd 6e 45 27 3e 5b 4a 37 3b
       -0.15295847 -0.10300743 0.16335079 0.0027967903
0000f0 81 70 06 3e 63 b3 21 be 73 41 03 3d e1 f3 02 bd
       0.13128854 -0.15791087 0.03204484 -0.031970862
000100 f5 a5 62 3d d5 5a bd 3d f8 b7 50 3d cc 77 39 bd
       0.05533405 0.092458405 0.050956696 -0.045280263
000110 64 f7 5c bc 8d 04 8d bd 81 32 42 bd c9 9e d7 3d
       -0.013486717 -0.068856336 -0.047411446 0.10528333
000120 f8 70 66 bd fd be 25 3e 55 ff 79 bd e6 7f de bd
       -0.05626008 0.16186137 -0.06103452 -0.108642384
000130 a6 93 db 3c 65 f5 18 be 33 bc f2 3c 17 82 10 3b
       0.026803803 -0.1493736 0.029630756 0.0022050196
000140 63 e4 99 3b b5 90 62 bd f8 73 16 3e 43 40 00 3e
       0.0046964153 -0.055313785 0.14692676 0.12524514
000150 98 24 a0 bd 84 47 cf 3d 4a 10 31 be 08 b4 96 bd
       -0.0781948 0.101210624 -0.1729137 -0.07358557
000160 68 bb 14 3d e5 da c2 3c bb ae 20 be b3 b4 1f be
       0.036311537 0.023786018 -0.15691654 -0.15596275
000170 55 88 06 bd 5c 57 92 3d b5 7a 27 be 22 14 0a be
       -0.03284486 0.07145569 -0.16355403 -0.13484243
000180 be 69 53 3d d2 a7 dd bd 41 a4 28 be bb 1a fe bd
       0.051614515 -0.10823025 -0.16468908 -0.12407442
000190 94 80 0f bd 3b ca 25 be dc 26 02 be 9f 25 23 bd
       -0.03503473 -0.16190426 -0.12710136 -0.0398308
0001a0 4f 78 26 be ef cf 19 3d bf cd 06 be 7f cd 11 be
       -0.16256832 0.037551817 -0.13164423 -0.14238547
0001b0 c3 10 60 3d ef 15 20 be 7a 1e 23 be 84 2d d7 3d
       0.054703485 -0.15633367 -0.15929595 0.10506728
0001c0 a4 8b fe 3c f3 ef 39 3e 40 ea b6 bd f5 24 ca bd
       0.031072445 0.1815794 -0.089313984 -0.0987033
0001d0 e3 96 46 3c f3 70 b5 bd 40 ce 1b 3e 06 ae 49 be
       0.012120935 -0.08859434 0.15215397 -0.19695291
0001e0 ae 2a 2a bd fd 3d a7 3d e2 20 ab bd a9 05 b5 bd
       -0.04154461 0.0816612 -0.08355881 -0.0883897
0001f0 be ab db 3c 33 41 20 be 95 b0 4c 3d 61 94 4a be
       0.026815291 -0.15649872 0.04997309 -0.19783165
000200 77 95 a9 3d 9b e4 08 be 71 4c 12 3e d5 ca 3c be
       0.08280461 -0.13368456 0.14286973 -0.1843675
000210 a3 3c 0c be 62 44 a3 3c b8 47 4a 3e e2 fd 2e be
       -0.13695006 0.019930068 0.19753921 -0.17089036
000220 75 7f 39 bd ec c2 1d 3e 2a 75 03 3d 4b dc 96 3d
       -0.045287568 0.15406388 0.03209416 0.07366236
000230 d7 53 2b be af 8f 07 be fe 22 c4 bd f2 89 2a 3e
       -0.16731201 -0.13238405 -0.09576987 0.16654184
000240 90 47 ca 3d b2 4c 09 be 59 44 0d 3d a1 47 24 bd
       0.09876931 -0.13408163 0.03448901 -0.040107373
000250 a3 5a 9e bd 36 21 d2 bd c7 38 01 be e6 0b 22 3e
       -0.07732131 -0.10260241 -0.12619315 0.15824851
000260 1e d8 ae bd 52 eb f4 bd be 7c 6f bd 79 18 2c 3d
       -0.08537315 -0.11958946 -0.058468573 0.042015526
000270 c2 52 94 3d 31 b1 b3 3c e4 6d 4e bd dc 60 22 be
       0.07242347 0.021935077 -0.05039777 -0.15857261
000280 7e 9d f3 bc bd 7b 98 bd 3c 2b 17 3e fd 9c 68 be
       -0.029738184 -0.07445476 0.14762586 -0.22716136
000290 ee b3 cc bd e1 e9 ba bd bf 7e 2a bd 57 93 03 3e
       -0.09995256 -0.0912664 -0.04162478 0.12849174
0002a0 b5 ec 18 3e 79 58 2e be 10 2d aa bc 10 3a be 3d
       0.14934047 -0.17025937 -0.02077344 0.09288418
0002b0 3c b6 a4 3d 10 62 29 3e 48 77 28 bd 4e a0 04 be
       0.08042571 0.16541314 -0.04112938 -0.12951776
0002c0 c4 b8 12 3e eb b8 18 be 27 fb d0 3d d8 28 5f bd
       0.14328295 -0.1491429 0.102041535 -0.05448231
0002d0 99 4a 09 3e 6e 20 17 3e c7 d7 0a 3e b8 41 29 be
       0.13407363 0.14758465 0.13558875 -0.16528976
0002e0 57 98 09 be 39 43 d5 bd 12 c8 0a be 8a e8 14 3e
       -0.1343702 -0.10413212 -0.13552883 0.14541832
0002f0 70 d3 e5 bc 76 b8 92 bd 15 ba 90 bd e3 be d8 bd
       -0.028054923 -0.071640894 -0.07066742 -0.10583284
000300 ef b0 a9 3d 7f 04 d1 bd 83 33 22 be b9 f6 7b be
       0.082857005 -0.10205936 -0.15839963 -0.24605836
000310 cd 41 df 3d a1 7e c6 3d d1 63 ac bd d3 9d 5f 3d
       0.109012224 0.09692121 -0.08417476 0.054593872
000320 4b 61 1a 3e fd 70 5d 3c 1a 7c 52 bd 97 e6 48 3c
       0.15076177 0.013515708 -0.051387884 0.012262008
000330 84 0b 14 3d 64 1f c5 3d 26 08 13 be c4 d2 35 3e
       0.036143795 0.09625128 -0.14358577 0.17756182
000340 b2 bd c2 3d 90 1c cf bd 71 24 16 3e 35 7e 18 3e
       0.09508838 -0.1011287 0.14662339 0.14891894
000350 a7 75 d6 bd 1a 8c 7b bd 26 67 5f 3d 43 4b 22 be
       -0.10471659 -0.061412908 0.05454173 -0.15849023
000360 7c 08 41 3d 42 fa 4a 3b fb cc d8 3d d9 f6 f2 bd
       0.047127232 0.003097192 0.10585972 -0.11863489
000370 ed ba f1 bd c2 0c 5c 3d 72 7f c7 3d 6f 82 01 be
       -0.118032314 0.053723104 0.09741105 -0.12647413
000380 e0 9e 5d bd 06 83 5e be 1e 6e a9 bd ab 39 85 bd
       -0.054106593 -0.21729669 -0.08272956 -0.0650514
000390 49 44 47 3e a7 dc 4c bc f7 be 06 3e e6 94 08 3e
       0.19459642 -0.0125037795 0.13158785 0.1333805
0003a0 af 66 b5 3d 87 68 29 be a0 91 10 3e 7c 50 bc 3d
       0.08857476 -0.1654378 0.14118052 0.09195039
0003b0 b9 e9 ed 3d 39 1b 32 be b2 e2 b1 3d a0 25 33 3e
       0.11616845 -0.17393197 0.08685817 0.17494822
0003c0 3b 7b f1 bd 7a 7b 30 bc ef bf f6 3d fd fe 1b be
       -0.117910825 -0.010771627 0.12048327 -0.15233989
0003d0 d3 6b e1 3c 32 69 25 3d 51 d5 8a 3c cb 9c 12 3e
       0.027517235 0.040383525 0.01694742 0.14317624
0003e0 98 74 28 3e 2e 65 4f 3e cf 04 91 3b 4e 44 00 3e
       0.16450727 0.2025344 0.004425622 0.12526056
0003f0 f9 b7 14 be 21 1f 5f bd 49 fb 24 bc 15 80 d4 bd
       -0.14523305 -0.054473046 -0.010069677 -0.10375992

func_approx.network.4.bias f4 [30]
000000 58 01 99 bd 52 22 a4 bd 5e d6 2c bd 88 02 2b 3e
       -0.074709594 -0.080143586 -0.042196624 0.16700184
000010 01 70 6f 3c 8e 7f 13 3e b2 5d 9f bc db 19 e0 3c
       0.014614106 0.14404127 -0.019453857 0.027356079
000020 8c ef b1 bc 39 ea 2c 3d 53 b4 3d be 06 d6 30 be
       -0.02172067 0.04221556 -0.1852582 -0.17269143
000030 1b 18 1c 3d 42 c4 c1 3d 3c ab 05 3e 1e 0f 23 bc
       0.038108926 0.09461261 0.13053602 -0.009952335
000040 df db 6f 3d f6 55 e6 3d 2a e7 0a be d5 c3 29 be
       0.058559295 0.112468645 -0.13564745 -0.1657861
000050 3b c0 ec bd 9d 0e b9 bb 57 ec ac bd 04 5e 89 bd
       -0.115601026 -0.005647494 -0.08443516 -0.06707385
000060 d4 72 93 bd 8a e1 b8 3d 78 8d 86 3d 96 8c 10 3e
       -0.07199636 0.09027393 0.06569952 0.1411613
000070 b0 eb 3b 3e c9 d0 06 be
       0.18351626 -0.13165583

func_approx.network.6.weight f4 [30, 30]
000000 ec c7 a5 3c 13 e1 84 3d 8e ec 02 3e 75 84 8c bd
       0.020236932 0.06488242 0.12785551 -0.06861202
000010 35 e5 96 bd a1 37 0a be 63 98 01 3e f2 1e 8c bd
       -0.073679365 -0.13497783 0.12655787 -0.0684184
000020 bb 08 87 bd 1e 88 fe 3d 78 42 2b 3e 58 1d cd 3a
       -0.06593462 0.12428306 0.16724575 0.0015649004
000030 ac fd 02 be 3c cd ff 3d 83 6b 9f bd b0 b5 ca bd
       -0.1279208 0.12490317 -0.07784178 -0.098979354
000040 9c b9 ce bd 13 90 bc bd 33 21 bf bd bf 75 bf bd
       -0.10093996 -0.092071675 -0.09332504 -0.0934863
000050 21 aa 08 be 49 e2 37 bd 4d 0d 99 3d c6 fb 1e be
       -0.13346149 -0.044893537 0.0747324 -0.15525731
000060 0c 99 97 3a 9e 10 88 bd 36 41 fa 3d b2 0e 15 3e
       0.0011565997 -0.066437945 0.12219469 0.14556387
000070 85 27 28 bd 6c f3 9d bd 1d c2 1f be 1b a7 26 be
       -0.041053314 -0.07712445 -0.15601392 -0.16274683
000080 e0 9f ab 3d 39 26 65 3d 6a 59 06 3e 46 8c 17 bc
       0.08380103 0.055944655 0.13120046 -0.009249752
000090 71 fe 09 3e 4d dd 06 be 15 52 91 3d a2 0e 26 3e
       0.13475968 -0.13170357 0.07095734 0.1621652
0000a0 ff 24 47 be 0d 9e eb bd 3e d3 d1 3d e4 90 f3 bb
       -0.19447707 -0.11504755 0.102453694 -0.007433044
0000b0 f3 26 a8 bd cc 2a f4 3d 2a f7 c9 3b 2b 8b 3b 3c
       -0.08210554 0.11922225 0.0061634975 0.011446754
0000c0 aa 0c bf bd b3 33 08 3e 36 69 7e 3d 36 ac 64 3d
       -0.09328587 0.13300972 0.062112056 0.055828296
0000d0 48 d6 63 3c 3f f1 e6 3d 1c 85 03 3e 4d 1e b8 bd
       0.013906069 0.11276483 0.12843746 -0.089901544
0000e0 15 1d 8b bd ff 18 ea 3d 91 ea 9e bd 5d 02 1f 3e
       -0.06792656 0.11430549 -0.07759584 0.15528245
0000f0 5e 15 15 be 0d 29 4c 3d cc 56 cc bd ce a0 90 3d
       -0.14558932 0.049843837 -0.09977493 0.07061921
000100 8d c2 03 3e db 56 27 3d eb 93 1e bc d4 c6 07 3e
       0.12867184 0.040854316 -0.009678821 0.1325944
000110 8e 15 08 be 06 34 fd bd 72 04 1f be 64 b8 f6 bd
       -0.13289472 -0.12363438 -0.1552904 -0.120468885
000120 9d b5 80 3b e6 6c 74 bd 77 ef 63 3d 29 95 b1 3c
       0.0039279 -0.059674166 0.055648293 0.02167757
000130 d6 b7 00 3e 49 74 98 bd fa 1d ca bd b6 36 df 3d
       0.12570128 -0.07444055 -0.09868999 0.10899107
000140 ac 51 a1 bd 50 5d 3b 3e 1a 15 98 bd 90 9a 68 3c
       -0.07876906 0.18297315 -0.074259 0.014197007
000150 81 30 39 bd b2 41 ac 3d 35 cf 14 3d 07 34 ad bd
       -0.045212273 0.08410968 0.03633042 -0.08457189
000160 74 68 0c 3e a6 1e d6 bc 66 ce 77 bd bb df 14 bd
       0.1371172 -0.026137661 -0.06049957 -0.03634618
000170 a0 be 1c 3e 9a c1 3c 3e 2b 87 bd 3d 52 6d 33 3d
       0.15307093 0.18433228 0.09254297 0.043805428
000180 83 6b 01 3e f1 15 93 bd 2d ec e7 bd ff 8e 29 bd
       0.12638669 -0.07181919 -0.11324344 -0.041396137
000190 1b f7 dc bd d6 6a a3 3d ac 30 6a 3c 54 d6 3d bd
       -0.10789319 0.07979362 0.014293831 -0.046346977
0001a0 47 db 2b bc 2b 67 8f 3c ef 99 09 3e 3e a3 31 3e
       -0.0104892915 0.017505249 0.13437627 0.17347428
0001b0 3b ed 47 be da ee 73 3d 7d b0 2c 3d 5d 86 a4 3d
       -0.1952409 0.05955396 0.0421605 0.0803344
0001c0 4e b5 89 bc 5d 9e 5c 3d a4 71 03 3d 30 da 32 3e
       -0.016810086 0.053861964 0.032090798 0.17466044
0001d0 ec 61 53 be 4f 3f 72 bd 41 21 e4 bd a8 a4 c4 bd
       -0.20642823 -0.059142407 -0.11139155 -0.09601718
0001e0 3b e1 08 3c ac 80 a2 3d fd 91 d9 bd 6e a1 0d 3e
       0.00835448 0.079346985 -0.10623548 0.13831112
0001f0 74 42 19 3e d2 2b 83 bd df ae 19 3d 24 16 96 bd
       0.14966756 -0.064048424 0.037520286 -0.07328442
000200 58 86 36 3d 42 a6 ba bd b1 86 a1 bd 2e 58 0d be
       0.044561714 -0.091137424 -0.078870185 -0.13803169
000210 a8 e7 16 be 3e fc 31 3e 7a a3 27 ba db 41 9f 3b
       -0.14736807 0.17381379 -0.00063949043 0.0048601455
000220 0b 70 fd bd c6 0f 00 3e ac cd 1a be ae 61 bd bd
       -0.12374886 0.12506017 -0.1511752 -0.092471465
000230 a8 70 33 be af 0c 19 be 6b 07 1c 3e 5a 45 f2 bd
       -0.17523444 -0.14946245 0.15237205 -0.11829634
000240 15 fd a4 bc f2 54 46 bd c2 d2 11 3d 94 d3 83 3d
       -0.02014021 -0.048420854 0.035601385 0.0643684
000250 63 e8 ed bd cd 6a 11 3e cf 39 55 be a3 ed 73 bc
       -0.1161659 0.14200898 -0.20822833 -0.0148882
000260 80 55 9b 3c 31 16 d0 bc 3a d3 f8 3d 5e f0 36 3e
       0.018961668 -0.025401207 0.12149663 0.1786513
000270 1f c9 e9 3c f4 a6 39 bd 9b 1b 0e 3e 8a 05 db 3d
       0.028538285 -0.045325235 0.13877718 0.10694416
000280 17 cc eb 3c 89 66 7e bd 14 e8 3b 3c 1a 2b 47 3e
       0.028783841 -0.062109504 0.011468906 0.19450036
000290 c7 2d 24 3d a5 fd c8 bc 1b 72 40 be 32 6a cc bd
       0.04008272 -0.02453501 -0.18793528 -0.09981193
0002a0 87 f5 a8 3d 29 a8 bc bc 4b 33 35 bd ba 20 95 3d
       0.082499556 -0.023029404 -0.04423837 0.07281633
0002b0 26 1b 02 be 38 95 2c 3c 8c 91 45 bd 08 cc ca 3d
       -0.12705669 0.010533623 -0.048234507 0.09902197
0002c0 ff f5 ee 3d 3b 99 01 3e d2 14 22 3e 88 79 3b be
       0.11668014 0.12656109 0.15828255 -0.18308079
0002d0 f6 95 34 bd 63 75 75 3d da b1 3e be 2a aa 12 3d
       -0.044088326 0.0599264 -0.18622532 0.035806812
0002e0 a5 35 fa bd f7 b9 70 3d 8e 03 09 3e d8 f7 35 be
       -0.12217263 0.0587711 0.13380262 -0.17770326
0002f0 04 f3 15 3e 36 2e b8 3d df 3e ed bd 3f 30 3f 3e
       0.14643484 0.08993189 -0.11584257 0.18670748
000300 75 4b 1f be 39 06 15 be 35 9a da bd 7f f5 b9 bc
       -0.15556128 -0.14553155 -0.10673944 -0.02270007
000310 e2 56 64 3d d2 39 6c bd 71 ab 03 be d0 ef 18 bc
       0.05574692 -0.05767233 -0.12858368 -0.0093345195
000320 55 12 31 3e 78 17 04 3e e9 03 c8 3d b8 e3 16 3c
       0.1729215 0.12899578 0.09766371 0.009209566
000330 77 9c 2c 3d 71 d8 0c be 02 bc e2 3d 69 12 4c be
       0.042141404 -0.13754441 0.11071016 -0.19928898
000340 71 be bd bd 11 9c 03 bd a7 de e4 3d fc 8d 23 bd
       -0.092648394 -0.03213126 0.1117528 -0.03993033
000350 58 db 50 bd 55 be 3c 3d 64 f3 1b be 7f 32 e1 bc
       -0.050990433 0.046079952 -0.15229565 -0.027489899
000360 ec 8d 75 3d e6 e9 ed 3b 68 93 83 bc 16 9c db 3d
       0.0599498 0.007260549 -0.0160615 0.107231304
000370 f5 28 11 be df 06 d3 bd 4f ef 34 3e 8c 08 7a 3d
       -0.1417578 -0.10304045 0.17669414 0.061043307
000380 bf ef 4b bc a7 43 dd 3d 7c f6 a8 3d 04 27 e5 bc
       -0.012447297 0.10803919 0.08250138 -0.027972706
000390 54 d1 fb bd 68 0f 30 bd d5 12 07 3d 4d cf 87 bc
       -0.122957855 -0.042983443 0.032976944 -0.01657834
0003a0 a6 6e cf 3d 63 96 05 be 9c 29 b3 bd 86 14 0e 3e
       0.101285264 -0.13045649 -0.08748171 0.13875017
0003b0 bf 75 2b bc 65 f2 4a 3d 6c cf a0 3d dc 34 75 bd
       -0.010465085 0.04954757 0.078520626 -0.059864864
0003c0 63 ee c1 bd c0 46 8f 3c 86 f4 79 bc df 3b 80 bd
       -0.09469297 0.01748979 -0.015256053 -0.062614195
0003d0 71 bd be 3c df a7 83 3d ac cc fd bb 37 6a d7 bd
       0.023283692 0.06428503 -0.007745346 -0.10518306
0003e0 c9 05 d7 bc 39 64 dd bd cd f8 c2 3d 4b fe 04 be
       -0.026247876 -0.108101316 0.09520111 -0.1298763
0003f0 b9 a0 14 3e 0e 68 ca 3d a3 8c 0f be 1d 14 19 3e
       0.14514436 0.09883128 -0.14018492 0.14949079

func_approx.network.6.bias f4 [30]
000000 15 ea c4 bd 3b cb 91 3d 69 a5 e2 bd b1 03 d7 3c
       -0.0961496 0.07118841 -0.11066706 0.026246877
000010 fd a9 d4 3c 8d 2d b4 3d f4 82 48 3d 34 dd c3 bd
       0.025959963 0.087977506 0.04895301 -0.095636755
000020 3d 13 cf 3d 1b 92 ed 3d 37 6c 01 3d 32 10 eb 3d
       0.10111091 0.11600133 0.031597342 0.114776984
000030 ae 69 b2 bd a4 de 6d 3d 8e 43 79 3d f4 53 78 bd
       -0.08711563 0.058073655 0.06085544 -0.06062694
000040 6b 3b f2 3d 3d f7 49 be 19 fb 3d bd 34 0d a5 bd
       0.11827739 -0.1972322 -0.046382044 -0.08059159
000050 ea 02 ad bd 09 a5 a9 bd 81 a2 16 be f2 fe 58 3d
       -0.084478214 -0.08283431 -0.14710428 0.05297751
000060 21 d7 5d bc d1 23 31 be 5c 65 d0 3c 9a 7b 61 bd
       -0.01354006 -0.17298819 0.025438957 -0.055049516
000070 64 5d ad 3d 30 2f 2e be
       0.084650785 -0.17010188

func_approx.network.8.weight f4 [1, 30]
000000 bb 11 47 bd 80 0b f5 bc 84 05 7b 3d 4e 0e 95 3c
       -0.048600893 -0.02991271 0.061284557 0.018195298
000010 f6 59 e9 3c e6 f4 47 3e 2f b7 b3 bc 1e 15 a6 3d
       0.02848528 0.19527015 -0.021937935 0.081094965
000020 14 24 21 3e 48 10 2b be 36 7b 38 3d e0 38 db 3d
       0.15736419 -0.1670543 0.045039378 0.107042074
000030 d0 9a 65 bd 77 74 d8 3d 22 9b 99 3c 9f 4c bd 3d
       -0.056055844 0.10569089 0.01875073 0.0924313
000040 4a dd c2 3c d3 a1 00 be 3c 3e 37 3e 3c 2e b1 3c
       0.02378716 -0.12561731 0.17894834 0.021628492
000050 b1 22 12 3e d2 de 61 3c 84 80 3e 3d 5f 0e eb 3d
       0.14271046 0.013786035 0.04650928 0.114773504
000060 0e e0 a5 bc 77 f8 5d bd ac 93 7d bb bd 14 f0 bd
       -0.02024844 -0.054192033 -0.0038692756 -0.117227055
000070 bc 42 1e 3c d5 fa 51 bd
       0.009659465 -0.051264603

exp_avg f4 [30, 2]
000000 87 68 4b ba 6e 20 ed b9 17 41 21 b7 09 e3 03 b9
       -0.0007759411 -0.00045228325 -9.611503e-06 -0.00012577711
000010 54 b0 da ba 3b f4 cd ba 63 74 4d ba 22 a6 8a ba
       -0.001668463 -0.0015713045 -0.00078374724 -0.0010578076
000020 cc 7b 91 b9 9c 3f 2d ba 42 7b 40 ba 1d 1f 16 ba
       -0.0002774879 -0.0006608905 -0.00073425856 -0.0005726682
000030 17 77 86 38 b0 a5 50 b8 bf 33 36 ba 8e 17 1c ba
       6.4118e-05 -4.9745373e-05 -0.000695046 -0.00059544377
000040 10 f4 a4 36 99 7e 04 39 af f3 b2 39 f3 64 eb 38
       4.9159935e-06 0.00012635662 0.00034132364 0.000112244765
000050 f4 8b 47 ba 05 b9 ae ba b0 0c db bb dc 3b 69 bb
       -0.0007612102 -0.0013330287 -0.006684862 -0.0035588657
000060 20 73 af ba 3c 5f 08 ba 32 1d 05 3a 13 70 20 3a
       -0.001338575 -0.00052021793 0.0005077898 0.0006120216
000070 5e 3c 14 b9 46 ff 02 3a b5 d8 4d bb 08 c7 9e ba
       -0.00014136868 0.0004997145 -0.0031409685 -0.0012113759
000080 d7 70 f6 b8 26 89 ae 38 dd 1e 00 b8 3d a6 21 37
       -0.00011751212 8.3225124e-05 -3.054632e-05 9.635053e-06
000090 04 25 5e bb 15 ea 0b bb 5c e5 40 b9 d5 5e 36 b9
       -0.0033896575 -0.002134924 -0.0001839599 -0.000173922
0000a0 82 58 ab b9 94 2c 18 ba e7 67 ab 3b 4d 39 18 3b
       -0.00032681605 -0.00058049825 0.005230892 0.0023227513
0000b0 41 ca 86 b9 ec 02 74 3a 12 8e 7a 39 84 03 80 ba
       -0.00025709163 0.0009308297 0.00023894783 -0.0009766673
0000c0 8f 82 b3 ba cd 6e fa ba 59 7b fa 37 99 93 2d 39
       -0.0013695526 -0.0019106508 2.985976e-05 0.0001655355
0000d0 b3 bb 85 b9 be 2e 3f b7 21 a1 0f 3a 46 2b c8 39
       -0.00025507584 -1.139537e-05 0.0005479027 0.00038179214
0000e0 91 6a 98 3b 98 92 05 3b 17 c4 70 38 ce 1b 66 b9
       0.0046513756 0.0020381566 5.7403082e-05 -0.00021944867

exp_avg_sq f4 [30, 2]
000000 09 cd c9 37 f0 85 0e 36 e9 ab 1d 33 20 eb 9b 33
       2.4056544e-05 2.123761e-06 3.6710762e-08 7.260519e-08
000010 d4 52 11 38 7a fc 15 37 ac 05 84 38 72 7e b7 36
       3.4647834e-05 8.939876e-06 6.295307e-05 5.468545e-06
000020 af 1c 50 38 59 72 49 36 1f 80 0c 37 d0 f8 a7 35
       4.9617778e-05 3.0017893e-06 8.374481e-06 1.2514884e-06
000030 78 03 d4 33 ce 96 12 33 4b b1 aa 36 05 ff f9 35
       9.87265e-08 3.413043e-08 5.0870344e-06 1.8626166e-06
000040 cc 5b b4 34 01 22 87 33 6f 15 58 36 dc 57 79 35
       3.3594404e-07 6.292613e-08 3.2198984e-06 9.288758e-07
000050 8c 5a 7d 38 77 2b 16 37 bb cd d2 39 b2 86 52 38
       6.040423e-05 8.950817e-06 0.00040207602 5.0193346e-05
000060 4d 02 ef 37 70 08 6c 36 bc bf c4 35 42 71 a2 35
       2.8492092e-05 3.5171652e-06 1.465894e-06 1.2102903e-06
000070 71 1f 44 37 71 95 86 35 10 9d e0 38 28 6a 28 37
       1.1689831e-05 1.0027271e-06 0.000107104075 1.0038297e-05
000080 97 c2 c5 35 32 02 bb 34 55 7e e3 32 c4 ed bf 31
       1.4734277e-06 3.4833062e-07 2.6483727e-08 5.5858624e-09
000090 87 85 b8 38 65 32 8e 37 26 d9 f6 36 c1 82 a3 34
       8.798675e-05 1.6951186e-05 7.3566507e-06 3.0456252e-07
0000a0 c4 cd 20 37 6d e5 b5 35 0e 1d 3c 39 c5 b9 b0 37
       9.584652e-06 1.3552323e-06 0.00017939901 2.106734e-05
0000b0 d5 04 94 37 b2 1a 57 36 17 76 03 38 21 2a 8a 36
       1.7645225e-05 3.2053035e-06 3.1342814e-05 4.117625e-06
0000c0 3d 76 80 38 43 66 67 37 07 b7 02 34 b1 ca 07 34
       6.125539e-05 1.3792483e-05 1.2173778e-07 1.2646593e-07
0000d0 e7 8d 55 36 f5 91 09 35 82 a7 ae 36 2f ad 88 35
       3.1822071e-06 5.124887e-07 5.2051046e-06 1.0183193e-06
0000e0 92 82 1f 39 08 44 9b 37 e6 ba c3 34 f5 d3 34 34
       0.00015212063 1.850912e-05 3.6457567e-07 1.6840916e-07

max_exp_avg_sq f4 [30, 2]
000000 1b 5a cc 37 f0 85 0e 36 15 17 24 33 98 8f a3 33
       2.4360654e-05 2.123761e-06 3.820522e-08 7.6163985e-08
000010 0e 42 13 38 72 63 17 37 18 2f 86 38 72 7e b7 36
       3.510905e-05 9.023455e-06 6.39839e-05 5.468545e-06
000020 73 5f 53 38 59 72 49 36 33 db 19 37 2a 48 ac 35
       5.0395214e-05 3.0017893e-06 9.170547e-06 1.2836001e-06
000030 14 3c 19 34 08 2c 49 33 1c 6f b0 36 a7 6b 03 36
       1.4271092e-07 4.6839006e-08 5.2581436e-06 1.9583183e-06
000040 67 77 be 34 35 de 8b 33 81 0a 59 36 65 41 7b 35
       3.5477134e-07 6.513111e-08 3.2341634e-06 9.359995e-07
000050 b2 4e 80 38 17 bb 16 37 05 cd d3 39 be 89 52 38
       6.118174e-05 8.984257e-06 0.00040397808 5.0196184e-05
000060 2e a1 f0 37 70 08 6c 36 4e 7d c8 35 0b 22 a5 35
       2.8685285e-05 3.5171652e-06 1.493763e-06 1.2303366e-06
000070 35 a4 48 37 d9 8b 87 35 f4 ae e1 38 28 6a 28 37
       1.1959161e-05 1.0098985e-06 0.000107614236 1.0038297e-05
000080 89 84 c9 35 40 6f bd 34 55 7e e3 32 5a b8 c3 31
       1.501424e-06 3.5284938e-07 2.6483727e-08 5.6962053e-09
000090 6d f9 b9 38 f8 e9 8e 37 f3 f8 02 37 f7 e7 a3 34
       8.8679466e-05 1.703667e-05 7.806567e-06 3.0529893e-07
0000a0 4a b0 24 37 a4 19 b8 35 c0 4d 3c 39 c5 b9 b0 37
       9.816207e-06 1.3716531e-06 0.00017958041 2.106734e-05
0000b0 a3 2d 96 37 dc a2 59 36 8d f3 05 38 23 4f 8b 36
       1.7902645e-05 3.2430316e-06 3.1936495e-05 4.1517355e-06
0000c0 e4 c1 82 38 19 db 69 37 4d 5d 03 34 bb 1f 0b 34
       6.234998e-05 1.3938895e-05 1.2234268e-07 1.2956927e-07
0000d0 eb c8 58 36 d4 e0 09 35 19 86 b1 36 c8 e8 89 35
       3.2303458e-06 5.1363645e-07 5.290622e-06 1.0275044e-06
0000e0 0c 38 20 39 08 44 9b 37 b4 22 ca 34 7d da 38 34
       0.00015279668 1.850912e-05 3.7650682e-07 1.7215821e-07

exp_avg f4 [30]
000000 e5 34 5d b9 79 1e 50 36 b8 be 3c ba a0 ed 0a b9
       -0.00021095907 3.1012153e-06 -0.000720005 -0.00013249228
000010 32 fe fd b7 f4 38 c1 b9 34 04 5a 38 51 ee 99 b9
       -3.027832e-05 -0.00036854262 5.1979165e-05 -0.00029359994
000020 cd 26 98 37 50 ff 12 39 a1 30 c4 b9 34 95 0c bb
       1.813788e-05 0.00014018756 -0.00037420265 -0.0021451237
000030 01 82 d7 b9 1c 0e f3 39 ce 8f 5d b8 c2 03 3e ba
       -0.00041104856 0.00046359084 -5.2824435e-05 -0.0007248485
000040 c9 01 9f b8 81 86 d4 b7 8a e5 94 ba 2a b0 bc b8
       -7.582043e-05 -2.5335003e-05 -0.0011359912 -8.997352e-05
000050 fa 21 ce b7 ac ae ea 3a 31 87 74 b8 12 97 9a 37
       -2.4572935e-05 0.001790484 -5.830004e-05 1.8428578e-05
000060 24 0f 03 ba 5d d5 80 b7 3b 57 68 b8 d9 d4 5b 39
       -0.00049995095 -1.5358144e-05 -5.539435e-05 0.0002096476
000070 ef fe bf 3a bd 02 0f 37
       0.001464812 8.524102e-06

exp_avg_sq f4 [30]
000000 97 1e 3a 36 f5 0b 5e 33 8e 54 12 37 33 17 d7 36
       2.7733965e-06 5.1699278e-08 8.721965e-06 6.4102e-06
000010 46 da bb 36 d3 b7 0b 36 31 d0 e0 33 d9 00 e3 35
       5.5984447e-06 2.0819614e-06 1.04686826e-07 1.6913065e-06
000020 e7 a9 ee 33 03 18 44 35 5c 98 1c 37 23 bf 5a 38
       1.1113644e-07 7.305063e-07 9.3337985e-06 5.215326e-05
000030 80 a9 50 36 ec ee 93 35 26 86 04 36 a3 59 16 37
       3.1093077e-06 1.1021889e-06 1.9747617e-06 8.961567e-06
000040 19 eb e4 34 87 5e c5 32 14 64 82 37 5c 4f e8 35
       4.2639365e-07 2.2976804e-08 1.554381e-05 1.7308444e-06
000050 ca b9 bf 35 f8 46 be 37 a0 a6 96 36 28 8f c9 36
       1.4284681e-06 2.2682812e-05 4.489746e-06 6.0069324e-06
000060 b0 ba 72 37 68 19 a9 33 f8 a0 15 35 c3 c6 e7 35
       1.4467791e-05 7.874297e-08 5.5741066e-07 1.7268688e-06
000070 77 ef 8e 37 b7 73 50 34
       1.7039229e-05 1.9413606e-07

max_exp_avg_sq f4 [30]
000000 2b 2f 3d 36 1e da 6d 33 a2 91 15 37 e4 70 d9 36
       2.819065e-06 5.537924e-08 8.915e-06 6.480246e-06
000010 77 38 c0 36 8f c5 1a 36 df a2 24 34 49 71 fd 35
       5.7286193e-06 2.3062782e-06 1.5332942e-07 1.8882939e-06
000020 29 f1 fa 33 03 18 44 35 6c 66 1d 37 51 f0 5d 38
       1.1685399e-07 7.305063e-07 9.381776e-06 5.2914318e-05
000030 b7 0c 54 36 c5 6a 97 35 31 2b 07 36 17 78 18 37
       3.1597863e-06 1.1281451e-06 2.0141708e-06 9.087867e-06
000040 89 2d e7 34 87 5e c5 32 e8 9b 84 37 15 45 10 36
       4.3060234e-07 2.2976804e-08 1.5808226e-05 2.1497883e-06
000050 25 0a c5 35 7b 11 c0 37 cc b1 96 36 d0 9d cb 36
       1.4680596e-06 2.2896324e-05 4.4910466e-06 6.0682432e-06
000060 38 e9 77 37 68 19 a9 33 1d d8 17 35 00 e4 ec 35
       1.4776648e-05 7.874297e-08 5.656637e-07 1.7649727e-06
000070 42 e5 90 37 3a d0 55 34
       1.7272894e-05 1.9912923e-07

exp_avg f4 [30, 30]
000000 2d dd fb ba c8 92 07 3b 35 9e 8b 3a c1 8c 26 bb
       -0.0019215696 0.0020686854 0.0010652008 -0.0025413486
000010 2e 70 8e ba 2b 49 9e 3a 92 d5 fa 3a df 8d 71 3a
       -0.0010867172 0.0012076249 0.0019137135 0.0009214561
000020 f4 7b 00 bb e7 1f ec 3a 9d df 2a bb 1d 77 85 ba
       -0.0019605132 0.0018014879 -0.0026073225 -0.0010182593
000030 9b 5e 79 36 ff 18 81 ba 84 9f c3 3a c0 0d d5 ba
       3.715896e-06 -0.0009849368 0.0014924859 -0.0016254708
000040 8f 74 f1 3a 64 45 fa 3a ef 9f af b9 0e 06 04 bb
       0.0018421578 0.0019094166 -0.0003349776 -0.002014521
000050 b1 bd fd 3a 79 d9 82 3a 0b 2c 03 3b 0a c9 07 bb
       0.0019358901 0.0009983025 0.0020015265 -0.0020719194
000060 de 31 a2 3a cb 30 17 bb 7d a4 90 ba 9d e8 c3 b9
       0.0012374481 -0.0023069854 -0.001103535 -0.0003736661
000070 9b 39 d8 3a 5e ea f0 3a 9e 24 3d 3a e3 99 44 ba
       0.001649666 0.0018380394 0.0007215234 -0.00074997375
000080 f4 77 b5 b9 10 1e 81 3a 25 83 d2 39 cc d6 e6 b9
       -0.00034612382 0.0009850878 0.00040152032 -0.00044029055
000090 ec d1 32 ba 69 93 9f b9 f2 9a 3c 3a 46 7e 2d ba
       -0.0006821442 -0.00030436672 0.00071947195 -0.00066182425
0000a0 cc 2c 84 3a 29 73 f4 39 97 b5 21 35 be 0c 9b 39
       0.0010084151 0.00046625108 6.024142e-07 0.00029573397
0000b0 b3 ec 0f ba 3c 04 31 3a 3f 85 2f ba fc d0 32 ba
       -0.0005490288 0.0006752645 -0.00066955754 -0.0006821302
0000c0 a2 fd 66 39 c2 50 44 3a e5 3a 3c ba b9 eb f5 b9
       0.00022028995 0.00074888405 -0.0007180407 -0.0004690567
0000d0 f8 3c 43 ba 41 79 4f 3a c3 92 df b9 f1 0e 60 3a
       -0.0007447745 0.00079144916 -0.0004264322 0.00085471483
0000e0 ab 13 d0 39 b9 5e 85 38 4f b0 37 ba 97 89 2c ba
       0.00039687505 6.359578e-05 -0.0007007168 -0.0006581782
0000f0 a5 5e 34 39 1d 29 bf b9 7e c9 ac b9 e1 38 15 39
       0.00017201396 -0.0003646099 -0.0003295652 0.00014230936
000100 2f aa ed 38 41 5b 6a b9 bc b8 d1 b9 d6 0a 5d b9
       0.0001133274 -0.00022349974 -0.00040001224 -0.00021080239
000110 8a 35 c4 39 6b 2c 6a b9 e2 1e 15 39 1d b9 3e b9
       0.00037423923 -0.00022332526 0.00014221252 -0.00018188772
000120 0e 10 0b b8 fd e9 c2 39 1b 92 5c b9 35 56 25 b8
       -3.3155135e-05 0.00037176898 -0.00021035263 -3.9419352e-05
000130 15 be ae b9 55 5e e1 b9 d1 80 6d b9 f3 cc 5c 39
       -0.00033329488 -0.00042985627 -0.00022650069 0.00021057184
000140 24 00 85 b9 a4 72 7c 39 69 c6 98 b9 b3 3a 5d 39
       -0.00025367842 0.000240753 -0.00029139526 0.0002109807
000150 d7 7b 82 b9 8f c1 c1 39 5b b2 5a 39 75 d6 7e 39
       -0.000248878 0.0003695604 0.00020856543 0.00024303219
000160 5b b9 13 39 4b 8a d6 b9 a7 fa ef 38 ae eb 79 b9
       0.00014088063 -0.00040920297 0.00011443096 -0.00023834288
000170 9e 5a 3d b9 31 15 ba 38 81 f5 9d 38 2f 98 ff b8
       -0.00018058202 8.873118e-05 7.532072e-05 -0.00012187694
000180 4a 0c 79 b9 c1 c4 1a b9 e5 7b 4a 39 d8 a5 37 b9
       -0.00023751069 -0.00014759881 0.00019310376 -0.00017514022
000190 b9 a1 04 39 08 09 db b8 bf 09 37 b7 5d 1b 4a 39
       0.00012648747 -0.00010444416 -1.0909919e-05 0.00019274415
0001a0 84 00 18 b9 26 6e 45 b8 d4 49 55 b9 82 d4 6c b9
       -0.00014496042 -4.7071044e-05 -0.00020340766 -0.00022585879
0001b0 ae 7e 16 b9 07 cb 2d 39 e6 26 10 b9 5f cb 06 39
       -0.00014352307 0.00016574199 -0.00013747401 0.00012854997
0001c0 17 42 49 b9 4e 13 1a 39 98 7b 2c b9 89 b7 70 39
       -0.00019193474 0.00014693776 -0.0001644924 0.00022956556
0001d0 c6 02 00 39 23 fd 2a 39 d7 ef 97 38 52 6e 62 b9
       0.00012208064 0.00016306764 7.244915e-05 -0.00021594137
0001e0 dc 59 ce b6 5b c5 4f 38 7d 3a 9c 38 ba 91 b9 36
       -6.1497394e-06 4.9536447e-05 7.449554e-05 5.5303944e-06
0001f0 c2 2e f7 35 fb 27 87 37 ed 7f 7a 38 13 78 5b 38
       1.8416542e-06 1.6111871e-05 5.9723785e-05 5.2325497e-05
000200 c6 c7 3e b8 83 d8 28 38 d0 46 d1 b6 a0 4d 9e 38
       -4.5485584e-05 4.0255964e-05 -6.236929e-06 7.548486e-05
000210 30 69 3d 38 70 d5 c9 b8 2a 17 54 38 b5 d0 cc 38
       4.5159075e-05 -9.624183e-05 5.0566312e-05 9.766353e-05
000220 1f 2e 45 38 37 25 84 38 ed 42 d5 38 d7 9c 2c b8
       4.7011414e-05 6.301182e-05 0.000101690974 -4.1154064e-05
000230 05 6a d3 37 20 f8 92 b8 68 04 4a 38 94 b6 f0 b7
       2.520253e-05 -7.0080394e-05 4.8164657e-05 -2.8695249e-05
000240 d8 a7 7e 38 f2 41 1d b8 93 98 d6 b7 6a a1 eb b8
       6.0714636e-05 -3.7493133e-05 -2.5581836e-05 -0.00011235739
000250 43 8f 3d b8 43 74 7d 38 ae fb 8a 3a a0 37 ad ba
       -4.5194534e-05 6.0428178e-05 0.0010603571 -0.001321543
000260 bf 74 4d ba ab 68 ad 3a f6 54 1d 3a 23 e9 4b ba
       -0.0007837526 0.0013230046 0.0006001735 -0.00077785755
000270 5f 4f a3 ba fb 2a 30 ba 61 80 a0 3a c7 f2 94 ba
       -0.0012459568 -0.0006720272 0.0012245291 -0.0011363857
000280 9c 09 bc 3a f4 8f a4 39 b2 85 49 b8 d1 48 4b 3a
       0.0014346126 0.0003138777 -4.8046648e-05 0.0007754686
000290 97 5c 7c ba 06 17 2f 3a ec 82 9b ba 93 60 a1 ba
       -0.0009626834 0.0006679151 -0.0011864579 -0.0012312107
0002a0 37 fe be b8 cc 49 9e 3a 45 31 91 ba 4d 3d 90 b9
       -9.107257e-05 0.0012076437 -0.0011077306 -0.00027511493
0002b0 e9 99 a4 ba 5e 8f a2 3a 21 87 5d ba 43 b4 ba 3a
       -0.0012558076 0.0012402346 -0.0008450617 0.0014244396
0002c0 e5 25 41 3a 50 0e ec 39 39 8c 2c ba 12 63 9c ba
       0.00073680124 0.0004502409 -0.0006582174 -0.0011931381
0002d0 1c 96 86 3a 09 d4 98 ba ef 7c 25 ba 8f b4 ab 3a
       0.0010268125 -0.0011659871 -0.0006312867 0.0013100075
0002e0 33 e8 1d 3a 7e e5 2f ba 0e 03 91 ba f5 76 04 ba
       0.0006023675 -0.0006709917 -0.0011063532 -0.00050531264
0002f0 ac 26 92 3a 58 cd 75 ba df 65 ac 3a c2 6b ed 39
       0.0011150441 -0.0009376607 0.0013152919 0.00045284448
000300 62 73 e0 37 6e f7 18 3a 96 d5 47 ba 94 64 5c 3a
       2.675661e-05 0.000583521 -0.00076230743 0.00084073213
000310 9c 40 86 ba a9 36 93 ba d7 4d 1b 39 82 7c 89 3a
       -0.0010242644 -0.00112315 0.0001481095 0.0010489377
000320 55 93 8b ba 94 4b d3 b9 3d ca 8b ba d7 a0 8a 3a
       -0.0010648767 -0.00040301366 -0.001066513 0.0010576498
000330 f7 07 31 ba 7a d5 a9 3a 1e ff 1c 3a 54 1d 51 39
       -0.0006753201 0.0012957298 0.0005988943 0.00019942719
000340 f8 b2 47 ba 0f 03 8c ba 2f 9f 56 b9 66 15 42 39
       -0.0007617916 -0.0010682064 -0.00020467931 0.00018509253
000350 c7 43 25 37 c5 51 a5 b9 21 06 cc b8 8e e3 95 38
       9.850547e-06 -0.00031532175 -9.7286196e-05 7.147259e-05
000360 7f 7f 06 39 74 b9 7c 38 9a 79 07 b9 d7 ae 65 39
       0.00012826732 6.02542e-05 -0.00012919903 0.00021904275
000370 70 a3 c3 b9 8f f0 7a b9 c6 18 b7 37 00 94 27 38
       -0.0003731507 -0.00023931473 2.1826836e-05 3.995374e-05
000380 82 f6 38 39 cf 78 49 b9 a4 ae 20 39 8e 45 c7 38
       0.00017639439 -0.00019213858 0.00015323848 9.502015e-05
000390 c8 3a 20 b9 45 d1 86 b9 3b b1 2a 39 42 76 95 39
       -0.00015280687 -0.0002571439 0.00016278487 0.00028507604
0003a0 5c c5 69 39 37 98 8c b9 7f 82 cb 38 c0 78 61 b9
       0.00022294134 -0.0002681629 9.704101e-05 -0.00021502655
0003b0 14 4d 9c b8 8d d3 b5 37 21 8f af 39 6b fc cb 38
       -7.4530166e-05 2.1675392e-05 0.0003348524 9.726811e-05
0003c0 1e 70 b9 b9 cb 69 cb 39 e1 a5 24 39 2e 44 f6 b9
       -0.00035369484 0.00038798 0.00015702053 -0.00046971574
0003d0 18 7c 49 b9 c2 4c 6b 39 48 34 ab 39 63 86 45 39
       -0.00019215082 0.00022439941 0.00032654614 0.00018837447
0003e0 41 c2 a8 b9 99 e1 cc 39 d9 22 0f ba 40 e4 62 b9
       -0.00032188187 0.00039077995 -0.000546021 -0.0002163807
0003f0 fa 7e 96 b6 d5 92 fc b8 0b f2 a5 39 33 fb 95 b9
       -4.4851304e-06 -0.00012043646 0.00031651589 -0.00028606653

exp_avg_sq f4 [30, 30]
000000 a7 44 06 38 a1 52 9e 38 83 54 6c 38 f8 3d 14 38
       3.2012027e-05 7.549418e-05 5.6345492e-05 3.5343663e-05
000010 dd 50 54 37 ec a2 fe 37 5d a9 b2 38 c4 43 e6 37
       1.2655012e-05 3.0355026e-05 8.519248e-05 2.7449692e-05
000020 70 c3 9f 38 76 4f 1e 38 f0 71 11 38 28 b3 6f 37
       7.618114e-05 3.774414e-05 3.4676807e-05 1.4287223e-05
000030 82 d4 fb 34 7f 75 9c 38 e1 8f f4 37 3c 19 05 37
       4.6907013e-07 7.460545e-05 2.9154065e-05 7.933293e-06
000040 d5 3e 83 38 8c 9d c6 38 c7 44 e3 37 91 49 20 38
       6.25827e-05 9.470721e-05 2.7092536e-05 3.8215487e-05
000050 7b ce 4d 38 36 70 ce 37 59 8d 57 38 13 b9 14 38
       4.906811e-05 2.4609366e-05 5.1391635e-05 3.5458314e-05
000060 6d c6 1e 38 86 22 a5 38 e7 77 dd 37 29 5d 04 38
       3.7854934e-05 7.8742436e-05 2.6401087e-05 3.1558015e-05
000070 ef 44 45 37 79 af b4 38 85 cf 9d 36 a6 a6 41 37
       1.1758165e-05 8.615753e-05 4.703123e-06 1.1542497e-05
000080 08 d1 14 37 eb 53 b0 36 66 8d f8 35 48 b0 91 36
       8.870156e-06 5.254978e-06 1.8518592e-06 4.3418586e-06
000090 dc b9 5b 37 aa b5 8f 36 96 3d 3f 37 00 c9 bd 36
       1.3096691e-05 4.2828806e-06 1.1398826e-05 5.6560384e-06
0000a0 ab e2 ad 36 1c 6c 3f 36 4a e2 a3 33 c4 9c 47 37
       5.1821894e-06 2.8524146e-06 7.631441e-08 1.1897824e-05
0000b0 96 f1 93 36 b2 4b b6 35 f1 9a 1e 37 24 ed 72 37
       4.4090657e-06 1.3582087e-06 9.453609e-06 1.4479538e-05
0000c0 a0 fa a3 36 5a db c2 36 0c 64 f4 36 ee 3d 99 36
       4.886955e-06 5.8071864e-06 7.2834137e-06 4.566965e-06
0000d0 54 b2 02 37 83 d8 af 36 50 b2 c5 36 34 03 47 37
       7.790124e-06 5.2406117e-06 5.891816e-06 1.186207e-05
0000e0 91 30 80 36 91 9f b7 36 75 4f 1e 36 fa 42 5c 37
       3.820351e-06 5.472401e-06 2.3590085e-06 1.3128616e-05
0000f0 76 75 9c 35 ff 1c 61 36 5e 8b 53 36 27 d6 85 35
       1.1657091e-06 3.354449e-06 3.1522572e-06 9.971599e-07
000100 65 9c 10 35 50 51 ea 35 f3 7d 8d 36 26 e7 af 35
       5.3871764e-07 1.7458024e-06 4.21679e-06 1.3105789e-06
000110 25 36 84 36 4f 9f ba 35 37 2c 72 35 b8 9f 89 35
       3.94021e-06 1.3904445e-06 9.0216366e-07 1.025378e-06
000120 c7 c1 56 32 9e b7 95 36 8f fa 99 35 c0 ab 64 34
       1.2500499e-08 4.461922e-06 1.147231e-06 2.1296637e-07
000130 19 e4 46 36 ee d0 a9 36 73 62 e5 35 59 ff a1 35
       2.963707e-06 5.060915e-06 1.7090482e-06 1.2069751e-06
000140 38 92 12 36 03 58 09 36 e6 b6 09 36 24 56 a7 35
       2.1840806e-06 2.046582e-06 2.0521052e-06 1.246754e-06
000150 3e 1d e4 35 d9 0f 69 36 5b 69 c2 35 84 8d ca 35
       1.6995834e-06 3.472893e-06 1.4484789e-06 1.5091359e-06
000160 ee 11 77 35 86 fc 99 36 2c b2 55 35 81 d5 20 36
       9.204076e-07 4.589153e-06 7.960796e-07 2.3966134e-06
000170 76 97 23 36 de 4c 23 35 46 a3 dd 34 d4 9c 9d 35
       2.4377055e-06 6.083409e-07 4.1283255e-07 1.1743055e-06
000180 8d 95 53 36 ac 9c 75 35 95 74 3e 36 27 f0 55 35
       3.15285e-06 9.14976e-07 2.8380066e-06 7.969815e-07
000190 08 e4 ef 34 b0 40 89 35 d6 7c 93 32 fb a5 6f 36
       4.4683134e-07 1.0226122e-06 1.7169821e-08 3.5710389e-06
0001a0 9f e0 27 35 98 81 8e 34 ec 28 0a 36 6f fd 80 36
       6.2539215e-07 2.6543853e-07 2.0587422e-06 3.844201e-06
0001b0 73 0e c7 35 09 f6 37 35 86 fd d3 35 58 58 00 36
       1.4830861e-06 6.853084e-07 1.579451e-06 1.912491e-06
0001c0 d9 de a8 35 ab 74 29 35 40 96 9e 35 38 09 23 36
       1.2581833e-06 6.312718e-07 1.1815646e-06 2.4294259e-06
0001d0 41 a7 7a 35 36 5a a1 35 ed ed 6b 35 ff 08 66 36
       9.3375644e-07 1.202169e-06 8.789055e-07 3.4277907e-06
0001e0 1a 41 24 35 48 7c b6 35 bb 25 8b 35 33 47 2e 35
       6.1189496e-07 1.3596227e-06 1.0367288e-06 6.492366e-07
0001f0 b5 6a 8e 34 dd 13 23 35 29 b4 d3 35 d1 02 f9 34
       2.65272e-07 6.0751137e-07 1.5773159e-06 4.6381913e-07
000200 72 a3 c3 35 fc 98 25 35 ac 8e 1f 35 d7 0e 8e 34
       1.4576201e-06 6.168991e-07 5.943973e-07 2.6460359e-07
000210 5b 5e 21 32 b7 fb ba 35 a7 88 f2 34 c3 f5 4d 34
       9.392887e-09 1.3931339e-06 4.517544e-07 1.918152e-07
000220 f6 13 99 35 be 07 f4 35 99 a7 f1 34 ce de 24 35
       1.1405198e-06 1.818167e-06 4.5011691e-07 6.1418984e-07
000230 2a 8e 7b 35 93 f6 08 35 74 ec 66 35 40 f9 1c 35
       9.371166e-07 5.102276e-07 8.602576e-07 5.8477235e-07
000240 12 6f 29 35 b2 8c c3 35 f1 00 05 35 aa dc f5 34
       6.3119035e-07 1.456958e-06 4.954773e-07 4.579536e-07
000250 86 7e 7d 34 dd b0 db 35 44 a1 06 37 74 56 97 37
       2.360849e-07 1.6368245e-06 8.02457e-06 1.804086e-05
000260 1c 9f 4e 37 83 06 19 37 d4 9a 51 36 0b a8 f1 36
       1.2315602e-05 9.121027e-06 3.1233549e-06 7.2019225e-06
000270 23 bb a6 37 1d 91 cb 36 55 9b 97 37 0b ff 1d 37
       1.9875884e-05 6.066765e-06 1.8072935e-05 9.417311e-06
000280 07 e0 1d 37 27 cc 09 36 b0 f0 1a 34 72 17 86 37
       9.41009e-06 2.0533423e-06 1.4429929e-07 1.5984962e-05
000290 cf 95 f0 36 25 13 d9 35 b0 2d 7a 37 0b 17 b8 37
       7.1699974e-06 1.6173332e-06 1.4911799e-05 2.194524e-05
0002a0 42 66 99 36 94 ba 21 37 fd 2c 48 37 6a 33 87 36
       4.5716597e-06 9.639789e-06 1.1931404e-05 4.029299e-06
0002b0 1b ce 54 37 7f c8 1b 37 e3 5e 10 37 69 fd a0 37
       1.2684172e-05 9.285402e-06 8.605161e-06 1.919149e-05
0002c0 ea 85 d0 36 89 d8 cc 36 01 9d ee 35 7b cc a7 37
       6.2144727e-06 6.104882e-06 1.7778076e-06 2.000317e-05
0002d0 ea ee 00 37 97 49 8c 37 21 32 47 37 86 7a 10 37
       7.685021e-06 1.6723568e-05 1.1872996e-05 8.611596e-06
0002e0 d5 59 55 36 bc 2c dd 36 a7 d8 9e 37 a2 89 b7 36
       3.1791762e-06 6.591521e-06 1.8935954e-05 5.4698476e-06
0002f0 76 09 90 37 5e 72 02 37 df e8 02 37 f9 b0 31 36
       1.7170543e-05 7.775232e-06 7.802823e-06 2.6478067e-06
000300 f3 b7 f8 33 be 0a 82 37 c9 b2 c0 36 33 08 1e 36
       1.158186e-07 1.550221e-05 5.7428592e-06 2.3548607e-06
000310 db 65 64 37 6d 68 b3 37 61 84 a2 36 b9 22 09 37
       1.3613574e-05 2.138709e-05 4.843387e-06 8.173921e-06
000320 84 b9 41 37 71 6d 9f 36 c3 9e 36 37 3d 31 f9 36
       1.154689e-05 4.75131e-06 1.088501e-05 7.4265104e-06
000330 fa 02 02 37 74 09 96 37 b5 a6 b7 36 4f 07 bf 36
       7.749297e-06 1.7885795e-05 5.4732322e-06 5.6930944e-06
000340 10 ce 19 36 76 1e a1 37 42 ee c9 35 75 75 8f 36
       2.291872e-06 1.920688e-05 1.5045009e-06 4.275406e-06
000350 cc 53 88 36 23 87 b1 35 fe 00 38 35 14 3b 10 36
       4.062871e-06 1.3226858e-06 6.8546785e-07 2.149206e-06
000360 97 cf b6 36 bb 78 d4 35 e8 b7 ab 36 4c ff d8 35
       5.4481893e-06 1.5830368e-06 5.1176066e-06 1.6167555e-06
000370 10 ff 8e 35 bf ca a9 35 5f 7f 6b 32 79 aa c1 36
       1.0654057e-06 1.2650488e-06 1.3707761e-08 5.771694e-06
000380 35 2b b3 35 3c 6d 42 34 44 81 7a 36 3f 68 de 36
       1.3349114e-06 1.8107397e-07 3.7328145e-06 6.6282514e-06
000390 7b e0 0a 36 35 4a c7 35 57 ff 41 36 a3 c9 2b 36
       2.0694267e-06 1.4848252e-06 2.8907868e-06 2.5598354e-06
0003a0 2b 4a 29 36 32 d7 c1 35 56 c8 0e 36 7d 9e 95 36
       2.5226134e-06 1.4442251e-06 2.127626e-06 4.4589965e-06
0003b0 be 52 ea 35 22 2e f9 35 1b 4b 98 35 50 47 c8 36
       1.745844e-06 1.8565372e-06 1.1346741e-06 5.9687663e-06
0003c0 cd ef 22 36 97 42 c2 36 71 1c 99 36 a9 13 20 36
       2.4279464e-06 5.7894026e-06 4.5630663e-06 2.3853302e-06
0003d0 f5 a6 8e 35 83 58 3c 36 eb f5 e1 36 d6 12 0d 36
       1.0628415e-06 2.8065704e-06 6.734151e-06 2.1021601e-06
0003e0 86 8c d1 36 22 c3 38 36 a7 92 20 36 2b 96 9c 35
       6.2450445e-06 2.7531719e-06 2.392722e-06 1.166661e-06
0003f0 07 76 e5 32 23 3b cf 36 e6 dd 08 36 ee b5 16 35
       2.6712781e-08 6.175965e-06 2.039474e-06 5.6144097e-07
