paper/Cable_equation/runs/test_2000/checkpoint.pt (torch, 59095 bytes, 36 tensors)

func_approx.network.0.weight f4 [30, 2]
00000000: 46b5 fb3c 1e40 a93e 7b97 16bf 6630 00bf
00000010: 1d69 98be 50a1 7b3e 29e7 843c 05f3 043f
00000020: 0b6c 41bd 622f 7c3e 7399 2fbe cc01 3ebd
00000030: a015 30bf af50 e6be b75e aebe 1fba 7e3d
00000040: a72f 703e 519a ae3e 754a 07bf 5a26 90be
00000050: 4c00 713e 7451 233f cf88 38be af05 143f
00000060: e66a ecbd 20b3 7c3c 8b90 223f 2d10 38bf
00000070: 8c03 e0be b848 73be 413f 81be 4a70 093f
00000080: 534f d8be 9600 8abe fcce ffbe f89c 1dbf
00000090: 0db8 e2be 551d 233f e3b5 b13e 2e11 d53e
000000a0: d80e 45bb d658 9dbe befb 063e 5f65 37bf
000000b0: dd5d f9be 83ad d4be f06b d83e a12f f03e
000000c0: 69af b0be 0ef5 c83c 4251 d03e bc35 3b3f
000000d0: b577 833e 15c6 783c 104a 0c3f eabc b2be
000000e0: 2660 023e cca0 07bf 301d dfbe 0167 8cbe
0.030726086 0.3305673 -0.5882489 -0.5007385 -0.29767695 0.24573255 0.016223507 0.5193332
-0.04722218 0.2462745 -0.1714838 -0.046388432 -0.68783 -0.44983432 -0.34056637 0.062189218
0.23455678 0.3410211 -0.5284799 -0.2815426 0.2353527 0.6379616 -0.18020938 0.5782117
-0.11543827 0.015423566 0.63501805 -0.7189968 -0.43752706 -0.23758209 -0.2524357 0.53686965
-0.4224802 -0.26953572 -0.49962604 -0.6156764 -0.44281045 0.6371663 0.3470908 0.4161467
-0.0030068662 -0.3073184 0.1318197 -0.71639055 -0.48704425 -0.4153863 0.4226985 0.46911338
-0.34508827 0.024530914 0.40686995 0.7312887 0.25677267 0.015183945 0.5480051 -0.34909755
0.1273199 -0.5297973 -0.43576956 -0.27422336

func_approx.network.0.bias f4 [30]
00000000: b9dc ab3e 39f3 8c3e 0535 d4be fc89 763e
00000010: 6052 d73e 2164 bfbc 251e 023c 6cc4 123e
00000020: e2ca c43e e491 233f 521c 0abf 7159 88be
00000030: dec8 833e 247d 0d3f b5e7 193f 97ce 1f3f
00000040: b073 313e 3380 1ebf e428 623d 691c c8be
00000050: 6c1d 2bbf 6e18 1d3f bc1c 093f 3cdf 33bf
00000060: 84ab 023e c521 10be b581 23be 81c8 85be
00000070: 784f 833e bd0b b0be
0.33566836 0.27529314 -0.414467 0.24076074 0.42055035 -0.023363175 0.007941757 0.14332741
0.38436037 0.63894486 -0.53949463 -0.26630738 0.25739187 0.55269074 0.6011918 0.62424606
0.17329288 -0.61914366 0.055214778 -0.39084175 -0.6684177 0.613654 0.5355947 -0.70262504
0.1276074 -0.14075382 -0.15967448 -0.26129535 0.25646567 -0.34383956

func_approx.network.2.weight f4 [30, 30]
00000000: 8720 9c3d 4af3 8b3d 84f3 283e b806 b73d
00000010: 8a73 38be 1fe0 e2bd eecc bb3d ccd9 0e3e
00000020: bed7 15be e7b6 18be da36 8d3e 0ad2 793e
00000030: 5ff7 9dbd 82f8 debd fe70 45be dc38 c43b
00000040: 0710 16be 2b51 08be 4fc0 a33d 2455 f83d
00000050: d0a7 92bd 7590 fa3c 7792 3abe 5326 5d3e
00000060: 106a 2b3e 9308 05be 9b5f 83bd 1c8c 1fbd
00000070: 6e94 c2bd 51b7 583d c33f 2e3d 4038 3e3d
00000080: ee1a cebd e158 433d dac6 48be fc14 babd
00000090: 46f4 e1bc c34b 51be 0154 a9bd 6429 06be
000000a0: 643b 11be ccaa a3bd 9a30 13be 2b8c 113d
000000b0: cc93 fc3d b255 4cbd 760b f43c 5387 7fba
000000c0: e8d6 68bd cb20 9d3c d4c7 443e 63cd 3a3e
000000d0: 6a7c 723e e8b3 27bd 000c 49be 2c56 02be
000000e0: 4ded 043e 2a21 873d 9e46 e03c 0c94 01be
000000f0: 953a 1fbe 323e 3cbe 6f83 cbbb 3939 023e
00000100: 620c d73d 7a5b 33be 6334 dd3d 31f7 15bd
00000110: eeab 14bd bce8 f3bd 594f 9b3d f02d b53d
00000120: cda5 1fbe 68eb 61be 024f 35bd e01d 943c
00000130: 1a37 cabd 8bb7 903d d9af 94bd 4804 ba3d
00000140: 7da2 213e d7fe 1fbe 81c7 ac3d a460 f23d
00000150: 2eed 02be d75b 153e 87de 00bd 8c6b 08be
00000160: 16a8 b93c ae66 13be ac92 993d ecae ccbd
00000170: 9e43 e43d eb7b ec3d 2804 0a3e 0652 833c
00000180: 4c72 b7bd d20e b63d 3f07 d4bd 5ba3 e43d
00000190: e04b 583e 3fc8 523e 52f4 9ebd 1a60 ac3a
000001a0: 9025 c2bd 2abe 2cbd 2cd3 23be 2bcf a23c
000001b0: 8bc7 67bb d1cc 5a3d 64ce 1ebd 78c7 bc3d
000001c0: 1a38 30be 26a1 02be 0dfa debd b21b 483e
000001d0: f3fb e3bc cb56 773d c388 96bc e8db 9abc
000001e0: e516 76bd 41a9 1a3d a0d9 623d e112 dbbd
000001f0: 17c5 59bd 0e27 aa3d 8b60 afbd 2bd5 40be
00000200: 050b bf3d 672c 2bbe 37bf 5fbd 65a2 023e
00000210: 8338 313c 5209 e3bb d16a 48be d27e 013d
00000220: ee49 79bd 3083 efba 2033 16be 6339 65bd
00000230: ade6 5b3d 4ec9 1e3e a8df 243d daee 343e
00000240: 56bb 163e 9d95 3fbe b64b f93a a82a 45bd
00000250: 7528 9dbc e61b d73d ea69 523d 627c 1d3e
00000260: b74e b8bd 449b a1bc b929 bf3d 5793 3cbe
00000270: fa0a 043e 56a7 81be a3b5 bb3b fd09 583b
00000280: 4989 42be 40b5 bebd 166c 163e 09fe 913b
00000290: bc1d c3bd 7b55 9fbd 7bb0 36be a502 9b3d
000002a0: 83f3 3cbe e41a 54be 00a9 dbbd 70f1 323e
000002b0: 0c5e 1f3e 84dc ca3d 5602 423c 53ff a8bd
000002c0: c146 2abc 32a6 e13d 1b84 8a3e 80fb 263d
000002d0: e47d ddbd 45ae 63bd ce06 46be e81b f63b
000002e0: 48e4 edbd 67ca 1fbe 73f6 2e3e 628c 67be
000002f0: e764 fdbc 8116 a23d 30b4 cabd e339 7dbe
00000300: 0a7a 28be 5107 4d3e fb88 fb3c 47b2 033e
00000310: 5d70 32bd 23c8 763d e29a 09be 2778 d3bd
00000320: 782e cdbd ac8a 093e c8d5 f43d 5e45 1ebd
00000330: 8edc a7bd d7bd 15be 78f3 123e 457b 9cbd
00000340: 8310 4b3e 95f9 68bd d452 00be f305 9c3d
00000350: 4f79 49bd 40d5 f53b 4460 19bb 8fd2 b6bd
00000360: 4a74 973d 6984 cd3d 5abd fe3c 0d6b 7abd
00000370: da94 d1bd e8c5 fd3c 4409 ce3c 37c8 eebd
00000380: 05ab 013d 44cc ae3d e04e 3fbd 47f9 2e3d
00000390: 0f6b fa3d 16ed 6d3d bf8a 5f3d 02ed d4bc
000003a0: 15fd 37be d3e4 5f3d aa75 503e 5f56 023e
000003b0: f5b9 0f3d 2b7a 413d ed86 d93c 80a5 3cbd
000003c0: 0350 49be bbf4 e6bd 9902 583e d738 853d
000003d0: a662 2abe 5b08 ec3d 20c6 333e 425f a43d
000003e0: 280b f23d 9343 da3d e661 fbbc ff53 89bd
000003f0: 4ec5 d63d 9d25 a73d 4684 18be 4e61 ed3d
0.076233916 0.06833513 0.16499144 0.089368284 -0.18012825 -0.11077904 0.091699466 0.1395027
-0.1463308 -0.14913522 0.2758091 0.2439653 -0.07713198 -0.10887243 -0.19281384 0.0059882235
-0.14654551 -0.13312213 0.07995664 0.12125614 -0.07160914 0.03058646 -0.18219934 0.21596651
0.16739678 -0.12991552 -0.0641472 -0.038951978 -0.09500967 0.0529092 0.042541277 0.046440363
-0.1006373 0.047692183 -0.19607106 -0.09086034 -0.027582299 -0.20439057 -0.082679756 -0.13101727
-0.14182812 -0.07991561 -0.14374009 0.035534065 0.123328775 -0.049886413 0.029790621 -0.0009747643
-0.056845576 0.019180676 0.19216853 0.18242411 0.23680273 -0.040943056 -0.19633484 -0.12728184
0.12981148 0.065981224 0.027377423 -0.12654132 -0.15549691 -0.183831 -0.0062107365 0.12717141
0.10500409 -0.17515364 0.108010076 -0.036612693 -0.036296777 -0.11909625 0.07583494 0.088466525
-0.15590592 -0.22062457 -0.0442648 0.018080652 -0.09873791 0.07066258 -0.07260103 0.09082848
0.1578464 -0.15624557 0.0843649 0.11834839 -0.1278579 0.14585815 -0.03146222 -0.13322276
0.022663157 -0.14394638 0.074986786 -0.09994301 0.111457095 0.11547073 0.13478148 0.016030323
-0.08957347 0.088895455 -0.103529446 0.1116397 0.21122694 0.205842 -0.07761444 0.0013151199
-0.09479821 -0.042173542 -0.15998524 0.019874176 -0.003536674 0.053417984 -0.03877105 0.09217733
-0.17208901 -0.12756786 -0.10887537 0.19541815 -0.0278301 0.060385507 -0.01837576 -0.018903688
-0.060080428 0.03775907 0.055383325 -0.1069696 -0.053166475 0.0830823 -0.08563336 -0.18831317
0.09328274 -0.16716157 -0.054625716 0.12757261 0.010816696 -0.0069286013 -0.19571997 0.031615086
-0.06086152 -0.001827335 -0.1466794 -0.05596293 0.053686786 0.15506479 0.040252358 0.1766924
0.147199 -0.18709417 0.0019019756 -0.048136383 -0.01918433 0.10503368 0.05137054 0.1537948
-0.08999389 -0.019727357 0.0933413 -0.1841558 0.12894812 -0.2532298 0.00572844 0.0032964938
-0.18997683 -0.093119144 0.14689669 0.004455332 -0.09527156 -0.07779976 -0.1784076 0.07568864
-0.18452267 -0.20713383 -0.107255936 0.17474914 0.1556322 0.09905341 0.011841377 -0.08251824
-0.010392846 0.11018027 0.27053913 0.040767193 -0.10815027 -0.05558612 -0.19338533 0.007510651
-0.11615807 -0.15604554 0.170862 -0.22612146 -0.030931903 0.079144485 -0.09897649 -0.24729113
-0.16452804 0.20022322 0.030704966 0.12860976 -0.04356419 0.06024946 -0.1343799 -0.103256516
-0.10018629 0.13431805 0.11954838 -0.038640372 -0.08196364 -0.146232 0.14350688 -0.07640699
0.19830517 -0.056878645 -0.12531596 0.07618322 -0.049187955 0.007502228 -0.0023403326 -0.089268796
0.07395227 0.10035021 0.03109615 -0.061137248 -0.10233469 0.030978158 0.025150903 -0.11659282
0.031657238 0.08535054 -0.04670608 0.0427182 0.12227451 0.05808743 0.054575678 -0.02599192
-0.17967637 0.054661583 0.20357385 0.1272826 0.03508945 0.04723565 0.026553595 -0.04605627
-0.19659428 -0.112771474 0.21094741 0.06504982 -0.16639194 0.11525031 0.17556047 0.080259815
0.11818534 0.1065742 -0.03068633 -0.06705474 0.10486852 0.08161471 -0.14894208 0.11590825

func_approx.network.2.bias f4 [30]
00000000: ec0e 7838 0a7a 093e f301 c23c 1d07 b6bc
00000010: 39fa a23d 1823 be3c b1d3 0e3d 1dac ccbd
00000020: c444 14bd 6c60 d6b9 d34b 293d a409 27be
00000030: d40a 243d 3344 e7bd 49f7 49bc bb3e 973d
00000040: e9b8 c7bd 003e 21be 0dd2 dbbc 4b8d 81bd
00000050: 1c33 983d dfd9 9ebc 282b c63d 28b4 e3bd
00000060: c2c4 7c3c ad07 993d 8349 263e 96c7 94bc
00000070: 21f5 a4bd 2aee 8d3c
5.9141705e-05 0.1342546 0.02368257 -0.022220189 0.079578824 0.023210093 0.034869853 -0.099937655
-0.036198393 -0.000408891 0.041332077 -0.16312271 0.04004939 -0.11292305 -0.012327024 0.07385012
-0.09752066 -0.15746307 -0.026833558 -0.063257776 0.07431623 -0.019390998 0.096762 -0.111183465
0.01542777 0.07472167 0.1623898 -0.018161576 -0.08054567 0.01732548

func_approx.network.4.weight f4 [30, 30]
00000000: 6e85 0c3e 7212 0fbe 3051 c8bd 490b c63d
00000010: 7ded 16bc ecd0 84be 9dba 1abe a190 7d3d
00000020: 2bfb babd f8a9 2b3e fe72 0b3e f95b 0c3d
00000030: 3922 29bd ca46 0bba 3cc1 a2bb 43c9 0bbc
00000040: 0b77 02be 7773 9abd 020b 2bbe 05e6 083e
00000050: 0855 c5bd 97d8 293e 054f 2bbd ea67 abbd
00000060: a5b0 173e 723a 753c 031a b73d d1be 1c3e
00000070: 122c 3dbe e371 023e 78b5 94bd ea8d 37bd
00000080: 5e13 aa3d 87be 913d ed8d e5bd 68f8 483c
00000090: 2185 423e a9c7 fb3d 0355 4f3e ab30 dfbd
000000a0: 6b0f 13be e69f 3e3e 4933 1b3d c3e7 e43d
000000b0: 38e8 08be 608c 83bd 82b8 84bd 30ef d8bd
000000c0: af2d db3c 383c e73d 4917 8c3c d651 ff3c
000000d0: 9865 853d c684 1cbe 27db ca3d 5bbd 18be
000000e0: c133 09be 6dba 91bd ad17 3a3e 19c1 80bc
000000f0: 47ee dc3d 94f8 25be e83e a33d 91d1 813c
00000100: 8e72 803d dc3d 0c3d 92f5 033d eead 28bd
00000110: bdc4 64bd 8d5b 8fbd c126 80bd 57f0 fa3d
00000120: ef36 bcbd d36b 403e 47e2 5dbd e69b b4bd
00000130: 0677 cc3c 2a52 5fbe d414 16bb e45a ce3a
00000140: e121 843b 869b 52bd 03b4 193e 655c 273e
00000150: e0e4 34bd 32c3 6b3d 55f9 3bbe d333 9dbd
00000160: 3f10 343d 1d51 943c 4250 03be e90e 10be
00000170: f77d b4bd eac6 083d f031 27be 3a48 b0bd
00000180: 4e48 9e3d 9304 e0bd bc38 07be ebe5 f4bd
00000190: 01b7 01bd 719c 2abe b66e cdbd 65f5 43bd
000001a0: 3836 3abe 67e3 ac3c fc1b 10be c08f c0bd
000001b0: 7b98 9f3d b49f 2ebe 9f2d 2bbe 8b50 ef3d
000001c0: 64ce a93c 8595 183e 69c4 e7bd 8dcd 9bbd
000001d0: ae47 f03c a8a8 9fbd 9492 203e 74b2 4fbe
000001e0: 9690 99bc 3f2c a33d 29d1 b0bd 9839 8dbd
000001f0: cc04 4b3d 9d76 c6bd 17a9 7b3d c5d1 2fbe
00000200: dd93 f23d 623a 29be 5ee9 1c3e ae57 58be
00000210: 1b04 c7bd 4bb9 67bd b176 2f3e 6b35 1abe
00000220: 7dfb 79bd 59c5 463e c8fb eb3c 1ae3 9b3d
00000230: 74ca 2ebe db59 c4bd 6bde 9abd bc08 083e
00000240: 527e 913c 483a eabd 740f 183d ec27 aebd
00000250: dab4 bdbd 1023 b6bd a2b6 babd 7dc0 2b3e
00000260: 8617 0cbe f1f8 0cbe 8b5d 83bd 5cf1 b03d
00000270: a5de be3d 38da 453c 4ce1 8cbc 5a05 19be
00000280: 8cd5 a9bc 2a3a a5bd d948 333e f7a0 6cbe
00000290: 8da5 f1bd c033 dfbd a9f4 28bd f6f0 2e3e
000002a0: c2a9 373e 90b8 38be 6f73 d7bc 4db5 d13d
000002b0: 21d1 9b3d e7c3 053e 0a08 75bd 1941 ecbd
000002c0: 9102 1f3e 1482 0bbe 3948 d23d c4bc 64bd
000002d0: ac8d d93d d785 0f3e 4de1 2f3e cd3a 02be
000002e0: 24d8 1abe f7d3 13be b7ea 1ebe 3960 0a3e
000002f0: 3dcd a1bd d3d6 a6bd e429 7bbd 8c2a e1bd
00000300: 29b3 b63d 788d 92bd b350 03be 6b7d 6abe
00000310: 799d cc3d 041b d43c 7e9c bcbd 6c08 6a3d
00000320: 86f0 1e3e d464 ed3a 1f7f 13bd fa89 833d
00000330: ba93 853d 431f 503d e715 21be 149c 263e
00000340: 3d20 be3d bf3a c8bd 4429 3f3e 39af 103e
00000350: bfa3 fbbc 10ba bb3c 5eb1 003d a21b 21be
00000360: c992 143d 49f6 9bbc 4bd1 bd3d 19d6 e4bd
00000370: bdca bdbd 1040 263d 0569 f53d c49d 0dbe
00000380: 6e65 24bd 7f8d 64be 32e8 a0bd 7cc4 06be
00000390: f2d2 593e 4ca3 0bbc 2393 0a3e 6c37 e13d
000003a0: 0d51 f43d 5a17 17be edfa 1b3e e067 7d3d
000003b0: bf91 d13d 9d3e 4abe 865f 943d ce03 423e
000003c0: b216 23be af52 2b3c 17d1 163e 97fa c0bd
000003d0: 18e4 3a3c 0e64 553d 2451 f83c f650 033e
000003e0: 830a a43d e4e6 373e 819d a13c 2485 003e
000003f0: 2f4d 00be a9c9 88bc e8b2 963c 1805 d5bd
0.13722774 -0.1397188 -0.0978111 0.09670121 -0.009211895 -0.25940645 -0.1511025 0.061905507
-0.09129938 0.16764057 0.13618085 0.0342674 -0.041292403 -0.00053129776 -0.004966883 -0.008531871
-0.12740724 -0.075415544 -0.16703418 0.13368995 -0.09635359 0.16586529 -0.041823406 -0.083694294
0.14813478 0.014967548 0.08940508 0.15307166 -0.18473843 0.12738757 -0.07261175 -0.044813074
0.08304475 0.07116418 -0.11208711 0.012266256 0.18996097 0.122939415 0.20247273 -0.108979546
-0.1436135 0.18615684 0.037890706 0.111770175 -0.13369834 -0.06423259 -0.064805046 -0.105924964
0.026755182 0.11290783 0.017100947 0.031166952 0.06513518 -0.15285024 0.09905081 -0.14915983
-0.13398649 -0.07115636 0.18173094 -0.015717076 0.10787635 -0.16208106 0.07970983 0.015847
0.062718496 0.03423868 0.032216616 -0.041181497 -0.055851687 -0.06999884 -0.06257392 0.122528724
-0.09190165 0.18791132 -0.054170873 -0.08818798 0.024959099 -0.21808687 -0.0022900598 0.001574364
0.004032359 -0.05141785 0.15010075 0.1634384 -0.044163585 0.0575592 -0.18356831 -0.076759
0.043960806 0.018105084 -0.12823585 -0.14068188 -0.088130884 0.033392824 -0.16327643 -0.08607526
0.07728635 -0.109383725 -0.13205236 -0.11957916 -0.031668667 -0.1666124 -0.10030882 -0.04784145
-0.18184745 0.021104528 -0.14073175 -0.09402418 0.07792755 -0.1705311 -0.16716622 0.11685284
0.020728298 0.14900787 -0.11316759 -0.07607565 0.029331055 -0.077958405 0.15680915 -0.20282918
-0.018745702 0.07967424 -0.08633644 -0.06895751 0.04956512 -0.096905924 0.061440554 -0.17169864
0.11844609 -0.16526178 0.15323398 -0.21127197 -0.0971758 -0.056573194 0.17135121 -0.1505944
-0.061030854 0.1941122 0.028806582 0.076116756 -0.17069417 -0.09587451 -0.07561954 0.13284582
0.01776043 -0.114368975 0.037124112 -0.08503708 -0.0926301 -0.088934064 -0.09116866 0.16772647
-0.13680848 -0.13766839 -0.06414326 0.08639786 0.0931981 0.012075953 -0.017197274 -0.14943448
-0.02073171 -0.080677345 0.17508258 -0.23108278 -0.117991544 -0.108985424 -0.04124895 0.17084107
0.17935851 -0.18039155 -0.02630016 0.102396585 0.076082475 0.13063012 -0.05982212 -0.11535854
0.15528323 -0.1362384 0.10267682 -0.055844083 0.10622725 0.140159 0.17175789 -0.12717743
-0.15121514 -0.14436327 -0.15519224 0.13513269 -0.07900474 -0.08146443 -0.061319247 -0.10994443
0.08920891 -0.07155889 -0.12823753 -0.22899406 0.09990973 0.025891788 -0.09209536 0.057136938
0.1552144 0.0018111714 -0.036009904 0.06422801 0.06522317 0.050811063 -0.15731011 0.16270477
0.09283493 -0.0977683 0.18668085 0.14129342 -0.030717729 0.02291587 0.03141915 -0.15733197
0.036272798 -0.019038336 0.09268435 -0.111736484 -0.09267185 0.04058844 0.119829215 -0.13829714
-0.040135793 -0.22319601 -0.07856788 -0.1316089 0.21271876 -0.00852282 0.1353269 0.10996899
0.11929522 -0.14755002 0.1523244 0.06186664 0.10232877 -0.19750448 0.07244782 0.18946764
-0.15926626 0.010456725 0.14728199 -0.09422796 0.011406921 0.052097373 0.030312128 0.12823853
0.080098175 0.17959172 0.019728424 0.12550789 -0.12529443 -0.016697722 0.018395856 -0.10401362

func_approx.network.4.bias f4 [30]
00000000: 3415 acbd 068b 76bd 187a 40bd 71dc 383e
00000010: 0982 3e3c 6d0d 1c3e 410a fdbc eb82 4a3c
00000020: ad9e 1bbc 4690 983c e011 45be 2907 37be
00000030: af78 503d ebd5 dc3d 2a09 0f3e f657 b3bc
00000040: 0aae 453d c6d1 bd3d 6aa2 0abe 8324 2dbe
00000050: c460 c3bd bc12 0abd dfe6 89bd 17ec 77bd
00000060: 11a6 86bd 07af cf3d cc87 a53d de23 023e
00000070: ea85 453e 2bcf 0fbe
-0.08402482 -0.060191177 -0.046991438 0.18052842 0.0116276825 0.15239497 -0.030888679 0.012360315
-0.0094982805 0.018623482 -0.192451 -0.17873825 0.050896343 0.10782989 0.1396834 -0.021892529
0.04826168 0.09268527 -0.13538519 -0.1690846 -0.09539941 -0.033709273 -0.06733488 -0.060527887
-0.065746434 0.10140806 0.08082542 0.12708995 0.19289365 -0.14043872

func_approx.network.6.weight f4 [30, 30]
00000000: ffea e83c 3113 b53d d385 033e bbb3 97bd
00000010: 0966 a9bd 25f6 14be fefa 003e b27f b2bd
00000020: 1ee0 88bd 4f86 193e ad65 1d3e 76db 5a3c
00000030: 28fa c2bd 60c1 023e 77bb b0bd 2cd5 9cbd
00000040: 0819 cebd bd11 b3bd c161 99bd d39a b6bd
00000050: 0b87 08be 877c 92bd 7b11 c33d 1545 28be
00000060: 00fd 0dbc 5a1a 47bd 5622 fe3d 7f34 f13d
00000070: 1430 10bd e01d 8fbd c419 34be e12b 3cbe
00000080: 0715 9f3d cc6f 7d3d d228 f43d f00f 0d3c
00000090: 2553 d83d 4314 f4bd 19d5 113d 04c5 063e
000000a0: 80b1 2bbe fe3d 05be e311 a03d a015 87bc
000000b0: be66 8cbd c937 c93d 7808 b4bc 5c15 033a
000000c0: fd26 07be fa37 f13d 3465 743d 6edb bd3d
000000d0: d318 a03c 1984 103e 9792 003e b7a0 c2bd
000000e0: 85a8 9dbd 88d1 0a3e 881e 99bd 1339 133e
000000f0: 369a 1fbe 435c d63c 79c1 cfbd 5af2 9e3d
00000100: 9009 103e 8d5a 5b3d 0b08 2dbc 6b4c 1b3e
00000110: ad77 08be a93a 1abe 0473 11be e099 0abe
00000120: 3cb9 e3bc eae2 81bd 787f 873d 9708 52bb
00000130: 8fab fa3d a472 a6bd edf9 f2bd c810 d33d
00000140: 22b9 a3bd cbde 573e 90d1 c0bd c87b d13c
00000150: 57b0 07bd bf0f 8a3d b26a 0c3d 089c 68bd
00000160: 4c67 073e 467d 10bd c88a 85bd 677b 79bd
00000170: 3e2f 233e d558 3e3e d14f b83d ebcd 4e3d
00000180: 0773 013e a4a7 57bd 402d cbbd 61e3 a7bd
00000190: af7e b9bd 434b 8e3d 388f 72bc c550 0ebd
000001a0: a4b9 c3bb 2209 41ba 9442 0d3e 2507 303e
000001b0: 36fe 5bbe a12e 713d f913 523d 18cd c53d
000001c0: dab6 01bd 56e6 783d f58f 343d 1b48 213e
000001d0: 9896 54be 5b96 17bd 09f6 ecbd 6cea c9bd
000001e0: 266c d8bb 8e0e 223d aeea ebbd 1fbd 173e
000001f0: aaaa 3b3e 5217 41bd 8b3e 483d 5742 3bbd
00000200: c68b 0d3d d0a2 01be 998a 97bd ed7c 29be
00000210: e325 48be 23cd 173e 43d4 643c 81a8 efbc
00000220: 600e 07be 3c0d e03d 84db 31be 85f6 cebd
00000230: 9f21 41be 8e50 bfbd 08b7 0f3e d434 b4bd
00000240: a6c8 45bb 568b 97bd 6c1b 223c 69b6 d53d
00000250: 333b 00be 41f5 023e 56f2 5cbe b278 0fbd
00000260: 2dd9 6c3c cd06 98bc 3752 0f3e 115e 413e
00000270: 8b54 053d deac e4bc d566 0c3e fa70 b93d
00000280: 9694 1f3d 0a08 9abd 6695 c6bc 6fa5 373e
00000290: 49c7 493d b2df 48bd 223c 3fbe 3029 d3bd
000002a0: b427 8a3d 3a10 e3bc 58f0 43bd 4d58 d53d
000002b0: c640 1abe bb70 863c 9906 16bd 2c5e a23d
000002c0: 44cb eb3d 3b45 1e3e 5ef4 183e f08c 43be
000002d0: fc5d 01bd 08ce ae3d 8bd9 40be fa2a e03c
000002e0: 57b4 0cbe acbb 313d 9a60 073e f2ed 4abe
000002f0: 0aa4 173e 2231 ec3d 3032 ffbd 0c93 503e
00000300: 765c f0bd 7855 0dbe eea4 f5bd 89a7 a33b
00000310: cfe7 833d 2345 3ebd 9649 debd ad19 2abb
00000320: 8703 363e da2c c43d ea91 f03d 56a6 f6bb
00000330: d39c 003d cbe1 efbd e0c0 f23d afc8 69be
00000340: 90a5 abbd 2bad a4bc 1133 cb3d 96b0 84bd
00000350: 43d5 5bbd 7ff8 633d 13e5 08be dfd3 49bc
00000360: a1bc 753d 468b dd3c 9c26 a2bc 1b05 ac3d
00000370: f75c 07be b7ec f6bd d4f5 113e b4a0 523d
00000380: b15d 483a d35e a43d 7363 9c3d 443f 18bd
00000390: f8df 11be b282 51bd fb2f e83c 99a1 893c
000003a0: 28df a33d 8481 efbd 2992 98bd 737c f83d
000003b0: 1c47 70bc c2e7 a43d 3cd1 953d 9017 93bd
000003c0: 3a8e d2bd 0c8f 9bbb f3d7 7fbc 7aea 64bd
000003d0: 1c99 123d e50d 9a3d df27 9bbb 6077 b1bd
000003e0: b65a cdbc a08a 05be bf3c d83d d6a6 12be
000003f0: 718a e13d 1640 bd3d c4d4 05be 7257 013e
0.028432367 0.08841551 0.12844019 -0.07407328 -0.08271415 -0.14547022 0.12595746 -0.08715762
-0.06683372 0.14992641 0.15370817 0.013357988 -0.0952037 0.12769079 -0.08629506 -0.07657847
-0.10063368 -0.08743618 -0.07489348 -0.08916249 -0.13332765 -0.07152658 0.095248185 -0.16432603
-0.008666277 -0.048609115 0.12408893 0.11777591 -0.0352021 -0.0698812 -0.17587954 -0.18376113
0.077676825 0.061874196 0.11921848 0.008609757 0.105627336 -0.11917927 0.035603616 0.13161093
-0.1676693 -0.1301193 0.078159116 -0.016489804 -0.06855534 0.09825093 -0.021976694 0.0005000436
-0.13198467 0.11778255 0.059666827 0.092703685 0.019543087 0.14112891 0.1255592 -0.0950331
-0.07698158 0.13556492 -0.074765265 0.14377241 -0.1558617 0.02616704 -0.10144324 0.07761069
0.14066148 0.053553153 -0.010561 0.1516587 -0.13326903 -0.1506144 -0.14204031 -0.13535261
-0.027798288 -0.063421085 0.066161096 -0.0032048577 0.122397535 -0.08127335 -0.11864076 0.10305935
-0.07994296 0.21081083 -0.09414971 0.025571719 -0.033127155 0.067412846 0.03428144 -0.056789428
0.13222998 -0.03527572 -0.06520611 -0.0609087 0.1593599 0.18588574 0.08999599 0.050489347
0.12641536 -0.05265011 -0.0992074 -0.08197666 -0.09057366 0.06947949 -0.014804654 -0.034744997
-0.005973058 -0.00073637266 0.13794929 0.17190225 -0.21483693 0.05888236 0.05128858 0.09658259
-0.03166852 0.06076654 0.0440826 0.15750162 -0.20760572 -0.037008625 -0.11570365 -0.098591655
-0.006604689 0.03956466 -0.11519371 0.14818238 0.18326822 -0.04714138 0.04888777 -0.045717563
0.034557126 -0.12659764 -0.07399482 -0.16551562 -0.19545703 0.14824347 0.013966623 -0.029255154
-0.13189077 0.10940024 -0.17368895 -0.101056136 -0.18860482 -0.093415365 0.14034665 -0.08799139
-0.003017941 -0.07399623 0.009894233 0.104351826 -0.12522583 0.1278887 -0.21576819 -0.035027213
0.014456076 -0.01855793 0.13996206 0.1888354 0.03255133 -0.02791446 0.13711102 0.09054752
0.038960062 -0.075210646 -0.02424116 0.17934202 0.04926232 -0.049041457 -0.18675283 -0.1031059
0.06745854 -0.027717698 -0.04783663 0.10417233 -0.15063772 0.016411176 -0.036627386 0.07928118
0.11513379 0.15456097 0.14936969 -0.19096732 -0.03158377 0.08535391 -0.18832986 0.027364243
-0.13740669 0.04339187 0.13220444 -0.19817331 0.1480867 0.11532809 -0.124607444 0.20368594
-0.117363855 -0.13802135 -0.119943485 0.004994337 0.06440698 -0.046452653 -0.10853879 -0.0025955245
0.17774783 0.09578867 0.11746581 -0.007527153 0.03139956 -0.117129885 0.11853194 -0.22830461
-0.08381188 -0.020102104 0.099218495 -0.064789936 -0.05367018 0.055656906 -0.13368635 -0.01231858
0.059994344 0.02704395 -0.019793801 0.08399411 -0.13219057 -0.120568685 0.14253932 0.05142279
0.00076433556 0.08025899 0.07636156 -0.03716971 -0.14245594 -0.05115003 0.028343191 0.016800689
0.08001548 -0.11694625 -0.07449753 0.12133112 -0.014665391 0.08052017 0.07315299 -0.071822286
-0.10281034 -0.004747277 -0.015615451 -0.055887677 0.035790548 0.075221814 -0.0047349776 -0.08665347
-0.025067668 -0.13041162 0.105584614 -0.14321455 0.11012734 0.09240739 -0.13069445 0.12631014

func_approx.network.6.bias f4 [30]
00000000: 0152 ddbd 6fa5 a93d 44b5 c7bd 3c6d 083d
00000010: 4535 213d eb59 cf3d d49c 0e3d 2c19 a4bd
00000020: aa81 ea3d 5b8f d23d 3f64 323d 002a 043e
00000030: 3c06 c4bd e4d8 923d e95b 893d 14c5 39bd
00000040: b195 fa3d 8249 56be 661f f5bc d749 83bd
00000050: e71e 8ebd 6f83 84bd db24 07be ea39 8a3d
00000060: 65da ed3b 4ad2 3cbe 28c4 283d b94e 8fbd
00000070: 31d1 ba3d 8212 33be
-0.10806657 0.08283507 -0.097513705 0.0333073 0.039357442 0.10124572 0.03481753 -0.08012614
0.11450513 0.10281249 0.043552633 0.12906647 -0.095715016 0.07170275 0.067069836 -0.045353964
0.122355826 -0.20926479 -0.029922199 -0.06410568 -0.06939488 -0.064703815 -0.13197653 0.067493275
0.0072587007 -0.18439594 0.041202694 -0.06997437 0.09121931 -0.17487529

func_approx.network.8.weight f4 [1, 30]
00000000: 58f9 3dbd 2ba3 19bd 981e 653d 7e03 5f3c
00000010: b1e5 06bd f49a 4f3e ca11 65bc ada3 783d
00000020: c53f 213e a652 35be 42a2 2e3d c998 9d3d
00000030: 22f0 66bd 9851 d53d 73b9 de3c ca9d a73d
00000040: 2bdd b93c d3b8 fdbd 8050 033e 3c69 8bbc
00000050: 0a5e 0c3e ee4d 00bc 0aac 853b f2fa f03d
00000060: 886f d0bc 34e0 6ebd 8e4e 54bd 3e55 eabd
00000070: 5cca 363c f2d4 6ebd
-0.04638037 -0.037509125 0.05593738 0.013611672 -0.032933895 0.20273954 -0.013981292 0.06070297
0.15746982 -0.17707309 0.04263521 0.07695157 -0.056381352 0.104159534 0.027188038 0.08184393
0.022688469 -0.12388768 0.12823677 -0.017017953 0.13707748 -0.00783108 0.0040793465 0.11766614
-0.025443807 -0.058319286 -0.051832728 -0.1144204 0.011156645 -0.05830855

exp_avg f4 [30, 2]
00000000: 8e03 64b8 3f2e 003a c274 05ba f061 b1b9
00000010: fd0c 5f3a 37b3 37ba 9c81 8139 02b0 e439
00000020: 2c27 503a 7249 0e39 3bf8 4d39 f97a 35ba
00000030: 68da a4b9 5749 53b9 a9a6 e93a 8df9 ab3a
00000040: ebf0 4b39 3ec4 ed39 362e 52b8 7f04 d3b9
00000050: 1816 d83a 5a14 053a ddd6 203b 0929 a339
00000060: ab2d 4c39 8fde 923a f71e 5aba 3b50 4138
00000070: 98b7 deb8 fbf8 0e3a 2dd3 d1b9 476e 023a
00000080: 8801 10ba 1260 c2b9 aa4a 3ab9 e768 30b9
00000090: 0837 0e3b f48e a33a da32 4b3a 6553 c339
000000a0: 3756 9139 81ad b1b9 e8e3 baba 2474 5a38
000000b0: 1512 f3ba 6abd 0eb9 eb77 7a3a 9de8 c4b9
000000c0: e08e ad3a 0540 3839 fe4b 793a c335 cdb8
000000d0: 1cb6 4ab9 447e f239 179e b2ba 28bb b6ba
000000e0: 8bdb 8dba 64fa b0ba 70a3 3db8 0a05 97b9
-5.4362747e-05 0.00048897037 -0.00050909456 -0.0003383304 0.00085087103 -0.0007007601 0.00024701364 0.00043618685
0.00079404074 0.00013569536 0.00019642797 -0.00069229264 -0.00031443243 -0.0002014985 0.0017826158 0.0013120637
0.00019449338 0.00045350374 -5.011094e-05 -0.00040248406 0.0016486077 0.000507658 0.002454213 0.00031120356
0.00019471969 0.0011205244 -0.0008320654 4.6089506e-05 -0.00010619982 0.0005453971 -0.00040020925 0.0004975539
-0.0005493392 -0.0003707414 -0.00017766157 -0.00016823747 0.0021700282 0.0012478516 0.0007751413 0.00037255432
0.0002772079 -0.0003388934 -0.0014258595 5.2083415e-05 -0.0018544818 -0.00013612738 0.00095546123 -0.00037557344
0.0013241433 0.00017571457 0.000950992 -9.785176e-05 -0.00019332062 0.00046251912 -0.0013627437 -0.0013941275
-0.0010822875 -0.0013502357 -4.5213324e-05 -0.0002880472

exp_avg_sq f4 [30, 2]
00000000: 8d54 1236 a50b 9036 5594 bb36 9bc5 e336
00000010: 0f91 fe37 af93 8f38 550d ef35 d42f 1636
00000020: 9f1c 4137 046f 0b37 5151 2037 9196 9337
00000030: fcb4 2036 4e8a 0136 39bf 5c38 216c b538
00000040: 6df3 0235 50ff db35 7cf6 9f36 ea76 0237
00000050: e0f7 9338 e635 e838 88a9 1d39 4896 8139
00000060: 26e4 9236 ae1f 6937 9e7f e237 45c8 8b38
00000070: 7d2b b636 1937 5237 ddf8 a636 7063 be36
00000080: 6c00 8136 8602 5836 dead 3c35 ecf7 1035
00000090: 4c7e ef38 dca3 1639 d977 0838 1fdb 4d38
000000a0: 962f 4736 f5ab c136 3854 a638 72a2 1a39
000000b0: 1c71 de38 eb1a 1d39 54f0 2d38 8b78 8538
000000c0: 05d8 5b38 0604 c538 8d5c 8f37 0493 7e37
000000d0: c2d2 4936 c56f 2437 6c79 d537 85f0 1438
000000e0: 6d88 0738 332d 7738 a414 b434 a37a bb35
2.180491e-06 4.29289e-06 5.5903024e-06 6.7881315e-06 3.0346708e-05 6.8462796e-05 1.7810768e-06 2.2379581e-06
1.151036e-05 8.3108935e-06 9.555676e-06 1.7593879e-05 2.3947205e-06 1.9303002e-06 5.2630177e-05 8.650893e-05
4.8783005e-07 1.6391077e-06 4.767264e-06 7.776291e-06 7.0556765e-05 0.000110726614 0.00015035842 0.00024716766
4.377699e-06 1.3895258e-05 2.7000726e-05 6.6653396e-05 5.4290854e-06 1.2529804e-05 4.976157e-06 5.6740173e-06
3.8445487e-06 3.2187977e-06 7.028847e-07 5.4004954e-07 0.00011419933 0.00014366157 3.2536544e-05 4.907988e-05
2.968101e-06 5.7718667e-06 7.931184e-05 0.000147471 0.00010606853 0.00014982714 4.1470237e-05 6.364387e-05
5.2414853e-05 9.3944414e-05 1.7090026e-05 1.51738095e-05 3.0074011e-06 9.801185e-06 2.544812e-05 3.550995e-05
3.2313565e-05 5.8931484e-05 3.354263e-07 1.3968278e-06

max_exp_avg_sq f4 [30, 2]
00000000: 872c 5536 a3a7 cc36 5594 bb36 9bc5 e336
00000010: 0f91 fe37 af93 8f38 550d ef35 d42f 1636
00000020: 9f1c 4137 046f 0b37 5151 2037 9196 9337
00000030: 186c 2b36 4e8a 0136 39bf 5c38 216c b538
00000040: 4b3e 0435 4a0e 2236 7cf6 9f36 ea76 0237
00000050: e0f7 9338 e635 e838 88a9 1d39 4896 8139
00000060: a205 be36 ed0f b737 9e7f e237 45c8 8b38
00000070: 8c61 b636 0776 5237 6a9d cb36 6dc4 ee36
00000080: 6c00 8136 8602 5836 8cdc 4735 4181 1235
00000090: 4c7e ef38 dca3 1639 d977 0838 1fdb 4d38
000000a0: 962f 4736 f5ab c136 3854 a638 72a2 1a39
000000b0: 1c71 de38 eb1a 1d39 54f0 2d38 8b78 8538
000000c0: 05d8 5b38 0604 c538 8d5c 8f37 0493 7e37
000000d0: 7be2 4d36 9147 6a37 6c79 d537 85f0 1438
000000e0: 6d88 0738 332d 7738 bc23 d434 df79 0536
3.1765392e-06 6.0991892e-06 5.5903024e-06 6.7881315e-06 3.0346708e-05 6.8462796e-05 1.7810768e-06 2.2379581e-06
1.151036e-05 8.3108935e-06 9.555676e-06 1.7593879e-05 2.5543904e-06 1.9303002e-06 5.2630177e-05 8.650893e-05
4.926448e-07 2.4148198e-06 4.767264e-06 7.776291e-06 7.0556765e-05 0.000110726614 0.00015035842 0.00024716766
5.663097e-06 2.1822716e-05 2.7000726e-05 6.6653396e-05 5.4353786e-06 1.2544456e-05 6.068197e-06 7.1158197e-06
3.8445487e-06 3.2187977e-06 7.4454215e-07 5.457733e-07 0.00011419933 0.00014366157 3.2536544e-05 4.907988e-05
2.968101e-06 5.7718667e-06 7.931184e-05 0.000147471 0.00010606853 0.00014982714 4.1470237e-05 6.364387e-05
5.2414853e-05 9.3944414e-05 1.7090026e-05 1.51738095e-05 3.067921e-06 1.396415e-05 2.544812e-05 3.550995e-05
3.2313565e-05 5.8931484e-05 3.9514077e-07 1.9889483e-06

exp_avg f4 [30]
00000000: acc1 8f39 6dd3 64b9 8feb efb9 80e7 6a39
00000010: 174e 073a 1144 3aba b2b6 46b9 97c6 a43a
00000020: fe2d c639 34da a839 eb05 a939 dd23 133a
00000030: 592e 743a 3470 e939 7306 f039 9465 33b9
00000040: d265 10ba d8ab 1eb9 4b91 8d3a 4e84 b7b9
00000050: e713 d9b8 0c52 d639 0009 bfb8 9d32 88b9
00000060: 2cd2 7339 4bbd 9a39 49fd f938 678b b6ba
00000070: 9249 02ba c58b c1b9
0.00027419382 -0.00021822537 -0.00045761137 0.0002240222 0.00051614776 -0.00071054796 -0.00018950811 0.0012571391
0.0003779977 0.0003220603 0.000322386 0.0005612949 0.00093147677 0.0004452482 0.00045781172 -0.00017108611
-0.00055083365 -0.00015132071 0.0010800747 -0.00035003055 -0.000103510734 0.0004087839 -9.109266e-05 -0.0002597765
0.00023252581 0.00029514203 0.00011920423 -0.0013927043 -0.0004970069 -0.00036915965

exp_avg_sq f4 [30]
00000000: 12a7 2737 baee b537 a83a 1639 3c15 ce36
00000010: 570a 1a38 4f07 2a38 38a7 1937 d264 5339
00000020: ce53 1d36 899c aa37 7935 9139 7988 1e3a
00000030: fa4c a637 c7df 0639 9784 bc37 69a5 8437
00000040: b1d8 5c37 4e00 4536 4b8c e039 a12b 0c39
00000050: 5260 5a37 edb7 af39 caf3 da39 a1bb 2939
00000060: de4a 6539 e2e3 8638 1e1e 6437 dfab c138
00000070: c962 0939 872f 1a36
9.992875e-06 2.1688047e-05 0.00014326966 6.1417504e-06 3.672609e-05 4.0537965e-05 9.158444e-06 0.00020160087
2.3443604e-06 2.0338472e-05 0.00027696395 0.00060475577 1.9824587e-05 0.000128626 2.2473088e-05 1.5812651e-05
1.3163474e-05 2.9355465e-06 0.00042829136 0.00013367693 1.3016239e-05 0.00033515636 0.00041761837 0.00016186993
0.00021867032 6.4320644e-05 1.3596871e-05 9.234971e-05 0.00013102138 2.2975453e-06

max_exp_avg_sq f4 [30]
00000000: fc43 6237 baee b537 a83a 1639 3c15 ce36
00000010: 570a 1a38 7c51 2d38 ccd0 1d37 d264 5339
00000020: 3413 4836 899c aa37 7935 9139 7988 1e3a
00000030: b4a6 d837 c7df 0639 f8dc c337 af62 9a37
00000040: b1d8 5c37 f568 4936 4b8c e039 a12b 0c39
00000050: 5260 5a37 edb7 af39 caf3 da39 a1bb 2939
00000060: de4a 6539 e2e3 8638 4a86 8737 dfab c138
00000070: c962 0939 e93e 3836
1.3486479e-05 2.1688047e-05 0.00014326966 6.1417504e-06 3.672609e-05 4.1322302e-05 9.4065435e-06 0.00020160087
2.98135e-06 2.0338472e-05 0.00027696395 0.00060475577 2.5826834e-05 0.000128626 2.3348708e-05 1.8404184e-05
1.3163474e-05 3.0012427e-06 0.00042829136 0.00013367693 1.3016239e-05 0.00033515636 0.00041761837 0.00016186993
0.00021867032 6.4320644e-05 1.6155787e-05 9.234971e-05 0.00013102138 2.7454755e-06

exp_avg f4 [30, 30]
00000000: 2437 8db7 bba0 99b9 7980 10ba ec55 1eb9
00000010: e01a 1139 f090 d4b8 90c1 0bba 05f9 7db9
00000020: 0919 9a39 4f24 17b8 c200 73b9 8602 16ba
00000030: b44d edb8 fc9e 8b3a 9481 2ab9 d512 0cb9
00000040: b25a 88b9 e819 f9b9 0441 47ba 776b 8738
00000050: 87d1 47b9 7a79 313a 7337 58b9 79ac e6b6
00000060: 16a0 74b9 7843 f438 d93e f638 4745 323a
00000070: 92ce 283a e0d8 f7b9 c3f3 a239 5ad0 0339
00000080: 2ea5 2d39 f33e cf39 6977 4439 4400 1bb8
00000090: 0eb5 1739 3e26 7739 9fab 3239 daa4 8939
000000a0: 3a80 9738 ed1f d239 1afd 8039 0d16 0dba
000000b0: 7e69 b639 88fc 0c3a 2cb7 f538 b4d1 25b9
000000c0: 1514 383a fde4 0db9 37a5 9cb9 c701 a1b9
000000d0: 600a 8e39 ffab 5ab9 5469 4e39 e738 0f39
000000e0: 67f1 deb8 5a7f 39ba 592c e7b9 b756 2bb8
000000f0: 2776 ffb9 249d 1339 a793 85b9 71d7 2cba
00000100: 285a 9eb9 e423 7b38 55a1 5638 5f22 79b9
00000110: 671b 96b9 5e63 acb8 3696 ccb9 ac07 35ba
00000120: 6476 93b9 5bbf 563a e1ad 86b9 d3f3 41ba
00000130: 967a f237 fccf 9039 8980 87ba 449d cab8
00000140: 7cbd d839 032a 263a 00ea a2b8 31ec 4034
00000150: 8132 3bb9 5e26 e9b9 86fc ba38 0f91 683a
00000160: b205 483a 9a92 0039 abd5 d4b9 504d 4e39
00000170: 3f3f 52b9 be7d 11ba 7f79 80b9 d608 c938
00000180: 5ca3 0339 9404 4eb9 5cf4 9eb9 c601 f3b7
00000190: 6695 ceb9 31c2 1eba e65f 59b9 0fd8 2d3a
000001a0: 5719 17b9 0a1d 25ba 7f68 b638 e42b 9639
000001b0: 9695 60ba 8a82 fcb8 0f6a bd39 35ab 123a
000001c0: bb39 d337 3308 a1b8 7bff 16b9 2731 f4b9
000001d0: 3745 3338 78c9 403a 563d 253a d1cd 3f39
000001e0: e2cd f238 58cb 64b9 7d3f 8338 e743 3b39
000001f0: edfe 7038 ae81 87b8 f5c5 29b9 fd7e 4437
00000200: c22e f838 04a4 0db9 5187 8139 3db0 6839
00000210: e6c6 e937 e8a1 51b9 fd6e a4b8 9a84 1239
00000220: 5183 16b9 b38c c8b8 d12a 7939 c4d1 1f39
00000230: 51f2 a3b8 ac00 81b9 6b00 2ab9 e8e8 3239
00000240: 3df7 4bb7 a19a 8439 6e06 4838 7ba2 2fb9
00000250: 0544 7ab9 17a8 d7b8 6dde b8b7 94de 3e3a
00000260: f302 be39 423d 1cb6 707c cfb8 c541 1939
00000270: 176a 4b3a 3850 a939 a10e 99b9 e155 053a
00000280: 8d64 9cb9 8484 6539 83c4 4039 2002 33ba
00000290: 432c 053a 976f 3e39 376a 0d3a 208d c839
000002a0: 3692 063a 932e f8b9 bb26 a838 0a7e 2cb9
000002b0: cd45 2b3a 264c 00ba 500d b039 c658 f7b9
000002c0: 2dec 79b9 853b 26ba a6c3 77b9 a2f7 f239
000002d0: bb2b 8039 1a03 9139 ac11 9439 4945 af39
000002e0: c4fe e338 1ac2 4b37 e5f9 af39 cead 9239
000002f0: 338a 1338 f2c2 a039 a813 e037 b9f6 e639
00000300: 2549 8439 3833 40ba ed55 d339 22ee f239
00000310: d624 6e39 e170 7437 beb8 473a 5244 5bb9
00000320: eaba 45b9 27e1 c4b9 2170 c539 9f50 8bb9
00000330: 43ce 8139 c89d 42b6 6d08 14b9 cd2c 4cba
00000340: 7549 02ba 07af 0339 4ae1 2039 e2e7 b2b9
00000350: 3189 21b9 4f3a 3439 b480 0c39 18c0 07b9
00000360: 4718 c4b9 d9c9 94b8 ef9f 8d39 470a 11b9
00000370: 09d1 2d39 75a4 0c38 601e ac37 7345 4139
00000380: dd00 dfb8 1a63 1d39 cb9a 87b9 c411 a4b9
00000390: 6cb2 0a37 ea8a 2d39 0756 4db9 f645 5bb6
000003a0: e86f 69b9 36f8 1d39 ca28 d3b8 1eda a939
000003b0: 661e d938 8092 ae37 8ed1 25b8 abb3 a4b9
000003c0: 8430 bdb5 6ed1 5038 7f62 f738 32b8 e937
000003d0: eefc 21b8 7751 1bb6 c1de c638 2a77 8938
000003e0: 295b 06b8 a4c5 7a37 41a5 8f38 dccc 1039
000003f0: 13b8 6537 5861 6ab9 69fe 8637 dcb3 3438
-1.6834187e-05 -0.00029302188 -0.0005512308 -0.00015100063 0.0001383829 -0.000101359445 -0.0005331272 -0.00024220727
0.00029391822 -3.603502e-05 -0.00023174568 -0.0005722422 -0.00011315514 0.001065224 -0.00016260735 -0.00013358456
-0.00026007515 -0.00047512283 -0.00076009356 6.4573185e-05 -0.00019056174 0.00067701156 -0.00020620022 -6.8746126e-06
-0.0002332929 0.00011647394 0.000117419004 0.0006800484 0.0006439473 -0.00047273096 0.00031080664 0.0001257075
0.000165601 0.00039529018 0.000187365 -3.6955127e-05 0.0001446793 0.00023570002 0.00017039337 0.000262535
7.224125e-05 0.00040078108 0.00024602638 -0.0005382009 0.00034792343 0.0005378206 0.00011716629 -0.00015813747
0.00070220354 -0.00013532113 -0.00029877733 -0.00030709637 0.0002709208 -0.00020854174 0.00019684929 0.0001365874
-0.000106307496 -0.0007076167 -0.00044092795 -4.0850337e-05 -0.0004872542 0.00014077552 -0.00025477746 -0.00065933826
-0.0003020328 5.987649e-05 5.1171828e-05 -0.00023759295 -0.00028630646 -8.220108e-05 -0.00039021828 -0.0006905745
-0.00028126233 0.00081919663 -0.00025688022 -0.00073986984 2.8905732e-05 0.0002762078 -0.0010337989 -9.6614036e-05
0.00041339907 0.00063386577 -7.768348e-05 1.796732e-07 -0.00017852524 -0.0004446981 8.916207e-05 0.0008871713
0.0007630243 0.00012261645 -0.00040594986 0.00019674492 -0.00020050722 -0.0005550048 -0.00024504584 9.586073e-05
0.0001255399 -0.00019647396 -0.0003031817 -2.8968683e-05 -0.00039402692 -0.00060561585 -0.00020730458 0.00066316215
-0.00014409922 -0.00062985776 8.6979e-05 0.0002864293 -0.0008567212 -0.00012040611 0.0003612791 0.000559497
2.5180043e-05 -7.6786055e-05 -0.00014400289 -0.00046575928 4.2741387e-05 0.000735424 0.000630339 0.00018291852
0.00011577808 -0.00021819526 6.2583924e-05 0.00017859005 5.7457877e-05 -6.461456e-05 -0.0001619084 1.1712077e-05
0.00011834271 -0.00013507908 0.00024705616 0.00022190898 2.7868384e-05 -0.00019992108 -7.8408026e-05 0.00013973043
-0.00014354034 -9.5629504e-05 0.00023762441 0.00015241565 -7.8175806e-05 -0.00024605298 -0.00016212619 0.00017062167
-1.21573075e-05 0.0002529221 4.7689704e-05 -0.00016749829 -0.00023867197 -0.00010283308 -2.2038084e-05 0.00072810915
0.0003624182 -2.3281468e-06 -9.8937075e-05 0.00014615718 0.0007759644 0.0003229396 -0.00029193333 0.00050863443
-0.00029829555 0.00021888508 0.00018383753 -0.0006828625 0.0005080143 0.00018161382 0.00053945504 0.0003825212
0.00051334815 -0.00047336947 8.0180784e-05 -0.00016450151 0.00065335335 -0.00048941595 0.00033579255 -0.00047177653
-0.00023834473 -0.00063412666 -0.0002362864 0.00046342338 0.00024446644 0.00027658866 0.00028241926 0.00033430223
0.00010871657 1.2144936e-05 0.00033564787 0.00027976785 3.517624e-05 0.00030662824 2.6712034e-05 0.0004405284
0.000252315 -0.0007331851 0.00040309076 0.0004633526 0.00022711171 1.4569815e-05 0.0007618776 -0.00020910919
-0.00018857015 -0.00037551785 0.0003765831 -0.00026572213 0.00024758474 -2.9000093e-06 -0.00014117519 -0.0007788658
-0.00049700524 0.00012558336 0.00015342716 -0.00034123572 -0.00015405264 0.0001718786 0.00013399386 -0.00012946164
-0.0003740212 -7.094787e-05 0.00027012776 -0.00013832106 0.00016576437 3.3531764e-05 2.0518142e-05 0.00018431786
-0.000106336294 0.00015009605 -0.00025864536 -0.00031293754 8.266983e-06 0.00016550315 -0.00019582371 -3.2674266e-06
-0.000222623 0.00015065153 -0.000100688616 0.00032396702 0.000103530285 2.0810636e-05 -3.953423e-05 -0.0003141438
-1.4095717e-06 4.978611e-05 0.00011796224 2.7861537e-05 -3.862095e-05 -2.3144219e-06 9.482867e-05 6.554865e-05
-3.203299e-05 1.4947178e-05 6.849552e-05 0.00013809226 1.3692322e-05 -0.00022352242 1.6092514e-05 4.308285e-05

exp_avg_sq f4 [30, 30]
00000000: f5a6 3438 e860 9d37 3a97 f137 6e8f 3738
00000010: 1c34 1f38 2b2b e436 efef 4338 6f3c 4234
00000020: f639 8c38 ffa2 1b37 14d8 cd36 ee32 af36
00000030: 20a4 3037 12b9 1538 e936 5437 d7ff 9a38
00000040: 1ca9 2f37 4c41 ef38 4cb3 5d37 099f 3b36
00000050: bdaa a638 3060 9837 fc0d 3f36 f255 3537
00000060: 61e5 2635 43b9 1938 e202 ec34 0f02 5837
00000070: f2e2 c736 f3eb 9338 e529 c137 fef9 1d37
00000080: e6e0 8037 3306 c237 e4b4 ae37 6fd0 4c36
00000090: d9e8 cc37 e6d5 1534 ee7a 1038 bf1a a836
000000a0: 93d1 4236 4261 2a36 9f0e bb36 bdd4 9a37
000000b0: 433a ec36 95f6 2338 17a6 ac36 0ac1 7d38
000000c0: 66da de36 1269 8d35 2116 3238 6b39 1d37
000000d0: 9eba ce35 3b54 c936 7b8f ca34 9041 9a37
000000e0: 5893 5934 2d0f da36 b2af 3b36 24bb 1738
000000f0: 59f0 0738 672d 6a37 73ad b737 fba9 0a38
00000100: bde7 e937 b7e0 b336 81bd 0f38 60c6 2634
00000110: 5f24 5138 8858 e736 6a66 a436 dfc7 9736
00000120: 7dd7 0b37 8dc8 e937 5508 2537 b45f 6738
00000130: 10e3 0737 dfc0 b038 c2a0 3437 7fc4 f835
00000140: b7d8 7738 a8c3 7437 08e7 0a36 d8e4 0c37
00000150: 62dc 1035 283d e237 d996 cb34 17f1 3437
00000160: ddfa b336 9133 5c38 95a9 8037 8ae5 d736
00000170: 6a40 5037 0a53 7d37 dc14 6737 c318 2c36
00000180: 87bb 8f37 d7d5 0734 4289 cb37 6101 5e36
00000190: ecaa 3436 6297 4536 ea6a 8836 a263 9537
000001a0: 2b1c a536 32a1 d337 4b75 8536 65a7 2f38
000001b0: d0e1 a536 5171 3635 01c5 f037 3332 1d37
000001c0: daa6 6635 eae2 9536 4afc d834 69b3 4937
000001d0: f798 3d34 fa15 9f36 af33 4a36 dabe db37
000001e0: 83eb 0936 2de1 4a35 3230 c135 2031 0936
000001f0: bc28 f335 2d2b b234 886a 0936 b6fd 2232
00000200: 247e 5636 7409 1135 0aad ab34 830e 8f34
00000210: 6ea2 1135 eb0b f835 3fcd 3f35 7a18 7236
00000220: f077 ef34 fbf0 b636 926f 2835 96ef 0834
00000230: 01ca 8136 13a1 8535 b3ce 2934 516b 2835
00000240: 4de6 c732 e5be d335 f1fc ac32 b67f 3635
00000250: bc3b a634 3736 6136 5e8e 6338 aea5 ae37
00000260: 5c46 1c38 184a 5e38 7de0 5738 bc92 cb36
00000270: 801a 7538 fa1c 9234 a058 ab38 7c2b 6837
00000280: 05b0 df36 327b 8f36 0a46 4b37 87a6 3538
00000290: 5b36 9037 a88f c438 8082 3037 1fdb 1b39
000002a0: e3cf 4337 8586 4c36 f552 d938 0ced b737
000002b0: ac69 9836 c04a 8337 3693 3f35 d620 3138
000002c0: 2340 bf34 cb87 3737 28ef 8936 93d9 b438
000002d0: 0b7d 1e38 34c3 8537 efc4 c437 34b0 2138
000002e0: f314 0e38 35a3 a736 3f77 2838 c1b0 6034
000002f0: 843a 6c38 1529 0237 f1d7 8e36 10a0 7036
00000300: 4a69 1537 5ec9 de37 1f91 3637 6275 8738
00000310: 7580 0e37 b7cf cd38 2b6c 3e37 9900 fc35
00000320: 107b 9038 8b35 5b37 c485 1f36 32e4 1437
00000330: 3751 0d35 6415 0438 4c6e a934 34f7 3637
00000340: 4c8f 8936 e47d 7638 db73 da36 42e0 0036
00000350: 7df3 bd36 8bc7 c436 8a6e d236 5408 8d35
00000360: fdaa e336 2240 c332 7cb3 3837 0955 2a36
00000370: a17a a535 8baf 3035 47f6 de35 db31 0137
00000380: 4b0f 3936 2cd4 4637 3326 9935 f919 a537
00000390: 7074 6635 cc2e 2935 0b80 6437 0888 8d36
000003a0: 1291 5535 7683 3b36 a44d 8233 5922 9436
000003b0: efbf 8233 aa31 9f35 a65f 2235 b5fc 4737
000003c0: 2c6a 0b36 5ffe 2135 e968 2e36 469f e435
000003d0: 82b1 0a36 aebb fe34 1953 2636 7264 9232
000003e0: b017 8636 3f11 6f35 1482 2c35 de67 1735
000003f0: 033f 2835 6344 9136 c45f 8835 fb21 6f36
4.3070835e-05 1.8760984e-05 2.879986e-05 4.376418e-05 3.7957085e-05 6.799955e-06 4.671508e-05 1.8089644e-07
6.686516e-05 9.27667e-06 6.134631e-06 5.2213354e-06 1.0528631e-05 3.569673e-05 1.26489695e-05 7.390946e-05
1.0470187e-05 0.000114085706 1.3214372e-05 2.7957742e-06 7.947299e-05 1.8164603e-05 2.8469358e-06 1.0808451e-05
6.217361e-07 3.665058e-05 4.3960523e-07 1.2875083e-05 5.957082e-06 7.053455e-05 2.3026902e-05 9.416135e-06
1.5363516e-05 2.3129489e-05 2.082665e-05 3.0519693e-06 2.4427123e-05 1.3954522e-07 3.4446763e-05 5.009904e-06
2.903024e-06 2.5388586e-06 5.5747364e-06 1.8457295e-05 7.0401306e-06 3.9091876e-05 5.145335e-06 6.0499682e-05
6.6415405e-06 1.0535898e-06 4.2459116e-05 9.371298e-06 1.5402509e-06 6.0000725e-06 3.7729828e-07 1.838876e-05
2.0263303e-07 6.498673e-06 2.796744e-06 3.6175494e-05 3.241035e-05 1.3958058e-05 2.1896069e-05 3.306007e-05
2.7883676e-05 5.360776e-06 3.4270346e-05 1.5532123e-07 4.9863356e-05 6.894643e-06 4.8995034e-06 4.5234187e-06
8.335218e-06 2.7869153e-05 9.836706e-06 5.5163822e-05 8.099494e-06 8.428259e-05 1.0766265e-05 1.8534628e-06
5.909122e-05 1.4589088e-05 2.069808e-06 8.397932e-06 5.396488e-07 2.6969778e-05 3.7921453e-07 1.0784969e-05
5.36382e-06 5.2500112e-05 1.5337757e-05 6.434221e-06 1.2412764e-05 1.5099309e-05 1.377353e-05 2.564441e-06
1.7134253e-05 1.2650649e-07 2.4263401e-05 3.308138e-06 2.692158e-06 2.9443404e-06 4.0655623e-06 1.780858e-05
4.9206624e-06 2.5228223e-05 3.9773636e-06 4.187915e-05 4.9436712e-06 6.796518e-07 2.8701967e-05 9.369617e-06
8.592448e-07 4.4669623e-06 4.04167e-07 1.2022306e-05 1.7657645e-07 4.7411277e-06 3.013043e-06 2.6195707e-05
2.0551677e-06 7.557854e-07 1.4393647e-06 2.0443185e-06 1.8116766e-06 3.3186498e-07 2.04766e-06 9.487328e-09
3.1961908e-06 5.4030465e-07 3.1977135e-07 2.6646384e-07 5.4253076e-07 1.8480908e-06 7.1451717e-07 3.6075057e-06
4.4604485e-07 5.4520765e-06 6.2747233e-07 1.2753148e-07 3.868016e-06 9.956151e-07 1.5814548e-07 6.2741043e-07
2.3271378e-08 1.5776283e-06 2.013846e-08 6.798613e-07 3.0963372e-07 3.355917e-06 5.4253607e-05 2.0819567e-05
3.7258826e-05 5.299793e-05 5.1469066e-05 6.0669536e-06 5.8437232e-05 2.7215702e-07 8.170423e-05 1.3838402e-05
6.6664093e-06 4.276074e-06 1.211605e-05 4.3308853e-05 1.7191449e-05 9.372766e-05 1.0520802e-05 0.00014863581
1.1671308e-05 3.047667e-06 0.00010362818 2.1925684e-05 4.542255e-06 1.5651225e-05 7.1367265e-07 4.223067e-05
3.5623188e-07 1.0939267e-05 4.1107596e-06 8.623595e-05 3.778659e-05 1.5945734e-05 2.3456725e-05 3.8549493e-05
3.387495e-05 4.9959876e-06 4.0165378e-05 2.0925928e-07 5.632128e-05 7.758169e-06 4.2570687e-06 3.5855956e-06
8.905607e-06 2.6558231e-05 1.0881834e-05 6.459166e-05 8.493768e-06 9.813852e-05 1.1350067e-05 1.8775637e-06
6.889377e-05 1.3065884e-05 2.3770708e-06 8.874618e-06 5.2644776e-07 3.1491174e-05 3.1558955e-07 1.0905602e-05
4.0996e-06 5.8768215e-05 6.5103936e-06 1.9204022e-06 5.6609847e-06 5.864485e-06 6.271356e-06 1.0507742e-06
6.785033e-06 2.2730152e-08 1.1009044e-05 2.538147e-06 1.2329148e-06 6.582056e-07 1.6611965e-06 7.700607e-06
2.757605e-06 1.185112e-05 1.1410506e-06 1.9681627e-05 8.5851116e-07 6.3025504e-07 1.3619671e-05 4.2179636e-06
7.955979e-07 2.7941692e-06 6.0677195e-08 4.4147423e-06 6.088509e-08 1.1860877e-06 6.048889e-07 1.1920162e-05
2.0774414e-06 6.034733e-07 2.5989086e-06 1.7033678e-06 2.0666926e-06 4.7447742e-07 2.4784297e-06 1.7042314e-08
3.996269e-06 8.9059535e-07 6.426428e-07 5.640303e-07 6.267657e-07 4.329298e-06 1.0160661e-06 3.5633554e-06
