paper/Cable_equation/runs/test_4/checkpoint.pt (torch, 59031 bytes, 36 tensors)

func_approx.network.0.weight f4 [30, 2]
0.027797543 0.35605568 -0.5891124 -0.44888625 -0.30607042 0.22635446 -0.0015003793 0.53575855
-0.025174746 0.18046047 -0.17288467 -0.049243998 -0.6985685 -0.4355687 -0.31845877 0.07391867
0.22914277 0.32175505 -0.47822767 -0.24799109 0.21604547 0.52171737 -0.19262257 0.52170956
-0.09418112 0.13534366 0.6270311 -0.72503114 -0.3839217 -0.077113315 -0.33755285 0.5459898
-0.46026137 -0.2516878 -0.48952675 -0.60324264 -0.42329824 0.65060914 0.36153185 0.38292322
0.011218321 -0.3266888 0.134534 -0.66659087 -0.48110023 -0.363535 0.38982275 0.30665538
-0.34195632 0.0059892694 0.45340094 0.6240706 0.22576378 -0.0012212723 0.5184986 -0.4191956
0.13625987 -0.602461 -0.46037778 -0.26995695
00000000: acb7 e33c ee4c b63e 12d0 16bf 6bd4 e5be
00000010: 43b5 9cbe 77c9 673e 60a8 c4ba 7927 093f
00000020: 453b cebc a1ca 383e ae08 31be 13b4 49bd
00000030: 63d5 32bf dc02 dfbe 070d a3be ac62 973d
00000040: 67a4 6a3e 14bd a43e 42da f4be 60f1 7dbe
00000050: 063b 5d3e 458f 053f da3e 45be c28e 053f
00000060: 08e2 c0bd 8797 0a3e 1c85 203f a49b 39bf
00000070: 6391 c4be 96ed 9dbd bad3 acbe fdc5 0b3f
00000080: 61a7 ebbe 39dd 80be 40a3 fabe 1c6e 1abf
00000090: 8cba d8be 528e 263f b41a b93e 830e c43e
000000a0: 0ccd 373c c143 a7be 48c3 093e b3a5 2abf
000000b0: c552 f6be 4221 babe d996 c73e ef01 9d3e
000000c0: e614 afbe a241 c43b 2b24 e83e 17c3 1f3f
000000d0: 9f2e 673e 1913 a0ba 53bc 043f cea0 d6be
000000e0: b587 0b3e e23a 1abf a3b6 ebbe cc37 8abe

func_approx.network.0.bias f4 [30]
0.3379946 0.30890003 -0.41825712 0.21618715 0.40864056 -0.030468427 0.025552431 0.16846985
0.37021655 0.69939595 -0.5955193 -0.28867993 0.30591866 0.536684 0.68223214 0.55924344
0.1700922 -0.59249586 0.073750764 -0.40340367 -0.6683371 0.62577206 0.56542724 -0.78343093
0.1274848 -0.14606944 -0.18546326 -0.2993036 0.2525736 -0.363074
00000000: a10d ad3e 2528 9e3e cc25 d6be 2a60 5d3e
00000010: 5639 d13e ec98 f9bc 5553 d13c 5c83 2c3e
00000020: 068d bd3e 9d0b 333f f473 18bf dbcd 93be
00000030: 5fa1 9c3e 1f64 093f c4a6 2e3f 942a 0f3f
00000040: a62c 2e3e cfad 17bf a40a 973d ed8a cebe
00000050: 2418 2bbf 9932 203f d7bf 103f ee8e 48bf
00000060: 608b 023e 3a93 15be 15ea 3dbe 523e 99be
00000070: 5451 813e d6e4 b9be

func_approx.network.2.weight f4 [30, 30]
0.03843799 0.13377364 0.17439045 0.044646174 -0.20570247 -0.075049184 0.13191018 0.086498074
-0.18112837 -0.0560438 0.13711059 0.18040426 -0.053142857 -0.09310872 -0.11887435 0.018627254
-0.094920255 -0.10278611 0.050847843 -0.01486755 -0.042498328 0.057751052 -0.06303969 0.115742646
0.17153539 -0.19212958 -0.093260385 -0.05238863 -0.03465943 0.0831292 0.028358027 0.05363796
-0.04813541 0.041199353 -0.21853995 -0.068306126 -0.0036018104 -0.04628143 -0.102502786 -0.105810165
-0.09025799 0.077640355 -0.17061049 -0.044773992 0.16501695 -0.055228215 0.047311477 0.023331333
0.0654321 0.06549353 0.21372695 0.07863705 0.21491398 -0.053570982 -0.120908424 -0.1311225
0.08662676 -0.03404066 -0.117561616 -0.10187096 -0.23218454 -0.10011221 0.012154882 0.03546419
0.03856696 -0.12124461 0.16755198 -0.09758864 -0.09551443 -0.026474103 -0.09972285 -0.004423416
-0.21243377 -0.2038188 0.01653945 -0.113940634 -0.030253662 0.124638416 -0.13265973 -0.06281338
0.22023222 -0.11395163 0.21400379 0.013893347 -0.11791051 0.05805914 -0.071746476 -0.11335304
0.1166226 -0.09288746 0.028503226 -0.066161126 0.09774391 0.052887317 0.09284112 0.031574644
-0.070326746 -0.08298865 -0.12726368 0.05085227 0.1644398 0.0643209 -0.15944576 0.047247168
-0.19073589 -0.12879941 -0.13698462 0.040610354 -0.18072261 0.02817663 -0.006361041 0.16245455
-0.18096729 -0.074514136 -0.14564528 0.1497165 -0.022854079 0.2262262 0.13587892 -0.001839907
-0.053658556 0.0060711238 0.059909288 -0.098587975 -0.052770086 0.06613564 -0.10045457 -0.06477318
0.10095731 -0.11584939 -0.06623418 0.19633079 0.019238392 -0.02759011 -0.13121727 -0.024324663
-0.089476086 -0.0061833137 -0.04827657 -0.06510862 0.052337665 0.12491961 0.05794803 0.12712236
0.14500247 -0.16224472 0.04511956 -0.14266668 -0.08885925 0.097525306 0.06987305 0.10672915
-0.09350256 0.002744396 0.099482946 -0.21085511 0.10362823 -0.19820943 0.026791902 -0.0820773
-0.07397907 -0.038668852 0.11966014 -0.01211565 -0.17414173 -0.10932963 -0.21381867 0.05945125
-0.16255353 -0.08622604 -0.119616486 0.15250334 0.050814983 0.19329026 0.023857085 -0.037285723
-0.0061559565 0.12912545 0.2228365 0.023234054 -0.07909725 -0.11661839 -0.20798953 0.038850926
-0.0991056 -0.19733757 0.13182001 -0.16928826 0.0021436494 -0.0043198336 0.028107867 -0.18935712
-0.17806634 0.18877968 -0.044946782 0.10062387 -0.094924524 0.03228196 -0.123376526 0.029879477
-0.12335753 0.11113876 0.008249538 0.056096364 -0.08602129 -0.08970387 0.1737018 -0.053398095
0.15228589 -0.08698302 -0.14555399 0.084902 -0.045997184 -0.017492454 -0.020583373 -0.08189881
0.08215143 0.124454506 0.017895592 0.02560403 -0.21043693 0.007525743 0.017921021 -0.11352265
0.11773045 0.00878104 -0.04395815 0.055125263 0.1131287 -0.03525832 0.07155864 -0.018879993
-0.09431775 -0.038586732 0.17385519 0.110005006 0.056130473 -0.0127574215 0.04945832 -0.03623264
-0.17079243 -0.12366161 0.217243 0.10168358 -0.14151052 0.107688785 0.17021084 0.22318505
0.12912932 0.1842216 -0.069373086 -0.016450215 0.18435839 0.06364514 -0.059223883 0.18346968
00000000: 2771 1d3d f5fb 083e 6993 323e e8de 363d
00000010: aba3 52be 63b3 99bd 7613 073e e725 b13d
00000020: b779 39be 2f8e 65bd b866 0c3e e5bb 383e
00000030: 53ac 59bd c9af bebd 6574 f3bd 2f98 983c
00000040: 8d65 c2bd 8681 d2bd d445 503d 0697 73bc
00000050: ba12 2ebd 5e8c 6c3d f41a 81bd 7b0a ed3d
00000060: f9a6 2f3e 9ebd 44be 4dff bebd 7695 56bd
00000070: 0cf7 0dbd a43f aa3d 184f e83c 7ab3 5b3d
00000080: a329 45bd a7c0 283d f0c8 5fbe 15e4 8bbd
00000090: 5a0c 6cbb 9991 3dbd fbec d1bd 00b3 d8bd
000000a0: 2ed9 b8bd e801 9f3d 84b4 2ebe ef64 37bd
000000b0: 34fa 283e fb36 62bd aec9 413d 5a21 bf3c
000000c0: 4401 863d 7921 863d 3ddb 5a3e 760c a13d
000000d0: 6912 5c3e 3f6d 5bbd d69e f7bd fa44 06be
000000e0: 5f69 b13d 386e 0bbd 25c4 f0bd b9a1 d0bd
000000f0: c9c1 6dbe a107 cdbd 4525 473c e642 113d
00000100: 63f8 1d3d 184f f8bd bf92 2b3e 8edc c7bd
00000110: 129d c3bd 38e0 d8bc 7e3b ccbd 4ef2 90bb
00000120: 3d88 59be e0b5 50be be7d 873c b559 e9bd
00000130: 87d6 f7bc 6d42 ff3d f4d7 07be 4da4 80bd
00000140: 8e84 613e 795f e9bd cf23 5b3e eca0 633c
00000150: 117b f1bd 6ccf 6d3d d1ef 92bd a325 e8bd
00000160: d4d7 ee3d c83b bebd 997f e93c 7c7f 87bd
00000170: f62d c83d 5fa0 583d 7c23 be3d 6a54 013d
00000180: 7807 90bd f4f5 a9bd 6951 02be 784a 503d
00000190: e862 283e adba 833d c045 23be 3f86 413d
000001a0: 4550 43be fee3 03be b245 0cbe 0b57 263d
000001b0: 590f 39be add2 e63c 4870 d0bb 7c5a 263e
000001c0: 7d4f 39be de9a 98bd 0924 15be 484f 193e
000001d0: 7a38 bbbc d7a7 673e d823 0b3e 0929 f1ba
000001e0: 13c9 5bbd 47f0 c63b 7163 753d 7ee8 c9bd
000001f0: 7225 58bd 1f72 873d 20bb cdbd cda7 84bd
00000200: b5c2 ce3d 7242 edbd c9a5 87bd f00a 493e
00000210: d599 9d3c a804 e2bc d25d 06be 8444 c7bc
00000220: 3d3f b7bd 659d cabb a7bd 45bd ab57 85bd
00000230: 0560 563d dad5 ff3d ea5a 6d3d 5d2c 023e
00000240: 877b 143e 7b23 26be 4acf 383d 3717 12be
00000250: d7fb b5bd 59bb c73d 9a19 8f3d d094 da3d
00000260: 457e bfbd 53db 333b b7bd cb3d 67ea 57be
00000270: 0a3b d43d 6af7 4abe b17a db3c 2518 a8bd
00000280: 5782 97bd 3b63 1ebd 6010 f53d b880 46bc
00000290: 3652 32be 37e8 dfbd 48f3 5abe 2783 733d
000002a0: 6f74 26be 4797 b0bd 7df9 f4bd d629 1c3e
000002b0: 5f23 503d e2ed 453e ef6f c33c eab8 18bd
000002c0: e8b7 c9bb 7639 043e 402f 643e 5855 be3c
000002d0: bdfd a1bd 9fd5 eebd 35fb 54be 2622 1f3d
000002e0: e0f7 cabd dc12 4abe d3fb 063e e759 2dbe
000002f0: 787c 0c3b 648d 8dbb 7842 e63c d5e6 41be
00000300: 0657 36be 764f 413e 1e1a 38bd e313 ce3d
00000310: ca67 c2bd 173a 043d d5ac fcbd cec5 f43c
00000320: dfa2 fcbd b89c e33d 1229 073c 4dc5 653d
00000330: ee2b b0bd aab6 b7bd e2de 313e f6b7 5abd
00000340: d5f0 1b3e 2724 b2bd 1b0c 15be 1ae1 ad3d
00000350: 8b67 3cbd 564c 8fbc 769e a8bc 90ba a7bd
00000360: 023f a83d 01e2 fe3d c799 923c 8bbf d13c
00000370: c77c 57be 829a f63b 1bcf 923c 907e e8bd
00000380: aa1c f13d 5ade 0f3c 760d 34bd 07cb 613d
00000390: 05b0 e73d 076b 10bd 568d 923d 37aa 9abc
000003a0: aa29 c1bd 1f0d 1ebd 1807 323e 4e4a e13d
000003b0: 11e9 653d 8104 51bc cf94 4a3d ad68 14bd
000003c0: 36e4 2ebe 4c42 fdbd f374 5e3e 7b3f d03d
000003d0: 22e8 10be f08b dc3d c04b 2e3e 9f8a 643e
000003e0: 7a3a 043e 96a4 3c3e 7a13 8ebd 9ac2 86bc
000003f0: 72c8 3c3e 6258 823d be94 72bd 7adf 3b3e

func_approx.network.2.bias f4 [30]
-0.022206042 0.10393821 -0.021229358 -0.03691755 0.07827222 0.0326751 0.055262316 -0.11180614
-0.028540807 -0.0022446953 0.03372134 -0.15389276 0.059869062 -0.095598385 0.0119140055 0.089901045
-0.08695336 -0.14253524 0.0028376193 -0.06856479 0.036209155 -0.029084718 0.05470737 -0.10253283
0.023364125 0.066250294 0.19090898 -0.0012286077 -0.07728969 0.014237981
00000000: 72e9 b5bc 8edd d43d 31e9 adbc db36 17bd
00000010: 304d a03d 53d6 053d bd5a 623d 9efa e4bd
00000020: 69ce e9bc bd1b 13bb 631f 0a3d 1096 1dbe
00000030: 4339 753d 16c9 c3bd f632 433c 0a1e b83d
00000040: 9a14 b2bd c2f4 11be 5af7 393b b26b 8cbd
00000050: 0d50 143d 1343 eebc d614 603d bbfc d1bd
00000060: 1f66 bf3c 3cae 873d a57d 433e 3c09 a1ba
00000070: 0f4a 9ebd 6c46 693c

func_approx.network.4.weight f4 [30, 30]
0.091020316 -0.15479371 -0.15714028 0.032968625 -0.0503963 -0.21449 -0.14868113 0.039050844
-0.043188527 0.15016231 0.18075204 -0.009701066 0.029212289 -0.010386802 0.023072943 0.013388815
-0.15466754 0.00091587467 -0.11868252 0.16076696 -0.1057976 0.13994458 -0.024583668 -0.12501632
0.12815094 0.07486079 0.085489094 0.10241 -0.21720475 0.15629986 -0.013102251 -0.045261014
0.17248453 0.17296809 -0.12088035 0.017699512 0.18809894 0.11303555 0.14118636 -0.08839685
-0.1407605 0.18939383 0.032130267 0.12164121 -0.11547742 -0.091715336 -0.0051662936 -0.20979042
0.030008042 0.090955414 0.038408343 0.016165527 0.07302111 -0.102475464 0.13221782 -0.22402678
-0.13825674 -0.057707354 0.1870694 -0.019226735 0.03839216 -0.18337226 0.0016525877 -0.06718059
0.015462213 0.084730126 0.028930787 -0.07715802 0.009156931 -0.060143273 -0.008924811 0.06830293
-0.015834613 0.18227012 -0.0075789285 -0.07737167 0.041642178 -0.118287876 0.062103763 0.032961283
0.017841881 -0.09626183 0.17241897 0.10760798 -0.051639274 0.13574067 -0.19312452 -0.14992051
0.004781341 0.053522933 -0.07343375 -0.13335699 -0.022142725 0.10827505 -0.13098748 -0.13500425
0.0681464 -0.0962245 -0.18065289 -0.09732688 -0.06738689 -0.12771054 -0.16571358 -0.03353186
-0.20368779 -0.006108287 -0.103944324 -0.17163728 0.038506806 -0.19040613 -0.15134521 0.13266774
0.009079944 0.18802923 -0.08731053 -0.13695616 0.026247554 -0.025311846 0.18282048 -0.22503746
-0.012290559 0.07719905 -0.12064322 -0.11637168 0.12275475 -0.192642 0.027513329 -0.14831652
0.10577509 -0.20086078 0.08026858 -0.1799198 -0.1803821 0.018220866 0.15008911 -0.15586066
-0.1472582 0.17683439 -0.02319994 0.094178654 -0.18213995 -0.05120824 -0.07851649 0.1408101
0.08730304 -0.1146857 0.01334785 0.00554314 -0.08923431 -0.08978815 -0.046293676 0.18620504
-0.08526392 -0.08469157 -0.022225142 0.043235578 0.09243239 0.03760552 -0.06479094 -0.129719
-0.067460306 -0.036933582 0.10580387 -0.219964 -0.14574979 -0.13479812 -0.014582951 0.09911323
0.12830003 -0.20717949 -0.019819833 0.13188869 0.056041505 0.17086112 -0.039941035 -0.1696563
0.16166002 -0.08758959 0.1364029 -0.08637286 0.044081442 0.1230432 0.102811836 -0.21327026
-0.16721493 -0.115877606 -0.15848398 0.12503503 -0.005056393 -0.0867966 -0.036152385 -0.13787499
0.123777665 -0.09249863 -0.11989552 -0.20946051 0.076347254 0.13377336 -0.06249577 0.09207533
0.14258851 -0.015966102 -0.024175322 -0.0007669116 0.04075895 0.1378866 -0.16348791 0.115390405
0.06223478 -0.07050272 0.15840635 0.11781846 -0.12505884 -0.102664106 0.015096145 -0.19383922
0.013769009 -0.017098702 0.16135438 -0.08229547 -0.079720676 0.016309703 0.13903935 -0.13500491
-0.05409354 -0.1518649 -0.052043542 -0.025370285 0.19076967 0.021610737 0.16775951 0.105450235
0.12967567 -0.21410966 0.1256882 0.12718906 0.08381926 -0.15978374 0.05094693 0.21032673
-0.17842165 -0.025719995 0.10598034 -0.16200837 -0.029320924 0.05176382 0.010223231 0.11938547
0.17751852 0.2521919 0.06532711 0.105964854 -0.08542551 -0.06343927 0.010029908 -0.05577628
00000000: dc68 ba3d 3e82 1ebe 62e9 20be 1c0a 073d
00000010: 5a6c 4ebd 44a3 5bbe de3f 18be c7f3 1f3d
00000020: 74e6 30bd 26c4 193e 1017 393e 38f1 1ebc
00000030: 9c4e ef3c 682d 2abc 7803 bd3c c35c 5b3c
00000040: 2b61 1ebe 4f17 703a d20f f3bd 18a0 243e
00000050: 69ac d8bd a24d 0f3e b063 c9bc 4704 00be
00000060: 003a 033e 9d50 993d e814 af3d 56bc d13d
00000070: ec6a 5ebe 120d 203e d3aa 56bc 9d63 39bd
00000080: c99f 303e 8c1e 313e 1e90 f7bd 91fe 903c
00000090: 029d 403e 2f7f e73d 2893 103e 6809 b5bd
000000a0: 8523 10be 75f0 413e 079b 033d 071f f93d
000000b0: 6d7f ecbd 40d5 bbbd 034a a9bb 4dd3 56be
000000c0: 6dd3 f53c d546 ba3d 1152 1d3d 916d 843c
000000d0: 178c 953d a8de d1bd 1c64 073e 4767 65be
000000e0: 2d93 0dbe 8c5e 6cbd 1f8f 3f3e 6381 9dbc
000000f0: 1941 1d3d f0c5 3bbe a49b d83a fa95 89bd
00000100: 3955 7d3c fd86 ad3d 4200 ed3c 0605 9ebd
00000110: f406 163c cb58 76bd 5f39 12bc 68e2 8b3d
00000120: 97b7 81bc 05a5 3a3e a958 f8bb 0a75 9ebd
00000130: fd90 2a3d ea40 f2bd 8460 7e3d 6902 073d
00000140: 2329 923c ec24 c5bd 998e 303e 9361 dc3d
00000150: b483 53bd 9aff 0a3e 6fc2 45be c384 19be
00000160: ccac 9c3b dd3a 5b3d 6f64 96bd bc8e 08be
00000170: a964 b5bc 4fbf dd3d 9521 06be 8e3e 0abe
00000180: 5790 8b3d 5a11 c5bd 12fd 38be 5153 c7bd
00000190: 2302 8abd 8dc6 02be d2b0 29be b458 09bd
000001a0: 8893 50be 0628 c8bb c3e0 d4bd afc1 2fbe
000001b0: 50b9 1d3d d3f9 42be 3dfa 1abe 0dda 073e
000001c0: 0cc4 143c bc8a 403e ddcf b2bd 3c3e 0cbe
000001d0: 1c05 d73c ca5a cfbc 4b35 3b3e 3870 66be
000001e0: 575e 49bc 891a 9e3d cb13 f7bd 4654 eebd
000001f0: d866 fb3d f243 45be a263 e13c 49e0 17be
00000200: 9ca0 d83d 73ae 4dbe da63 a43d e53c 38be
00000210: 16b6 38be ed43 953c f6b0 193e f099 1fbe
00000220: dbca 16be 1314 353e cd0d bebc bde0 c03d
00000230: e582 3abe bbbf 51bd 41cd a0bd 8630 103e
00000240: f0cb b23d 56e0 eabd f1b0 5a3c 3ba3 b53b
00000250: 7ac0 b6bd d9e2 b7bd 709e 3dbd 89ac 3e3e
00000260: da9e aebd c672 adbd 8011 b6bc ca17 313d
00000270: 314d bd3d 3f08 1a3d 1db1 84bd 0fd5 04be
00000280: a128 8abd ab47 17bd b3af d83d 3e3e 61be
00000290: 6f3f 15be 8508 0abe 54ed 6ebc e1fb ca3d
000002a0: 1561 033e dc26 54be 345d a2bc d40d 073e
000002b0: c78b 653d 38f6 2e3e 3699 23bd 62ba 2dbe
000002c0: 348a 253e 2c62 b3bd 34ad 0b3e 41e4 b0bd
000002d0: be8e 343d 13fe fb3d 038f d23d 8563 5abe
000002e0: 643a 2bbe 3d51 edbd a049 22be 2f09 003e
000002f0: 19b0 a5bb 6ac2 b1bd 8614 14bd 1a2f 0dbe
00000300: 257f fd3d ec6f bdbd c88b f5bd d17c 56be
00000310: f35b 9c3d e2fb 083e 91fb 7fbd fe91 bc3d
00000320: b902 123e 58cb 82bc 530b c6bc 910a 49ba
00000330: dbf2 263d 2532 0d3e 6069 27be ce51 ec3d
00000340: e6e9 7e3d bb63 90bd 4635 223e ce4a f13d
00000350: 6d0f 00be 8f41 d2bd d255 773c ca7d 46be
00000360: 6997 613c 9412 8cbc 153a 253e 878a a8bd
00000370: 9844 a3bd ed9b 853c 5560 0e3e ba3e 0abe
00000380: 3091 5dbd 7982 1bbe 9c2b 55bd 58d5 cfbc
00000390: 2059 433e 0009 b13c 26c9 2b3e 4bf6 d73d
000003a0: b3c9 043e 903f 5bbe 68b4 003e d93d 023e
000003b0: 6fa9 ab3d 599e 23be baad 503d e45f 573e
000003c0: 2ab4 36be bdb2 d2bc 380c d93d 86e5 25be
000003d0: 6f32 f0bc 4d06 543d 577f 273c 5f80 f43d
000003e0: 6ac7 353e 4c1f 813e 38ca 853d 1a04 d93d
000003f0: 92f3 aebd 73ec 81bd 7c54 243c ab75 64bd

func_approx.network.4.bias f4 [30]
-0.09917425 -0.06206332 -0.06636503 0.18853171 0.000577849 0.17069629 -0.043755315 -0.005872005
-0.038797878 0.046333894 -0.19629815 -0.19465853 0.059761267 0.106663726 0.15405671 -0.030127963
0.030125812 0.078484096 -0.13869196 -0.1918388 -0.090187974 -0.027749266 -0.06057277 -0.05375777
-0.0691015 0.111203626 0.095423095 0.14202179 0.20445968 -0.15113342
00000000: df1b cbbd 1c36 7ebd 64ea 87bd 750e 413e
00000010: ca7a 173a 02cb 2e3e c638 33bd f369 c0bb
00000020: 86ea 1ebd 9cc8 3d3d 6202 49be 9154 47be
00000030: 3bc8 743d 8372 da3d 0bc1 1d3e ebce f6bc
00000040: 68ca f63c 45bc a03d 4405 0ebe 6471 44be
00000050: 79b4 b8bd 6e52 e3bc 271b 78bd 1c31 5cbd
00000060: 1685 8dbd babe e33d 2f6d c33d 296e 113e
00000070: e15d 513e b8c2 1abe

func_approx.network.6.weight f4 [30, 30]
0.026469287 0.03579571 0.11231047 -0.082146406 -0.06528804 -0.13887279 0.12467923 -0.09067272
-0.10358074 0.13848777 0.18799366 -0.02390864 -0.14433773 0.13259554 -0.07871633 -0.09220838
-0.12239342 -0.0784223 -0.12562823 -0.09073751 -0.13320267 -0.05334191 0.11006143 -0.15059267
-0.0045777652 -0.06875425 0.120658204 0.112700276 -0.051704593 -0.06758229 -0.17971538 -0.107050836
0.12175869 0.081873916 0.017264772 0.011662406 0.122786164 -0.102771446 0.12398112 0.11151084
-0.22967702 -0.12582812 0.13399534 0.030147437 -0.06342301 0.092282765 0.0067384057 -0.020675598
-0.10160723 0.11282871 0.042849656 0.0037735258 -0.027519705 0.14067978 0.1333663 -0.06624477
-0.09372383 0.11726002 -0.05301575 0.12920813 -0.15377094 0.079406194 -0.08307692 0.08602851
0.12023728 0.047063865 -0.00852127 0.15619826 -0.094497226 -0.1412203 -0.17851214 -0.09846922
0.021438623 -0.06467858 0.058650166 0.012468241 0.14533815 -0.09011765 -0.069734745 0.104852356
-0.08077153 0.18877211 -0.11123683 0.012779468 -0.03750281 0.08749486 0.03715662 -0.051592853
0.1492714 -0.03783346 -0.061269604 -0.014566756 0.17118523 0.19242921 0.08155092 0.04284243
0.13095333 -0.0427186 -0.06236376 -0.053564593 -0.11924133 0.10745923 0.025444731 -0.06229867
-0.01322684 0.012770951 0.15667722 0.16354267 -0.13993803 0.061132915 0.045647684 0.09796526
-0.047631662 0.040606238 0.04069081 0.17267172 -0.2048789 -0.019563392 -0.10632954 -0.100160085
-0.011069881 0.1234736 -0.077729866 0.16503882 0.121950164 -0.045700405 0.03743486 -0.046154447
0.101085834 -0.14528263 -0.11721342 -0.14065678 -0.11954627 0.18882145 0.017534938 -0.025121504
-0.11204719 0.09277417 -0.14764346 -0.10992258 -0.18876888 -0.1695251 0.106784195 -0.09775172
-0.0022867522 -0.032230634 0.022410512 0.11190776 -0.094639264 0.11694314 -0.22491728 0.025079504
0.033436585 -0.001503448 0.11908007 0.19291525 0.024864966 -0.025408529 0.17183696 0.082711205
-0.0011124554 -0.046847124 0.0375586 0.191781 0.051490568 -0.041540816 -0.17295597 -0.12351372
0.09829824 -0.036301237 -0.0476315 0.071700945 -0.165454 0.01784832 -0.033715185 0.11036096
0.11967823 0.16341054 0.17991266 -0.20304552 -0.03546665 0.027089354 -0.20769052 0.021231037
-0.10970386 0.052409798 0.1349393 -0.19848144 0.11005782 0.11373025 -0.09399183 0.1648532
-0.17406952 -0.14421546 -0.10980645 -0.013465911 0.03820436 -0.0417535 -0.15014479 -0.0052322317
0.17568965 0.1303083 0.1336644 0.007819513 0.03991455 -0.1425247 0.10903517 -0.23498027
-0.10431711 -0.020333508 0.10024559 -0.0084730815 -0.028516406 0.06486404 -0.16290131 -0.017713297
0.06237967 0.03407495 0.026404895 0.07822545 -0.1710818 -0.08918777 0.1958159 0.0643437
-0.0058215135 0.09429668 0.10208118 -0.04679656 -0.10477358 -0.04945927 0.024408791 -0.019870361
0.061166205 -0.1239065 -0.07949037 0.14372584 -0.013785396 0.08550953 0.09314902 -0.07550764
-0.11133808 0.05394661 0.0038824778 -0.038928077 0.014730859 0.07855843 -0.010129754 -0.08019955
0.012487494 -0.13513255 0.063085966 -0.11762527 0.169849 0.10334743 -0.12939692 0.13347806
00000000: 1ed6 d83c 869e 123d 0803 e63d 603c a8bd
00000010: bcb5 85bd ab34 0ebe d357 ff3d 9eb2 b9bd
00000020: 2422 d4bd bdcf 0d3e 6981 403e 0ddc c3bc
00000030: 45cd 13be 20c7 073e 0736 a1bd bfd7 bcbd
00000040: 67a9 fabd df9b a0bd b0a4 00be 96d4 b9bd
00000050: 4866 08be 0c7d 5abd e367 e13d f734 1abe
00000060: 1401 96bb 07cf 8cbd a61b f73d 67cf e63d
00000070: 32c8 53bd 9568 8abd 4f07 38be 783d dbbd
00000080: 9f5c f93d 83ad a73d da6e 8d3c ad13 3f3c
00000090: 5077 fb3d d679 d2bd d0e9 fd3d cc5f e43d
000000a0: 7430 6bbe 16d9 00be 1336 093e c2f7 f63c
000000b0: ece3 81bd bffe bc3d d8cd dc3b df5f a9bc
000000c0: 7417 d0bd bd12 e73d 1f83 2f3d 424d 773b
000000d0: 0171 e1bc 5c0e 103e 2d91 083e 57ab 87bd
000000e0: 48f2 bfbd 0526 f03d 0b27 59bd 234f 043e
000000f0: 2176 1dbe b79f a23d 3b24 aabd b72f b03d
00000100: f73e f63d 0ac6 403d cc9c 0bbc 70f2 1f3e
00000110: c387 c1bd 0e9c 10be e3cb 36be 3baa c9bd
00000120: 0da0 af3c 3476 84bd 283b 703d 9847 4c3c
00000130: 86d3 143e 9a8f b8bd 17d1 8ebd d5bc d63d
00000140: 8b6b a5bd 7a4d 413e 23d0 e3bd f960 513c
00000150: 8c9c 19bd 8130 b33d 8a31 183d 0753 53bd
00000160: 9ada 183e 42f7 1abd d6f5 7abd 67a9 6ebc
00000170: 2e4b 2f3e 2a0c 453e 2b04 a73d 8b7b 2f3d
00000180: a118 063e b3f9 2ebd 2471 7fbd 8c66 5bbd
00000190: cc34 f4bd 9613 dc3d 7871 d03c e42c 7fbd
000001a0: 63b5 58bc 403d 513c fe6f 203e bb77 273e
000001b0: ea4b 0fbe 8266 7a3d 11f9 3a3d 03a2 c83d
000001c0: 6b19 43bd ba52 263d 68ab 263d dbd0 303e
000001d0: c6cb 51be 6843 a0bc 4dc3 d9bd bb20 cdbd
000001e0: 725e 35bc badf fc3d d630 9fbd f0ff 283e
000001f0: 02c1 f93d 5930 3bbd 4c55 193d 720c 3dbd
00000200: 1706 cf3d f8c4 14be 970d f0bd 5508 10be
00000210: add4 f4bd 695a 413e 6ea5 8f3c 9dcb cdbc
00000220: ff78 e5bd 6200 be3d d92f 17be 171f e1bd
00000230: a14c 41be fd97 2dbe acb1 da3d 0e32 c8bd
00000240: 56dd 15bb 4504 04bd 4096 b73c e52f e53d
00000250: 3bd2 c1bd e37f ef3d b750 66be 8873 cd3c
00000260: cdf4 083d 580f c5ba 40e0 f33d 938b 453e
00000270: 9db1 cb3c 8c25 d0bc 07f6 2f3e 7e64 a93d
00000280: cfcf 91ba c5e2 3fbd 0cd7 193d 3d62 443e
00000290: c6e7 523d b426 2abd 5f1b 31be c3f4 fcbd
000002a0: 9650 c93d 9bb0 14bd 3f19 43bd f2d7 923d
000002b0: c66c 29be a436 923c ef18 0abd ed04 e23d
000002c0: dc19 f53d 1855 273e 063b 383e 2aeb 4fbe
000002d0: 7a45 11bd 7eea dd3c d3ac 54be b6ec ad3c
000002e0: 6bac e0bd a8ab 563d 872d 0a3e b83e 4bbe
000002f0: ff65 e13d 68eb e83d ca7e c0bd 47cf 283e
00000300: 483f 32be 38ad 13be 34e2 e0bd 20a0 5cbc
00000310: 2d7c 1c3d b805 2bbd 8ebf 19be 2473 abbb
00000320: fde7 333e 8a6f 053e 52df 083e 6a1d 003c
00000330: 707d 233d fff1 11be d54d df3d ab9e 70be
00000340: 35a4 d5bd 7592 a6bc 8f4d cd3d aed2 0abc
00000350: 3d9b e9bc 70d7 843d 9acf 26be 7a1b 91bc
00000360: d381 7f3d 2d92 0b3d 144f d83c aa34 a03d
00000370: 1130 2fbe 14a8 b6bd f783 483e a1c6 833d
00000380: 65c2 bebb 9e1e c13d f00f d13d c0ad 3fbd
00000390: 8893 d6bd ce95 4abd f2f4 c73c 2bc7 a2bc
000003a0: 6a89 7a3d b1c2 fdbd d9cb a2bd de2c 133e
000003b0: 24dc 61bc 9f1f af3d eac4 be3d c0a3 9abd
000003c0: 3805 e4bd 1ff7 5c3d 2b71 7e3b 0c73 1fbd
000003d0: b359 713c 3ee3 a03d 45f7 25bc a93f a4bd
000003e0: 5998 4c3c 3060 0abe 3733 813d 84e5 f0bd
000003f0: e5ec 2d3e d1a7 d33d a080 04be 79ae 083e

func_approx.network.6.bias f4 [30]
-0.11252517 0.09406747 -0.09256384 0.037212465 0.049442418 0.11186518 0.032223828 -0.07544966
0.1253401 0.08972673 0.053897206 0.13346542 -0.101192154 0.07487397 0.07051774 -0.040248144
0.12254925 -0.21930917 -0.03141466 -0.057672117 -0.060032193 -0.058309108 -0.12834488 0.07095454
0.005393137 -0.18949682 0.049017906 -0.0818461 0.095352985 -0.19209982
00000000: 9973 e6bd 72a6 c03d 1c92 bdbd 196c 183d
00000010: 2284 4a3d 9219 e53d 22fd 033d 5a85 9abd
00000020: 2859 003e a6c2 b73d 51c3 5c3d 29ab 083e
00000030: d53d cfbd 8657 993d 9b6b 903d 3ddb 24bd
00000040: 1afb fa3d 9592 60be a9ac 00bd 9939 6cbd
00000050: 51e4 75bd 88d5 6ebd d76c 03be 9d50 913d
00000060: eab8 b03b 740b 42be 00c7 483d ee9e a7bd
00000070: 6d48 c33d d1b5 44be

func_approx.network.8.weight f4 [1, 30]
-0.05938857 -0.022868924 0.06869527 0.016244616 -0.036865264 0.2035683 -0.010605084 0.034312814
0.14476389 -0.13915083 0.0437048 0.10478924 -0.022445051 0.10881 0.015668549 0.09628627
0.025764344 -0.13381208 0.12661414 -0.02682014 0.14578916 -0.0076378267 0.050287288 0.11149804
-0.032927666 -0.062884904 -0.04691285 -0.12168318 0.0059606335 0.03559916
00000000: 6e41 73bd 9c57 bbbc 1bb0 8c3d 6e13 853c
00000010: 0800 17bd 3574 503e f2c0 2dbc 988b 0c3d
00000020: fc3c 143e 8e7d 0ebe ce03 333d be9b d63d
00000030: afde b7bc c7d7 de3d 545b 803c bc31 c53d
00000040: bf0f d33c 0906 09be 23a7 013e e9b5 dbbc
00000050: c149 153e bc46 fabb 0bfa 4d3d 1659 e43d
00000060: 29df 06bd cdc9 80bd b027 40bd 0835 f9bd
00000070: 6b51 c33b 6dd0 113d

exp_avg f4 [30, 2]
5.1228915e-05 0.00053708063 -0.00021964921 -0.0007482247 -0.00043586828 -0.0013786706 4.7457863e-05 2.6992799e-05
-0.0003920364 0.0003181571 -0.0014190054 -0.0019197948 -5.5133292e-05 -0.00012830205 -0.0008572811 -0.0023418993
0.0002869262 0.00039483074 -0.00049110205 -0.0011665742 0.0012112772 0.0004205585 -0.0001607256 -0.0008290927
0.00050162396 -0.00077546056 0.00064998766 0.001230909 -0.0015172492 -0.0015899389 1.3326877e-05 -0.00016758432
-0.00027477782 -0.0013490006 -4.1210158e-05 -7.060781e-05 -0.0013928192 -0.0019324024 0.00016161418 0.0002813739
-0.00019007527 -0.00050297915 0.0009896151 0.00041832624 -0.00014633701 -2.6394788e-05 0.00071830733 0.00094271154
-0.0008735662 -0.001576872 0.0001372928 0.0007225439 0.001085541 0.00095928926 0.00060853595 0.0010240811
0.0010829228 0.0018116968 -0.00014564884 -0.00060180295
00000000: a1de 5638 dfca 0c3a a351 66b9 8224 44ba
00000010: 4085 e4b9 82b4 b4ba 7e0d 4738 986e e237
00000020: 3c8a cdb9 53ce a639 ecfd b9ba a0a1 fbba
00000030: ec3e 67b8 d288 06b9 29bb 60ba 8d7a 19bb
00000040: 956e 9639 4901 cf39 4dbd 00ba bce7 98ba
00000050: b8c3 9e3a 687e dc39 7388 28b9 7857 59ba
00000060: 6a7f 033a 4748 4bba ef63 2a3a 7456 a13a
00000070: 6fde c6ba 7f65 d0ba 8096 5f37 93b9 2fb9
00000080: 0e10 90b9 f3d0 b0ba 12d9 2cb8 4813 94b8
00000090: 428f b6ba aa48 fdba fa76 2939 5e85 9339
000000a0: f14e 47b9 5cda 03ba f9b5 813a cc52 db39
000000b0: 0b72 19b9 606a ddb7 ca4c 3c3a 4d20 773a
000000c0: 0900 65ba 0baf ceba 41f6 0f39 1a69 3d3a
000000d0: b648 8e3a d078 7b3a 2886 1f3a 763a 863a
000000e0: dcf0 8d3a 7576 ed3a 50b9 18b9 50c2 1dba

exp_avg_sq f4 [30, 2]
2.908372e-05 2.1773951e-06 2.283595e-06 1.9542847e-06 3.3081793e-05 9.019414e-06 2.2450477e-05 2.9411967e-07
5.289234e-05 2.391223e-06 0.00016461674 1.8153105e-05 5.408169e-07 1.4905147e-07 8.9216075e-05 2.3194025e-05
3.6321746e-06 6.2281373e-07 1.9444711e-05 5.90253e-06 1.3356157e-05 1.0007266e-06 6.622022e-05 5.660789e-06
0.00013580559 5.492803e-06 4.3480313e-06 4.9461296e-06 2.455055e-05 8.353107e-06 3.883007e-05 1.6498448e-06
1.9141879e-05 7.382213e-06 1.4516672e-07 3.873293e-08 7.22041e-05 1.8178978e-05 3.9500395e-05 1.7701743e-06
1.3138051e-05 1.4877232e-06 2.683697e-05 1.4913716e-06 7.6156175e-06 3.8626888e-07 6.4431283e-06 2.8076488e-06
7.081813e-05 1.30673125e-05 5.1767174e-06 2.0738973e-06 2.2902615e-05 3.6971255e-06 1.994757e-05 5.3607155e-06
0.00012552545 1.7166101e-05 3.1274947e-06 1.4780093e-06
00000000: d0f8 f337 5d1f 1236 dd3f 1936 5b26 0336
00000010: 4ec1 0a38 1752 1737 0854 bc37 80e7 9d34
00000020: b8d8 5d38 e678 2036 f89c 2c39 7f47 9837
00000030: a82c 1135 f50a 2034 8419 bb38 ca90 c237
00000040: 49c0 7336 6f2f 2735 331d a337 590e c636
00000050: 4214 6037 b450 8635 b6df 8a38 cff1 bd36
00000060: 0967 0e39 d24e b836 4ee5 9136 eef6 a536
00000070: e8f1 cd37 5224 0c37 78dd 2238 3c70 dd35
00000080: df92 a037 bab4 f736 20df 1b34 4f5b 2633
00000090: 486c 9738 0f7f 9837 3aad 2538 ba96 ed35
000000a0: 806b 5c37 c8ad c735 f41f e137 232b c835
000000b0: a889 ff36 6460 cf34 0d32 d836 0a6b 3c36
000000c0: 3284 9438 ae3b 5b37 aab3 ad36 492d 0b36
000000d0: fe1e c037 221c 7836 1555 a737 32e0 b336
000000e0: 7b9f 0339 ecff 8f37 f3e1 5136 0360 c635

max_exp_avg_sq f4 [30, 2]
4.8423648e-05 2.788587e-06 2.4450608e-06 2.113934e-06 5.0073326e-05 9.591513e-06 2.6104868e-05 3.2589935e-07
8.824329e-05 3.749469e-06 0.00020711824 1.9534638e-05 7.718681e-07 2.1328128e-07 9.719228e-05 2.4562822e-05
4.1948215e-06 6.7382484e-07 2.789828e-05 6.903906e-06 1.8642979e-05 1.3870383e-06 0.000111425776 6.0028606e-06
0.00015893801 5.7604366e-06 4.6475557e-06 5.256661e-06 2.6080257e-05 8.7212375e-06 5.150632e-05 1.7180851e-06
2.3608842e-05 8.010908e-06 1.9903413e-07 6.0544835e-08 7.7866614e-05 1.9308285e-05 5.6246467e-05 1.8858616e-06
2.005964e-05 1.7075503e-06 3.6790363e-05 1.5811798e-06 1.0296564e-05 5.178294e-07 6.9503667e-06 2.9327766e-06
0.000110471396 1.38284795e-05 5.7191237e-06 2.260652e-06 2.759385e-05 3.9601778e-06 2.3160941e-05 5.6085014e-06
0.00013791307 1.8362534e-05 4.0692953e-06 1.8342595e-06
00000000: 7f1a 4b38 8f23 3b36 d315 2436 1cdd 0d36
00000010: d305 5238 3ceb 2037 c7fb da37 44f7 ae34
00000020: 410f b938 639f 7b36 e12d 5939 51de a337
00000030: 5f32 4f35 5002 6534 b5d3 cb38 420c ce37
00000040: 3ec1 8c36 e4e0 3435 1a07 ea37 1aa8 e736
00000050: 7e63 9c37 462a ba35 42ad e938 2e6c c936
00000060: 99a8 2639 c649 c136 33f2 9b36 6062 b036
00000070: edc6 da37 6e51 1237 7d08 5838 f498 e635
00000080: 9a0b c637 9666 0637 16b6 5534 e004 8233
00000090: 524c a338 3af8 a137 2fea 6b38 b61d fd35
000000a0: c045 a837 fb2e e535 5a4f 1a38 ed38 d435
000000b0: 68bf 2c37 f700 0b35 3237 e936 b8d0 4436
000000c0: e1ac e738 de00 6837 e6e6 bf36 b5b5 1736
000000d0: 5779 e737 abe1 8436 be49 c237 a930 bc36
000000e0: c29c 1039 3e09 9a37 fb8a 8836 ad30 f635

exp_avg f4 [30]
0.0003201029 -0.00053762196 -0.0011267138 0.00012566523 0.00018558654 -0.0015909176 -0.00013916797 -0.0016470443
0.00033667096 -0.00086801464 0.0006949143 -0.00067087734 -9.483898e-05 0.0012459618 -0.0013687823 2.255631e-05
-0.00095523894 -0.00010057627 -0.0014910075 0.0002961318 -0.00030082485 0.00065632444 -0.00013761235 0.0008332642
-0.0012573476 0.000456197 0.0009292058 0.0007605077 0.0014204478 -0.00045586957
00000000: 7cd3 a739 33ef 0cba 3eae 93ba 01c5 0339
00000010: 029a 4239 5686 d0ba 9eed 11b9 a3e1 d7ba
00000020: 3683 b039 7a8b 63ba e92a 363a d1dd 2fba
00000030: 4ae4 c6b8 8a4f a33a b668 b3ba 4f37 bd37
00000040: 0069 7aba 79ec d2b8 e96d c3ba 2342 9b39
00000050: 07b8 9db9 300d 2c3a 094c 10b9 6a6f 5a3a
00000060: 96cd a4ba ba2d ef39 f295 733a cf5c 473a
00000070: 522e ba3a c701 efb9

exp_avg_sq f4 [30]
8.176847e-06 4.076654e-06 1.9289662e-05 1.9702445e-06 9.437438e-06 4.8842467e-05 5.992175e-07 4.934814e-05
1.718217e-06 1.3412597e-05 3.569548e-06 1.6025053e-05 2.2668019e-05 7.7065e-06 1.5580596e-05 5.2535897e-06
1.6750988e-05 1.6184855e-07 3.721064e-05 8.413245e-06 4.5217816e-06 4.688735e-06 1.5187388e-06 4.8472443e-06
3.2191394e-05 5.407002e-06 8.677911e-06 1.0306854e-05 3.9299008e-05 3.506335e-06
00000000: 4a2f 0937 31ca 8836 3cd0 a137 8b38 0436
00000010: 7d55 1e37 33dc 4c38 ead9 2035 29fb 4e38
00000020: 7d9d e635 aa06 6137 5e8c 6f36 8a6d 8637
00000030: 3327 be37 2a4b 0137 13b3 8237 fe47 b036
00000040: 7984 8c37 97c8 2d34 9f12 1c38 9d26 0d37
00000050: cfb9 9736 ed53 9d36 78d7 cb35 83a5 a236
00000060: 3f05 0738 cb6d b536 5897 1137 9aeb 2c37
00000070: fdd4 2438 604e 6b36

max_exp_avg_sq f4 [30]
1.2965737e-05 4.3430873e-06 2.3640987e-05 2.4279773e-06 1.5720074e-05 5.6811394e-05 8.8575285e-07 5.3496387e-05
1.8937143e-06 1.7798633e-05 4.928541e-06 2.1182155e-05 2.4584528e-05 8.297359e-06 1.6590486e-05 6.279789e-06
1.8651659e-05 2.455809e-07 4.010058e-05 1.099874e-05 6.0743273e-06 5.8078294e-06 2.1112148e-06 5.202985e-06
4.3687935e-05 5.8562987e-06 9.888718e-06 1.0848059e-05 4.2667732e-05 4.3883583e-06
00000000: 6b87 5937 d6ba 9136 a250 c637 55f0 2236
00000010: 9ade 8337 c548 6e38 79c4 6d35 4f61 6038
00000020: 872b fe35 464e 9537 d85f a536 55b0 b137
00000030: df3a ce37 e334 0b37 cc2b 8b37 fab6 d236
00000040: 2276 9c37 62d8 8334 ab31 2838 3b87 3837
00000050: 13d2 cb36 e0e0 c236 65ae 0d36 4d95 ae36
00000060: 903d 3738 3981 c436 b8e7 2537 0f00 3637
00000070: 21f6 3238 b63f 9336

exp_avg f4 [30, 30]
-0.00035226837 -0.000101179496 -0.00024977975 -0.00043991016 -0.00032877908 -0.00021478996 -7.1945266e-05 -0.00032759368
-1.6723094e-05 -0.0003390766 -4.848321e-05 -0.00046486384 -0.00032258983 0.00053644343 -0.00052963366 -0.0005927399
-0.00016820003 7.913273e-05 -0.00084206386 2.6261081e-05 0.0002984011 0.000482081 -0.0003115814 0.00036195596
-0.0002823331 -7.1690716e-05 0.00037745014 0.00073333667 0.0005763679 -4.1485466e-05 0.0005534643 -0.0006969597
-0.0006007743 0.00052963453 0.00042209507 -0.00041162633 -0.0007756085 -0.00036739346 0.00073940004 -0.00037539066
0.00033617037 -0.00023308866 0.0001826115 0.0006123759 -0.00021923547 0.00020624313 -0.00062701805 -0.0008656124
-0.00022525984 0.00047283823 -0.00066449563 0.00034558386 -0.00047392616 0.0002885841 -0.00044664842 0.00074934773
0.0003163836 0.0002726832 9.950549e-05 -0.0007910064 0.00062393927 -0.00064751424 -0.0003693703 0.0006606712
0.00043788136 -0.00042198366 -0.00069504406 -0.0001420199 0.0007792595 -0.00023859694 0.00046518198 0.00024664158
0.00012476984 0.00025308854 -0.000120231285 0.0007711274 -0.000542554 -0.00084690744 0.00031212854 0.00035482683
-0.0007285662 -9.5826195e-05 -0.00036607528 0.00030070962 -0.00022379842 0.0008084928 0.0002586774 -0.00024651238
-0.00028292616 -0.0007404889 0.00057621155 -0.0003520528 -0.00012492147 0.00065130554 0.00047993616 -8.113972e-05
-0.0004294962 0.00010363219 0.00047477553 9.907801e-05 0.00022126044 0.00030860098 0.00035842997 -0.00010439674
0.00032249885 0.00071638596 -0.00023463831 -0.00060261035 0.0006308378 0.00019594596 -0.0006160737 -0.00021311655
-1.4085041e-05 -0.00014193266 1.2001928e-05 0.00053110975 -0.00011075549 -0.0005249333 -0.00043358977 -0.00045649597
0.0005513092 -0.00041603696 -0.00019138059 0.00059995917 0.00041644456 -0.00023779007 -0.0004786165 2.8749724e-05
0.0005809088 -1.1023608e-05 0.00030616054 0.0003244718 0.00019277007 1.8667204e-05 0.00011904692 0.0007813242
-0.00032026472 -0.0006594264 0.0005080862 0.00019725588 -0.0006282905 -0.00019799975 -0.00012588591 5.632498e-05
-4.5932073e-05 0.00059358095 5.9372265e-05 -0.00044828202 -0.00036623367 -0.00053534395 0.0008551901 -0.00044650765
-0.00015023023 0.000962396 0.0007142784 -0.00010287955 -0.0005727855 0.00020805048 0.0006884269 0.0002226713
0.0002785019 0.0005065837 0.00051439856 -0.00018268806 0.00053321023 0.0011489945 -0.00028763516 -0.00087302155
0.0010063925 0.00022479006 -0.00092378387 -0.00035630353 5.079172e-05 -0.0002607885 7.773139e-05 0.000734172
-0.00020111636 -0.0008643526 -0.0006785584 -0.00064415217 0.0008889819 -0.00033621982 -3.245902e-05 0.0010194818
0.0007501083 -4.266043e-05 -0.00048571624 0.0003702182 0.00067554653 0.00040902174 0.00023281234 0.0006859368
0.00055995665 -0.0004003436 0.00071291556 0.0013787468 -0.00017122341 -0.0008673936 0.0012945752 0.000108930944
-0.00096521166 -0.00051096576 0.00020853174 -0.00040462374 0.00023202338 0.00068533863 -0.0003107084 -0.0011617152
-0.0008347913 -0.0005976849 0.00040659992 -0.00047004933 -0.0003096125 0.00041424047 0.00027084272 -0.00035445197
-0.00050518115 -0.00015240045 0.00057326205 -0.00021433155 0.00033842507 0.000115407835 2.7261154e-05 0.00026873566
-0.00017171314 0.0004920649 -0.00041226725 -0.0006076604 9.953892e-05 0.00024733975 -0.0004968829 3.0222895e-06
-0.0002955151 0.00027734565 -0.00020008047 0.0005693074 0.0002564845 -8.4596846e-05 -0.00010806069 -0.0005466869
-4.53205e-05 -0.0002595454 -0.00028129676 -0.000106895044 -8.017886e-05 -0.00022416344 -0.0002476916 -0.00029147632
0.00017765087 -0.00032958415 7.868185e-05 -0.00029918586 -0.00017189884 0.00043384588 -0.00037981707 -0.0003115342
00000000: a9b0 b8b9 5430 d4b8 dff4 82b9 bea3 e6b9
00000010: fb5f acb9 3e39 61b9 52e1 96b8 e1c0 abb9
00000020: 9248 8cb7 17c6 b1b9 735a 4bb8 f8b8 f3b9
00000030: 4621 a9b9 1ca0 0c3a 1dd7 0aba 1a62 1bba
00000040: da5e 30b9 10f4 a538 f3bd 5cba 3e4b dc37
00000050: b872 9c39 d1bf fc39 bf5b a3b9 e8c4 bd39
00000060: 1b06 94b9 a958 96b8 80e4 c539 643d 403a
00000070: 6517 173a ae00 2eb8 5c16 113a 2cb4 36ba
00000080: 487d 1dba 2cd7 0a3a a44c dd39 8dcf d7b9
00000090: 3552 4bba b79e c0b9 4cd4 413a 15d0 c4b9
000000a0: 0640 b039 4369 74b9 677b 3f39 da87 203a
000000b0: 93e2 65b9 f842 5839 785e 24ba 44ea 62ba
000000c0: ba33 6cb9 46e7 f739 8c31 2eba 7b2f b539
000000d0: 4b79 f8b9 1a4d 9739 232c eab9 e06f 443a
000000e0: 4ae0 a539 ebf6 8e39 9aad d038 8a5b 4fba
000000f0: db8f 233a f2bd 29ba 0ba8 c1b9 e530 2d3a
00000100: 7193 e539 b03d ddb9 9e33 36ba 2deb 14b9
00000110: 3847 4c3a e12f 7ab9 abe3 f339 ac4f 8139
00000120: a6d4 0239 f8b0 8439 ae24 fcb8 7c25 4a3a
00000130: 2f3a 0eba ff02 5eba 2fa5 a339 0d08 ba39
00000140: 40fd 3eba 4cf6 c8b8 cbed bfb9 90a8 9d39
00000150: 6eab 6ab9 09f1 533a 189f 8739 553e 81b9
00000160: b555 94b9 5e1d 42ba e70c 173a ba93 b8b9
00000170: 5afd 02b9 60bc 2a3a f19f fb39 8e29 aab8
00000180: 012e e1b9 1c55 d938 4beb f839 1ac8 cf38
00000190: 2602 6839 b9cb a139 a8eb bb39 93ef dab8
000001a0: 1015 a939 d9cb 3b3a 3e09 76b9 7ff8 1dba
000001b0: cf5e 253a d876 4d39 0280 21ba 0a78 5fb9
000001c0: ca4e 6cb7 c2d3 14b9 e35b 4937 2c3a 0b3a
000001d0: 6745 e8b8 ad9b 09ba 6f53 e3b9 da55 efb9
000001e0: bc85 103a 891f dab9 56ad 48b9 9446 1d3a
000001f0: 3e56 da39 4957 79b9 d2ee fab9 902b f137
00000200: 2148 183a 09f2 38b7 2c84 a039 de1d aa39
00000210: 5222 4a39 8497 9c37 d4a8 f938 c8d1 4c3a
00000220: 34e9 a7b9 5bdd 2cba 1631 053a 79d6 4e39
00000230: ddb3 24ba 279e 4fb9 3e00 04b9 7d3e 6c38
00000240: 30a7 40b8 8b9a 1b3a 7c06 7938 6507 ebb9
00000250: 0d03 c0b9 5356 0cba d62e 603a 3e19 eab9
00000260: 1f87 1db9 4d49 7c3a 693e 3b3a 0ac1 d7b8
00000270: fc26 16ba 2028 5a39 8c77 343a df7c 6939
00000280: e403 9239 42cc 043a b4d8 063a f48f 3fb9
00000290: 22c7 0b3a dc99 963a bdcd 96b9 7cdb 64ba
000002a0: eee8 833a 9fb5 6b39 162a 72ba 40ce bab9
000002b0: 3209 5538 71ba 88b9 b903 a338 7375 403a
000002c0: c3e2 52b9 b995 62ba 49e1 31ba 52dc 28ba
000002d0: 910a 693a a946 b0b9 9b24 08b8 22a0 853a
000002e0: eaa2 443a 4aee 32b8 bba7 feb9 d819 c239
000002f0: 2917 313a f871 d639 161f 7439 70d0 333a
00000300: 0eca 123a 35e5 d1b9 f4e2 3a3a 11b7 b43a
00000310: 6f8a 33b9 cd61 63ba bcae a93a db71 e438
00000320: 4206 7dba 55f2 05ba 50a9 5a39 ae23 d4b9
00000330: 4d4b 7339 4ca8 333a 93e6 a2b9 b244 98ba
00000340: e5d5 5aba f4ad 1cba eb2c d539 f470 f6b9
00000350: 7c53 a2b9 6a2e d939 e5ff 8d39 bdd5 b9b9
00000360: 226e 04ba afcd 1fb9 f746 163a 30be 60b9
00000370: a56e b139 1c07 f238 e2ae e437 17e5 8c39
00000380: e50d 34b9 ebfd 003a 9325 d8b9 664b 1fba
00000390: 8dbf d038 61ad 8139 3f41 02ba 8ad2 4a36
000003a0: 5eef 9ab9 b468 9139 b1cc 51b9 933d 153a
000003b0: c478 8639 9669 b1b8 a49e e2b8 894f 0fba
000003c0: 8416 3eb8 9813 88b9 037b 93b9 d72c e0b8
000003d0: b325 a8b8 6a0d 6bb9 9bdc 81b9 4ad1 98b9
000003e0: cb47 3a39 09cc acb9 ff01 a538 0cdc 9cb9
000003f0: be3f 34b9 cf75 e339 2f22 c7b9 6a55 a3b9

exp_avg_sq f4 [30, 30]
2.6346192e-05 6.695167e-05 6.072561e-05 2.0661291e-05 1.3654306e-05 3.3756696e-05 8.3664556e-05 2.6057332e-05
7.647742e-05 2.5712532e-05 1.2841122e-05 1.553335e-05 1.1226164e-06 8.2822975e-05 1.9280833e-05 3.180016e-06
5.8844085e-05 9.8989694e-05 2.893845e-05 2.3468436e-05 4.6494013e-05 3.2211363e-05 3.7841215e-05 2.0403864e-05
3.3853274e-05 6.925824e-05 2.7303142e-05 2.7081627e-05 1.11216605e-05 8.910387e-05 1.4892343e-06 2.4998708e-06
2.1011517e-06 1.2873195e-06 8.824291e-07 9.927339e-07 3.2147345e-06 7.639885e-07 2.9550738e-06 7.302289e-07
5.1404874e-07 3.9276551e-07 1.5212856e-07 2.511188e-06 3.2387837e-07 3.5823558e-07 2.0783555e-06 4.064856e-06
4.8182716e-07 9.898729e-07 2.3129535e-06 8.8457676e-07 1.1213192e-06 4.5759595e-07 1.0841327e-06 2.8159152e-06
6.337393e-07 5.3355495e-07 1.7294074e-07 3.432159e-06 1.7472788e-05 4.122095e-05 3.9992552e-05 1.3818498e-05
9.912935e-06 1.8470708e-05 5.252333e-05 1.7405662e-05 4.5241843e-05 1.578953e-05 6.98675e-06 1.3814701e-05
1.4342761e-06 5.463486e-05 1.0063617e-05 2.1865646e-06 3.623459e-05 6.145074e-05 2.1229893e-05 1.6144359e-05
2.9595438e-05 2.4504721e-05 2.2585971e-05 1.0216518e-05 2.2724831e-05 4.167796e-05 1.4859013e-05 2.0828738e-05
8.430193e-06 5.487648e-05 1.0494358e-05 1.9553057e-05 1.8363717e-05 8.817953e-06 6.3011294e-06 9.183666e-06
2.6760206e-05 5.8615133e-06 2.5324578e-05 4.8204824e-06 2.7419119e-06 3.748922e-06 1.1861418e-06 2.493887e-05
3.362372e-06 4.143973e-06 1.654733e-05 3.484081e-05 6.1029987e-06 5.274841e-06 1.830681e-05 9.34384e-06
8.320114e-06 3.6216163e-06 8.247622e-06 2.1681506e-05 6.330558e-06 5.2308797e-06 2.660685e-06 2.9616647e-05
1.3195849e-05 2.7139422e-05 2.6492231e-05 1.071932e-05 7.816226e-06 1.14066015e-05 3.5036202e-05 1.11978225e-05
3.0275596e-05 9.752624e-06 4.661061e-06 9.095013e-06 1.3460212e-06 3.511425e-05 5.4314073e-06 2.0039672e-06
2.3614195e-05 4.2012733e-05 1.2907526e-05 1.0973402e-05 2.1520485e-05 1.608566e-05 1.3808764e-05 5.629324e-06
1.482313e-05 2.8075892e-05 8.744624e-06 1.291417e-05 5.1336942e-06 3.6771562e-05 2.5120145e-05 4.7698257e-05
4.462823e-05 2.0981312e-05 1.4941291e-05 2.1453765e-05 6.371351e-05 1.5767711e-05 5.866439e-05 1.342039e-05
7.368844e-06 1.0577737e-05 2.7498133e-06 5.950674e-05 8.4710455e-06 7.3759215e-06 4.0590035e-05 8.076541e-05
1.633859e-05 1.517705e-05 4.2490552e-05 2.3300592e-05 2.1574766e-05 9.205711e-06 2.1785227e-05 5.1956402e-05
1.518707e-05 1.5106796e-05 6.6967573e-06 6.912226e-05 2.6153259e-05 4.6615874e-05 4.5095898e-05 2.1983084e-05
1.5949387e-05 2.0561969e-05 6.343492e-05 1.5603799e-05 5.8670284e-05 1.260668e-05 6.751578e-06 1.16477595e-05
3.2419364e-06 5.9737653e-05 7.6677525e-06 8.594846e-06 3.9682258e-05 8.205629e-05 1.714026e-05 1.4950694e-05
4.397131e-05 2.4577912e-05 2.0325442e-05 8.051351e-06 2.1630329e-05 5.1284493e-05 1.4231977e-05 1.5867794e-05
7.2033667e-06 6.940998e-05 1.2770154e-05 3.3294695e-05 3.1616557e-05 9.975215e-06 6.8773534e-06 1.5712892e-05
4.1694035e-05 1.4186128e-05 3.6145302e-05 1.3557627e-05 6.0229736e-06 1.0373158e-05 7.8707285e-07 4.3788e-05
9.367688e-06 1.0453477e-06 2.9470863e-05 4.7927457e-05 1.7303746e-05 1.2874811e-05 2.217153e-05 1.8843017e-05
1.9284158e-05 9.53577e-06 1.8340334e-05 3.3295917e-05 1.3038269e-05 1.69198e-05 6.659181e-06 4.3469336e-05
9.1539505e-06 2.2465398e-05 2.0843981e-05 7.087862e-06 4.870388e-06 1.1577999e-05 2.8566277e-05 8.517294e-06
2.6615147e-05 8.047889e-06 4.0441164e-06 5.104836e-06 4.574493e-07 2.8653201e-05 6.146547e-06 1.6454925e-06
00000000: 0402 dd37 6768 8c38 a1b3 7e38 c951 ad37
00000010: cc14 6537 fa95 0d38 1175 af38 b295 da37
00000020: 8162 a038 3eb1 d737 3370 5737 9d4d 8237
00000030: ceac 9635 3fb1 ad38 46bd a137 4268 5536
00000040: 5bcf 7638 b098 cf38 d9c0 f237 15de c437
00000050: 9102 4338 b01a 0738 b2b7 1e38 f728 ab37
00000060: adfd 0d38 bc3e 9138 0d09 e537 5a2d e337
00000070: 2b97 3a37 47dd ba38 b3e1 c735 74c3 2736
00000080: 8301 0d36 f6c7 ac35 11e0 6c35 143e 8535
00000090: b8bc 5736 e414 4d35 c84f 4636 f304 4435
000000a0: 29fd 0935 48dd d234 c858 2334 e285 2836
000000b0: 81e1 ad34 8653 c034 e079 0b36 d964 8836
000000c0: e956 0135 c6db 8435 3d38 1b36 a773 6d35
000000d0: 3c80 9635 82ab f534 8482 9135 0ef9 3c36
000000e0: 3c1e 2a35 9e39 0f35 97b1 3934 0b54 6636
000000f0: 8792 9237 a8e4 2c38 adbd 2738 ffd5 6737
00000100: bb4f 2637 8bf1 9a37 7f4c 5c38 6002 9237
00000110: 0fc2 3d38 c273 8437 ba6f ea36 b0c5 6737
00000120: 5a81 c035 bc27 6538 e8d6 2837 e5bc 1236
00000130: 98fa 1738 1ddf 8038 d916 b237 bf6d 8737
00000140: b843 f837 7d8f cd37 0177 bd37 9c67 2b37
00000150: 34a1 be37 5ecf 2e38 fa4a 7937 60b9 ae37
00000160: 676f 0d37 2c2b 6638 ed10 3037 df05 a437
00000170: c80b 9a37 d2f0 1337 4a6e d336 8c13 1a37
00000180: 1b7b e037 04ae c436 1e70 d437 a1bf a136
00000190: b001 3836 fd95 7b36 8633 9f35 d133 d137
000001a0: 1ca5 6136 750c 8b36 1fcf 8a37 0922 1238
000001b0: 5cc8 cc36 8afe b036 9391 9937 7dc3 1c37
000001c0: 9e96 0b37 e50a 7336 445f 0a37 aee0 b537
000001d0: 146b d436 ea84 af36 388e 3236 4471 f837
000001e0: bd63 5d37 77a9 e337 a23b de37 21d7 3337
000001f0: 6f22 0337 fb5e 3f37 d6f3 1238 48de 3b37
00000200: 59f8 fd37 339f 2337 3666 9c36 c996 1837
00000210: f0a8 b435 a447 1338 6f3f b636 e57b 0636
00000220: 1917 c637 d436 3038 678d 5837 671a 3837
00000230: e486 b437 b1ef 8637 31ac 6737 86e3 bc36
00000240: dcb0 7837 8584 eb37 e0b5 1237 f0a9 5837
00000250: 1942 ac36 2a3b 1a38 1ab9 d237 9d0f 4838
00000260: 322f 3b38 0601 b037 5bac 7a37 9cf7 b337
00000270: ee9d 8538 e744 8437 690e 7638 2328 6137
00000280: e341 f736 0977 3137 6f89 3836 e096 7938
00000290: dd1e 0e37 af7e f736 383f 2a38 9960 a938
000002a0: db0e 8937 efa0 7e37 e237 3238 a475 c337
000002b0: 75fb b437 3a72 1a37 6bbf b637 c3eb 5938
000002c0: f8cb 7e37 3273 7d37 b5b4 e036 bbf5 9038
000002d0: b263 db37 6a85 4338 5a25 3d38 5068 b837
000002e0: 0ccb 8537 7e7c ac37 5d08 8538 e7e4 8237
000002f0: bd14 7638 4781 5337 9d8b e236 bf6a 4337
00000300: 0b90 5936 d18e 7a38 bfa4 0037 9532 1037
00000310: 8070 2638 a315 ac38 6ec8 8f37 bed4 7a37
00000320: d66d 3838 aa2c ce37 8e80 aa37 4a14 0737
00000330: c772 b537 4e1a 5738 e0c5 6e37 d41b 8537
00000340: 73b4 f136 3390 9138 653f 5637 e8a5 0b38
00000350: 059c 0438 395b 2737 04c4 e636 2ecf 8337
00000360: a1e0 2e38 f500 6e37 b99a 1738 9175 6337
00000370: f318 ca36 6008 2e37 3c47 5335 02a9 3738
00000380: ea29 1d37 e04d 8c35 3238 f737 b705 4938
00000390: 8327 9137 e400 5837 00fd b937 1211 9e37
000003a0: 6ac4 a137 d2fb 1f37 91d9 9937 38a7 0b38
000003b0: f0be 5a37 feee 8d37 ee71 df36 d852 3638
000003c0: eb93 1937 1374 bc37 1cda ae37 45d4 ed36
000003d0: 506c a336 213f 4237 9da1 ef37 80e5 0e37
000003e0: 9843 df37 6c05 0737 b2b2 8736 354a ab36
000003f0: 5a97 f534 485c f037 703e ce36 b1da dc35
