paper/Cable_equation/runs/test_4/model.pt (torch, 15625 bytes, 9 tensors)

func_approx.network.0.weight f4 [30, 2]
0.031131422 0.52680486 -0.8412998 -0.39814368 -0.3946637 0.09847195 -0.11226262 1.1774012
-0.019429756 0.35411283 -0.18196194 0.021662438 -1.1326773 -0.91726416 -0.3986761 0.16864958
0.3040078 0.3464484 -0.42592004 -0.18490064 0.06344743 0.42161945 -0.24953583 0.39481676
-0.134856 0.17283463 0.85919297 -0.7084934 -0.3955286 0.09465269 -0.01597071 1.4603082
-0.5476966 -0.29963216 -1.585165 -3.0897212 -0.51372063 0.76932716 0.4148269 0.468793
-0.0317699 -0.27627873 0.06178098 -0.7406413 -0.16173875 -0.41532245 0.18902178 0.2804374
-0.45948008 -0.0073506013 0.5843035 0.60488635 0.24698478 -0.04094111 0.80307883 -0.52465177
0.10719217 -0.73956376 -0.5879515 -0.29268807
00000000: 5307 ff3c afdc 063f 6c5f 57bf 7dd9 cbbe
00000010: 5c11 cabe a9ab c93d f2e9 e5bd 15b5 963f
00000020: 272b 9fbc 474e b53e 3b54 3abe 6d75 b13c
00000030: 92fb 90bf d3d1 6abf 461f ccbe 7ab2 2c3e
00000040: e9a6 9b3e af61 b13e 3112 dabe 9856 3dbe
00000050: baf0 813d 81de d73e 5286 7fbe 6c25 ca3e
00000060: b117 0abe 90fb 303e 12f4 5b3f d35f 35bf
00000070: ba82 cabe 45d9 c13d 02d5 82bc 61eb ba3f
00000080: d835 0cbf 6369 99be b0e6 cabf febd 45c0
00000090: 3283 03bf a0f2 443f 3164 d43e a305 f03e
000000a0: 2821 02bd 6874 8dbe 0e0e 7d3d ab9a 3dbf
000000b0: d89e 25be 25a5 d4be ed8e 413e 7e95 8f3e
000000c0: f940 ebbe 50dd f0bb ea94 153f d5d9 1a3f
000000d0: 94e9 7c3e deb1 27bd 9396 4d3f 944f 06bf
000000e0: 9287 db3d 0d54 3dbf fd83 16bf 36db 95be

func_approx.network.0.bias f4 [30]
0.32278585 0.21358684 -0.41118547 0.073933795 0.3902258 0.00018456423 0.17002791 0.14522585
0.3357378 0.6552629 -0.71611184 -0.2668554 0.24110082 0.34408128 0.6600497 0.57155275
0.1190612 -0.040160034 0.06835993 -0.35447738 -0.6805036 0.64957976 0.57011014 -0.8982879
0.10228714 -0.0901102 -0.19500896 -0.17463917 0.19671483 -0.32201335
00000000: 3044 a53e 82b6 5a3e e786 d2be 9a6a 973d
00000010: adcb c73e 9587 4139 cc1b 2e3e 16b6 143e
00000020: d3e5 ab3e 4fbf 273f 1b53 37bf 45a1 88be
00000030: 22e3 763e 6c2b b03e 04f9 283f 4851 123f
00000040: 5cd6 f33d d97e 24bd 4a00 8c3d 0f7e b5be
00000050: 7c35 2ebf dc4a 263f bdf2 113f 32f6 65bf
00000060: ec7b d13d b28b b8bd 6eb0 47be 9cd4 32be
00000070: 9d6f 493e efde a4be

func_approx.network.2.weight f4 [30, 30]
0.035908297 0.16518033 0.18092823 0.035551954 -0.20088029 -0.06254727 0.1604372 0.105105124
-0.19332175 -0.02296181 0.1010381 0.18042307 -0.019195348 -0.09643498 -0.08836443 0.051070143
-0.07019908 -0.058538057 0.07276824 -0.05181822 -0.04447324 0.06508589 -0.025594603 0.08206015
0.1918109 -0.21842071 -0.11239782 -0.0867079 -0.031517513 0.09990293 0.028166892 0.00781377
-0.062205445 0.03358126 -0.20836349 -0.09022061 -0.023485633 -0.09590634 -0.08744199 -0.2046307
-0.025614008 0.0770265 -0.18412465 -0.03634909 0.08384722 -0.22339474 -0.0010723976 -0.028772239
0.043291062 0.13794142 0.2165558 0.027036304 0.12783255 0.08348902 -0.16927162 -0.100345954
0.12467715 0.072652 -0.18117116 -0.12540875 -0.26218614 -0.06830773 -0.003727188 -0.04812278
0.025133438 -0.11358987 0.20113839 -0.10042851 -0.10331304 -0.002343065 -0.2157372 -0.054480527
-0.21470302 -0.18044537 0.057860743 -0.4414353 -0.018993558 0.14097387 -0.18065365 -0.08598893
0.22497484 -0.07083711 0.24450104 -0.058258217 -0.12050409 0.023629233 -0.08422919 -0.07522632
0.21050058 -0.08986413 0.028785707 -0.039057348 0.07315229 0.028912237 0.10474278 0.012941052
-0.03425799 -0.11859542 -0.12079892 0.04666957 0.15306103 -0.0066982363 -0.19043845 0.09071195
-0.22232409 -0.15528259 -0.13602939 0.048687913 -0.25199842 0.025272273 -0.01584471 0.18584812
-0.17603302 -0.053210977 -0.16494559 0.12645711 0.0015505556 0.3016118 0.1495473 -0.007592218
-0.05296597 0.013275816 0.044375494 -0.120371625 -0.042663902 0.06438959 -0.09908928 -0.07692143
0.10593185 -0.11327842 -0.09900813 0.16024727 0.039209474 -0.009426915 -0.124395676 -0.1026049
-0.090687364 -0.01828071 -0.0851111 -0.06508627 0.04512825 0.14649427 0.055092365 0.10772538
0.13514306 -0.17104657 0.04613303 -0.10844603 -0.059385203 0.088791735 0.053751316 0.097416505
-0.11422541 -0.0301848 0.08726731 -0.22776356 0.09892413 -0.24395478 0.02810954 -0.112962894
-0.07012892 -0.09486528 0.058688767 0.025007807 -0.22878169 -0.18160363 -0.23101673 0.048317883
-0.24574853 -0.07067315 -0.10829883 0.1617372 0.041001 0.22846769 -0.011102588 -0.03864973
0.027717719 0.23316193 0.25269935 0.013747758 -0.115902945 -0.13973129 -0.2198118 -0.02067242
-0.14428031 -0.21634032 0.12025111 -0.22670053 -0.0022806523 -0.057921395 0.05509458 -0.2402797
-0.2682575 0.22478656 -0.14235955 -0.053398553 -0.11941198 0.004197286 -0.25393933 0.060701407
-0.09510855 0.13659582 -0.028278368 0.118822895 -0.12287886 -0.08319702 0.21306257 0.06915845
0.232718 -0.098451935 -0.17543599 0.11624138 -0.025821224 -0.05414765 -0.052166466 -0.065921694
0.121912554 0.13402799 -0.0064440137 0.01863617 -0.2248027 0.010607366 -0.01820798 -0.13742453
0.10923748 -0.17438227 -0.023734834 0.093849756 0.11763734 -0.03606827 0.10061724 -0.030623257
-0.09310367 -0.03821013 0.1863686 0.07974935 0.047608607 -0.022998806 0.05363938 -0.00774415
-0.18906902 -0.11125744 0.21332683 0.10887576 -0.16957203 0.11198768 0.15203637 0.21092059
0.11683135 0.15817828 -0.08836488 -0.051042642 0.14938901 0.082605705 -0.07626756 0.18828459
00000000: 9414 133d 0825 293e 4045 393e ed9e 113d
00000010: 90b3 4dbe c818 80bd a649 243e 5b41 d73d
00000020: 23f6 45be 681a bcbc 10ed ce3d d3c0 383e
00000030: 903f 9dbc b47f c5bd 69f8 b4bd ed2e 513d
00000040: 89c4 8fbd 9ac5 6fbd 8407 953d 583f 54bd
00000050: 9229 36bd c04b 853d c6ab d1bc 270f a83d
00000060: 146a 443e aea9 5fbe d430 e6bd e993 b1bd
00000070: 8218 01bd e899 cc3d 41be e63c 5405 003c
00000080: 23cb 7ebd 818c 093d 3d5d 55be 95c5 b8bd
00000090: f164 c0bc 8b6a c4bd c914 b3bd b68a 51be
000000a0: 78d4 d1bc 12c0 9d3d 2c8b 3cbe c9e2 14bd
000000b0: 17b8 ab3d 97c1 64be b18f 8cba c2b3 ebbc
000000c0: f851 313d 8440 0d3e cec0 5d3e 3d7b dd3c
000000d0: 89e6 023e 4bfc aa3d 8a55 2dbe 2e82 cdbd
000000e0: bc56 ff3d 92ca 943d ef84 39be 276b 00be
000000f0: 433d 86be ece4 8bbd d743 74bb 641c 45bd
00000100: a4e4 cd3c cea1 e8bd 39f7 4d3e 76ad cdbd
00000110: ca95 d3bd 1c8e 19bb 36ea 5cbe f926 5fbd
00000120: 1cdb 5bbe acc6 38be 63ff 6c3d cf03 e2be
00000130: 6198 9bbc 745b 103e 45fd 38be f71a b0bd
00000140: ce5f 663e 0c13 91bd 7b5e 7a3e 2ba0 6ebd
00000150: d9ca f6bd 1892 c13c 5b80 acbd 4210 9abd
00000160: 778d 573e af0a b8bd 01d0 eb3c 99fa 1fbd
00000170: ded0 953d 5bd9 ec3c 6283 d63d b506 543c
00000180: 1b52 0cbd 28e2 f2bd 6d65 f7bd 9728 3f3d
00000190: 08bc 1c3e e17c dbbb 4c02 43be 30c7 b93d
000001a0: eda8 63be 6602 1fbe 4a4b 0bbe fa6c 473d
000001b0: f005 81be cc07 cf3c c4cc 81bc f84e 3e3e
000001c0: 0042 34be c1f3 59bd 7fe7 28be f97d 013e
000001d0: 033c cb3a dd6c 9a3e ed22 193e 24c8 f8bb
000001e0: d8f2 58bd cf82 593c 14c3 353d 6685 f6bd
000001f0: 58c0 2ebd b0de 833d 52ef cabd fc88 9dbd
00000200: ccf2 d83d 84fe e7bd c6c4 cabd dc17 243e
00000210: 1d9a 203d 5973 1abc 29c3 febd 8522 d2bd
00000220: 4cba b9bd 6dc1 95bc ba4e aebd f34b 85bd
00000230: 66d8 383d 9802 163e 88a8 613d 209f dc3d
00000240: f162 0a3e d526 2fbe fdf5 3c3d f418 debd
00000250: e63d 73bd 71d8 b53d 572a 5c3d 4e82 c73d
00000260: 03ef e9bd 1d46 f7bc 34b9 b23d da3a 69be
00000270: bc98 ca3d 48cf 79be fa45 e63c 1759 e7bd
00000280: c09f 8fbd ba48 c2bd a263 703d 2cdd cc3c
00000290: bf45 6abe 4df6 39be a68f 6cbe f9e8 453d
000002a0: 81a5 7bbe 16bd 90bd c7cb ddbd 709e 253e
000002b0: aaf0 273d 6ff3 693e a1e7 35bc 2e4f 1ebd
000002c0: 4510 e33c 00c2 6e3e cf61 813e 473e 613c
000002d0: 865e edbd b815 0fbe 5816 61be 3559 a9bc
000002e0: 38be 13be 5188 5dbe 3746 f63d 2f24 68be
000002f0: ff76 15bb fc3e 6dbd dbaa 613d e20b 76be
00000300: 0c59 89be 732e 663e b4c6 11be 71b8 5abd
00000310: 458e f4bd 6389 893b 5604 82be 0aa2 783d
00000320: 45c8 c2bd c6df 0b3e 09a8 e7bc 6b59 f33d
00000330: e9a7 fbbd 3363 aabd 132d 5a3e f2a2 8d3d
00000340: a14d 6e3e 2ba1 c9bd 7ea5 33be f60f ee3d
00000350: 0887 d3bc edc9 5dbd 81ac 55bd f401 87bd
00000360: 4aad f93d a23e 093e 4e28 d3bb e2aa 983c
00000370: ae32 66be 85ca 2d3c e728 95bc 04b9 0cbe
00000380: e6b7 df3d 4491 32be 8e6f c2bc 4d34 c03d
00000390: d9eb f03d 53bc 13bd 6910 ce3d a0dd fabc
000003a0: 23ad bebd 3a82 1cbd 69d7 3e3e a153 a33d
000003b0: 3e01 433d fe67 bcbc f7b4 5b3d a3c2 fdbb
000003c0: 4f9b 41be f1da e3bd 5972 5a3e 41fa de3d
000003d0: 4aa4 2dbe cc59 e53d 6caf 1b3e 91fb 573e
000003e0: 4645 ef3d 7df9 213e a5f8 b4bd 1712 51bd
000003f0: 6ff9 183e 2e2d a93d 2b32 9cbd adcd 403e

func_approx.network.2.bias f4 [30]
-0.022699496 0.104961835 -0.008752868 -0.016842287 0.09439095 0.03145807 0.0401632 -0.13713981
-0.041046254 0.014526256 0.075113595 -0.1628452 0.06279148 -0.08356181 0.008461234 0.109321676
-0.0476747 -0.1548801 -0.010658702 -0.10371004 0.029033674 -0.04707566 0.037303425 -0.100879736
0.025802068 0.034547996 0.2123114 0.025366722 -0.009838473 -0.047768466
00000000: 4bf4 b9bc 3bf6 d63d 3068 0fbc d6f8 89bc
00000010: 0b50 c13d 2dda 003d 2b82 243d 616e 0cbe
00000020: 1e20 28bd 89ff 6d3c 28d5 993d e4c0 26be
00000030: d298 803d 7422 abbd fda0 0a3c 0be4 df3d
00000040: 8c46 43bd e498 1ebe d6a1 2ebc ee65 d4bd
00000050: 07d8 ed3c 68d2 40bd 7acb 183d 099a cebd
00000060: dc5e d33c 3382 0d3d 2968 593e dfcd cf3c
00000070: 8c31 21bc dea8 43bd

func_approx.network.4.weight f4 [30, 30]
0.121723846 -0.14769061 -0.15628693 0.0010066567 -0.043198887 -0.24279107 -0.1834472 0.068643324
-0.009436591 0.14273955 0.1964579 -0.025687017 0.030703016 -0.02473827 -0.006333306 -0.005802144
-0.21361092 0.037215553 -0.1675433 0.20937267 -0.0966084 0.17413878 0.009038584 -0.15803197
0.09750792 0.13206154 0.04864379 0.17192098 -0.26229647 0.20801556 -0.005968452 -0.040189363
0.19947639 0.18020865 -0.1212572 0.033468865 0.20696434 0.119992614 0.13757135 -0.085249715
-0.18797018 0.1975866 0.018865835 0.10641756 -0.12017457 -0.031259954 0.00084601855 -0.21640971
-0.013589702 0.074357025 0.040096853 0.020171404 0.06774146 -0.122987345 0.13901691 -0.23106831
-0.120656535 -0.14720578 0.20269312 -0.037864354 0.03811089 -0.19892232 -0.0076298374 -0.087923825
-0.006147319 0.0710806 0.0056900424 -0.08947749 0.04416952 -0.048196953 0.02564562 0.04412741
0.003940364 0.17143343 0.00049205153 -0.12739971 0.025539808 -0.09632571 0.10511799 0.053338572
0.013230081 -0.11559916 0.23688562 0.096388236 -0.082708895 0.15409882 -0.22443546 -0.25689858
-0.025227709 0.08699961 -0.08414709 -0.13642116 -0.03197783 0.1188945 -0.13800932 -0.12391569
0.0908087 -0.10895453 -0.20140095 -0.1155419 -0.106552675 -0.11654974 -0.16287062 -0.018376626
-0.17741555 0.05305917 -0.10296222 -0.18881617 0.04722309 -0.21895331 -0.16288216 0.12517114
-0.021698892 0.18876147 -0.064064555 -0.16531023 0.056166027 -0.05660216 0.21737294 -0.26997665
-0.03120574 0.03117466 -0.1375298 -0.121800676 0.14996229 -0.20185761 0.03400027 -0.14342256
0.094435245 -0.29008242 0.04673402 -0.17563255 -0.15326585 0.027323974 0.15195794 -0.15830845
-0.1380693 0.17062119 0.033679377 0.08273289 -0.19867481 -0.041445587 -0.091377534 0.15982588
0.07392365 -0.13846195 0.024672665 0.06338917 -0.066867776 -0.12061656 -0.05301063 0.17250046
-0.09983563 -0.049513794 -0.03625176 0.06331405 0.12117627 0.011497069 -0.101429015 -0.10429027
-0.116871186 -0.018517192 0.11032378 -0.19223507 -0.107529454 -0.117743194 0.019008072 0.06504723
0.16450478 -0.24612407 -0.024003075 0.09697564 0.02223711 0.19821425 -0.0027427082 -0.21265247
0.18624653 -0.04479045 0.17080626 -0.13140872 0.025787821 0.13030541 0.05152808 -0.22632828
-0.17720726 -0.14559287 -0.18059716 0.105812214 -0.0051965886 -0.08213613 0.012176995 -0.14893496
0.14321542 -0.052995384 -0.09705412 -0.2655643 0.07172711 0.14828882 -0.018527785 0.107281104
0.14925289 -0.02886873 -0.029942077 0.013263542 0.053979788 0.1542462 -0.17991549 0.31325075
0.042726807 -0.046928953 0.14169228 0.085000336 -0.13413335 -0.11463364 -0.032721996 -0.17860363
0.0013020904 -0.03997322 0.15611075 -0.06244925 -0.049430106 -0.012578532 0.1769764 -0.13398115
-0.029824434 -0.13663128 -0.044889476 -0.008848166 0.17029141 0.045820147 0.18002716 0.06642787
0.15168823 -0.23033494 0.10325495 0.16080526 0.07036033 -0.2630364 0.02047841 0.24366452
-0.2000468 -0.039061595 0.04126482 -0.16559564 -0.09033099 0.021410272 -0.00014006933 0.088295974
0.19692343 0.21059415 0.20739329 0.083663724 0.01529683 -0.037119586 0.04361916 -0.032927934
00000000: 5a4a f93d 353c 17be ae09 20be cbf1 833a
00000010: 51f1 30bd 399e 78be 95d9 3bbe df94 8c3d
00000020: ee9b 1abc 512a 123e 422c 493e 946d d2bc
00000030: e484 fb3c eaa7 cabc 9f87 cfbb e91f bebb
00000040: d2bc 5abe 566f 183d 7990 2bbe ca65 563e
00000050: a0da c5bd 7051 323e 9216 143c 22d3 21be
00000060: 3bb2 c73d 243b 073e b63e 473d 0e0c 303e
00000070: b94b 86be 0802 553e 0193 c3bb 9a9d 24bd
00000080: 8a43 4c3e 9e88 383e b255 f8bd a616 093d
00000090: 76ee 533e b0be f53d 81df 0c3e 6797 aebd
000000a0: 417b 40be 2454 4a3e 868c 9a3c 73f1 d93d
000000b0: 161e f6bd 700a 00bd 58c7 5d3a 829a 5dbe
000000c0: 57a7 5ebc 7f48 983d 993c 243d 803e a53c
000000d0: 09bc 8a3d cae0 fbbd 735a 0e3e 2c9d 6cbe
000000e0: c61a f7bd 1dbd 16be c98e 4f3e a717 1bbd
000000f0: 2a1a 1c3d 4bb2 4bbe b703 fabb 6811 b4bd
00000100: 736f c9bb b592 913d 8973 ba3b f93f b7bd
00000110: 19eb 343d 2b6a 45bd c316 d23c f1be 343d
00000120: 2b1e 813b 3f8c 2f3e 05fd 003a 1275 02be
00000130: dc38 d13c 6a46 c5bd 1a48 d73d 8c79 5a3d
00000140: fbc2 583c 41bf ecbd 2592 723e 3267 c53d
00000150: 4863 a9bd 15cc 1d3e 69d2 65be 3688 83be
00000160: 57aa cebc da2c b23d 4f55 acbd fdb1 0bbe
00000170: 2ffb 02bd f67e f33d 5152 0dbe 82c7 fdbd
00000180: e9f9 b93d 8d23 dfbd 0d3c 4ebe 3ba1 ecbd
00000190: 4a38 dabd a1b1 eebd 8ec7 26be 948a 96bc
000001a0: 6cac 35be 9254 593d dbdd d2bd 0759 41be
000001b0: 006d 413d 4c35 60be 95ca 26be dd2c 003e
000001c0: e0c1 b1bc b04a 413e 4734 83bd 1647 29be
000001d0: 590e 663d abd7 67bd 0397 5e3e 613a 8abe
000001e0: 2ea3 ffbc 0062 ff3c 9dd4 0cbe a272 f9bd
000001f0: b78f 193e c3b3 4ebe de43 0b3d 5ddd 12be
00000200: 4467 c13d af85 94be 2c6c 3f3d 05d9 33be
00000210: b9f1 1cbe 87d6 df3c dd9a 1b3e 9c1b 22be
00000220: 0a62 0dbe 52b7 2e3e 63f3 093d dd6f a93d
00000230: 6971 4bbe d9c2 29bd 2524 bbbd 65a9 233e
00000240: 4865 973d f8c8 0dbe 541e ca3c 2ed2 813d
00000250: f9f1 88bd d105 f7bd ad21 59bd f6a3 303e
00000260: 9f76 ccbd face 4abd ba7c 14bd ccaa 813d
00000270: 442b f83d 345e 3c3c 04ba cfbd 2396 d5bd
00000280: 295a efbd 5eb1 97bc 6ff1 e13d 45d9 44be
00000290: 6738 dcbd 5823 f1bd d1b6 9b3c 7b37 853d
000002a0: f173 283e f307 7cbe 19a2 c4bc 2a9b c63d
000002b0: 9a2a b63c adf8 4a3e 02bf 33bb 92c1 59be
000002c0: 69b7 3e3e 3176 37bd d6e7 2e3e 0290 06be
000002d0: fb40 d33c c86e 053e 1c0f 533d 9ac2 67be
000002e0: d275 35be 4c16 15be 76ee 38be 13b4 d83d
000002f0: 2548 aabb fd36 a8bd 0582 473c 6882 18be
00000300: 10a7 123e b011 59bd 4fc4 c6bd 0bf8 87be
00000310: aae5 923d 06d9 173e 95c7 97bc 32b6 db3d
00000320: c0d5 183e 1d7e ecbc 1649 f5bc 544f 593c
00000330: e919 5d3d b7f2 1d3e c43b 38be 6762 a03e
00000340: 4e02 2f3d 9338 40bd c817 113e a814 ae3d
00000350: 415a 09be 0bc5 eabd 8007 06bd dfe3 36be
00000360: e7aa aa3a f6ba 23bd 7fdb 1f3e c9ca 7fbd
00000370: 3977 4abd 3016 4ebc 4d39 353e 5b32 09be
00000380: 5f52 f4bc 12e9 0bbe 07de 37bd e6f7 10bc
00000390: df60 2e3e e8ad 3b3d 0a59 383e 560b 883d
000003a0: 2954 1b3e ecdc 6bbe 5577 d33d 22aa 243e
000003b0: 1419 903d b5ac 86be 57c2 a73c 3183 793e
000003c0: 11d9 4cbe 0dff 1fbd 4d05 293d e791 29be
000003d0: 74ff b8bd 9864 af3c 93df 12b9 85d4 b43d
000003e0: 4ca6 493e fea5 573e e85e 543e e357 ab3d
000003f0: 8e9f 7a3c b50a 18bd 01aa 323d 71df 06bd

func_approx.network.4.bias f4 [30]
-0.12564862 -0.039635777 -0.09549185 0.22371964 0.007610706 0.19417503 -0.06176632 -0.018479249
-0.055435892 0.050861597 -0.19849487 -0.18474597 0.09150712 0.15236773 0.1752758 -0.03622422
0.0009605935 0.11221082 -0.10324168 -0.20702635 -0.08134968 -0.032746457 -0.029001255 -0.061461862
-0.07612813 0.12637235 0.111443505 0.12247795 0.22960272 -0.18609533
00000000: 08aa 00be 2059 22bd 3b91 c3bd c316 653e
00000010: 3b63 f93b d2d5 463e aefe 7cbd cb61 97bc
00000020: bf10 63bd 4054 503d 3d42 4bbe 0c2e 3dbe
00000030: 1668 bb3d 4906 1c3e 807b 333e d95f 14bd
00000040: 57d0 7b3a c9ce e53d 6070 d3bd b7fe 53be
00000050: a99a a6bd 2621 06bd 0a94 edbc 6fbf 7bbd
00000060: 11e9 9bbd c167 013e 7e3c e43d b8d5 fa3d
00000070: fa1c 6b3e c68f 3ebe

func_approx.network.6.weight f4 [30, 30]
0.03532339 0.05254646 0.1203327 -0.09447244 -0.06875114 -0.14472298 0.124596566 -0.074681625
-0.07604882 0.074177526 0.17519316 0.026198745 -0.149572 0.1228323 -0.08379824 -0.10857605
-0.1216824 -0.09534564 -0.14437996 -0.08577283 -0.14257748 -0.03722182 0.10086819 -0.11387167
0.019936366 -0.0608029 0.09737393 0.112663314 -0.057117835 -0.057648946 -0.18908285 -0.145699
0.2283881 0.06898226 0.1052028 0.009065941 0.16234264 -0.03631644 0.22217086 -0.0031913724
-0.22879197 -0.070634864 0.10311982 0.047074214 -0.10031007 0.18867765 0.030484753 -0.014962671
-0.15240575 0.16597183 -0.009986421 0.01222566 -0.045997202 0.23281066 0.098543935 -0.12257092
-0.21594256 0.09074895 -0.044239856 0.14368324 -0.15692532 0.053553563 -0.075055815 0.09009709
0.1299164 0.046532135 -0.0028747278 0.15190028 -0.11035186 -0.096656606 -0.16527759 -0.13969485
0.01961237 -0.07032673 0.054238133 0.035967276 0.15184991 -0.07642618 -0.05992906 0.109582305
-0.07727623 0.18771133 -0.11344415 -0.014912288 -0.05288362 0.07247124 0.05133094 -0.042535737
0.14975052 -0.039289147 -0.05540705 -0.07190686 0.18833435 0.1748209 0.14681344 0.02897782
0.14587386 -0.036503084 -0.04183797 -0.073665746 -0.07928946 0.09592311 0.0142693585 -0.15763049
-0.039449282 0.06989442 0.16799507 0.16652086 -0.10702194 0.09383118 0.056848306 0.20555383
-0.0838191 0.03783295 0.08033518 0.14082842 -0.22314851 0.041752838 -0.11447104 -0.08124219
-0.014432388 0.12611507 -0.073878676 0.17064622 0.19646426 -0.03937912 0.049195908 -0.0041587735
0.1214536 -0.1550709 -0.14405142 -0.041519802 -0.12251812 0.17979498 0.01939619 -0.025392102
-0.09381443 0.08613587 -0.15205282 -0.115000606 -0.21522659 -0.06634149 0.08356452 -0.094162315
0.0070093214 -0.043150757 0.011257063 0.14717805 -0.08361079 0.11099578 -0.27458742 0.036538437
0.008511209 0.04119938 0.16260476 0.22404256 0.0038536 -0.052975718 0.14597178 0.13196768
-0.010483091 -0.11001204 0.078530386 0.19060531 0.089031756 -0.044999897 -0.20513047 -0.12459739
0.12900326 -0.06310153 -0.03164768 0.09007497 -0.17723522 0.0032758445 -0.051800016 0.11725616
0.15472244 0.16885011 0.20876631 -0.24694695 -0.043318573 0.0805291 -0.23943932 0.035800766
-0.16880257 0.064922795 0.10949109 -0.23166811 0.08611978 0.12171691 -0.10455098 0.13676994
-0.15347956 -0.089105286 -0.08392175 -0.05903928 0.012293943 -0.050399065 -0.15329945 -0.037450284
0.19239737 0.05086271 0.15548845 0.009010151 0.028489163 -0.10653213 0.13726234 -0.2872979
-0.09571518 -0.03692404 0.10038151 -0.043057695 -0.012142226 0.06484911 -0.13525333 -0.019661564
0.078920044 0.052128762 0.03169145 0.094832055 -0.17143866 -0.08329693 0.1865594 0.04745719
-0.013577633 0.11780876 0.118961215 -0.037439544 -0.10136173 -0.037319902 0.011941676 0.014456362
0.045755092 -0.1363143 -0.08052508 0.12297956 -0.019200241 0.11392104 0.09198269 -0.07416433
-0.12793595 0.052190132 0.0013035873 -0.015735755 0.011435842 0.09100035 -0.012535704 -0.08076905
-0.024167528 -0.06761675 0.06042038 -0.18625069 0.18158284 0.14634423 -0.11650493 0.14019853
00000000: 42af 103d f53a 573d fe70 f63d c47a c1bd
00000010: 66cd 8cbd 4332 14be 7c2c ff3d aef2 98bd
00000020: 7cbf 9bbd 63ea 973d d665 333e c09e d63c
00000030: 6729 19be 808f fb3d 699e abbd 1f5d debd
00000040: 9f34 f9bd 9344 c3bd 57d8 13be aaa9 afbd
00000050: d5ff 11be e875 18bd fb93 ce3d 8d35 e9bd
00000060: 9751 a33c 760c 79bd fc6b c73d 06bc e63d
00000070: 64f4 69bd 4d21 6cbd ef9e 41be 1e32 15be
00000080: 92de 693e 9246 8d3d 9174 d73d 5089 143c
00000090: 263d 263e 8cc0 14bd c280 633e 5826 51bb
000000a0: 7148 6abe 03a9 90bd 7c30 d33d e4d0 403d
000000b0: 5e6f cdbd b734 413e 29bb f93c fe25 75bc
000000c0: 4110 1cbe 85f4 293e 169e 23bc 224e 483c
000000d0: 9067 3cbd eb65 6e3e 67d1 c93d 7606 fbbd
000000e0: 0c20 5dbe 96da b93d da34 35bd b321 133e
000000f0: 08b1 20be fb5a 5b3d ddb6 99bd d384 b83d
00000100: ce08 053e 7b98 3e3d ee65 3cbb bf8b 1b3e
00000110: 2800 e2bd e6f3 c5bd 873e 29be 2b0c 0fbe
00000120: 1faa a03c 7607 90bd ce28 5e3d 6c52 133d
00000130: 8b7e 1b3e 5485 9cbd 2d78 75bd b06c e03d
00000140: 0043 9ebd 6637 403e 6855 e8bd ab52 74bc
00000150: 7f9c 58bd cd6b 943d 6440 523d f439 2ebd
00000160: 3358 193e a8ed 20bd 81f2 62bd e743 93bd
00000170: b8da 403e 4004 333e 4356 163e e562 ed3c
00000180: f55f 153e 4284 15bd 4b5e 2bbd 11de 96bd
00000190: 8362 a2bd 5673 c43d 07ca 693c e369 21be
000001a0: 9295 21bd ce24 8f3d e606 2c3e 7284 2a3e
000001b0: 522e dbbd 902a c03d c5d9 683d b47c 523e
000001c0: 59a9 abbd b9f6 1a3d c586 a43d 5335 103e
000001d0: 0b81 64be 0605 2b3d cb6f eabd 4e62 a6bd
000001e0: d375 6cbc 4f24 013e b44d 97bd e2bd 2e3e
000001f0: ed2d 493e 004c 21bd a681 493d 5246 88bb
00000200: aabc f83d e8ca 1ebe 3782 13be ab10 2abd
00000210: c8ea fabd 2d1c 383e c2e4 9e3c 1903 d0bc
00000220: c821 c0bd 0168 b03d bcb3 1bbe 7085 ebbd
00000230: 5c64 5cbe 0cde 87bd e023 ab3d 2cd8 c0bd
00000240: 73ae e53b d9be 30bd 8b6f 383c d8b5 163e
00000250: 223c abbd c151 e33d b996 8cbe 54a9 153d
00000260: 9972 0b3c aec0 283d dd81 263e 6a6b 653e
00000270: ae8c 7c3b 11fd 58bd a079 153e 8922 073e
00000280: 45c1 2bbc fe4d e1bd 8ad4 a03d 0a2e 433e
00000290: 4856 b63d d051 38bd b90d 52be eb2c ffbd
000002a0: 6e19 043e 603b 81bd ffa0 01bd 3a79 b83d
000002b0: 267d 35be 8daf 563b 412c 54bd ff23 f03d
000002c0: 8f6f 1e3e 0be7 2c3e d6c6 553e a9df 7cbe
000002d0: d16e 31bd 71ec a43d 952f 75be d3a3 123d
000002e0: 95da 2cbe 3ef6 843d dd3c e03d 683a 6dbe
000002f0: 915f b03d b746 f93d d31e d6bd 6b0d 0c3e
00000300: bf29 1dbe d57c b6bd 2bdf abbd 2cd3 71bd
00000310: 896c 493c 406f 4ebd 88fa 1cbe 7865 19bd
00000320: d103 453e 6b55 503d 5d38 1f3e 509f 133c
00000330: 1b62 e93c 842d dabd 808e 0c3e b618 93be
00000340: 5206 c4bd aa3d 17bd d294 cd3d 445d 30bd
00000350: 30f0 46bc 9ccf 843d d97f 0abe 4a11 a1bc
00000360: d5a0 a13d f884 553d e5ce 013d 4f37 c23d
00000370: 9e8d 2fbe 9597 aabd 6d09 3f3e 7862 423d
00000380: b874 5ebc b845 f13d f0a1 f33d 355a 19bd
00000390: bd96 cfbd c1dc 18bd 05a7 433c 61da 6c3c
000003a0: b169 3b3d fa95 0bbe 55ea a4bd b5dc fb3d
000003b0: d349 9dbc 6f4f e93d 6c61 bc3d 78e3 97bd
000003c0: a401 03be 52c5 553d 22dd aa3a 45e8 80bc
000003d0: 665d 3b3c 645e ba3d 8e62 4dbc 3e6a a5bd
000003e0: fbfa c5bc a77a 8abd 5c7b 773d 80b8 3ebe
000003f0: daf0 393e 43db 153e 239a eebd 3490 0f3e

func_approx.network.6.bias f4 [30]
-0.13915934 0.07343683 -0.075061135 0.022326915 0.062586516 0.15540779 0.038018223 -0.06311118
0.15858948 0.056567818 0.07848136 0.16414137 -0.101997234 0.10816032 0.04681303 -0.01553016
0.099101216 -0.26834583 -0.0044030943 -0.05765395 -0.022931056 -0.03997901 -0.11442834 0.100477375
-0.010343216 -0.23121631 0.016136065 -0.1124953 0.06405873 -0.18592523
00000000: c97f 0ebe 0c66 963d a7b9 99bd efe6 b63c
00000010: 5c2d 803d 3823 1f3e ffb8 1b3d 6f40 81bd
00000020: 4865 223e a8b3 673d d6ba a03d ad14 283e
00000030: ede3 d0bd 2883 dd3d 05bf 3f3d 3672 7ebc
00000040: 94f5 ca3d a064 89be d547 90bb 8c26 6cbd
00000050: e9d9 bbbc 08c1 23bd 6859 eabd 15c7 cd3d
00000060: 9876 29bc f8c3 6cbe c82f 843c f063 e6bd
00000070: 3931 833d 2f63 3ebe

func_approx.network.8.weight f4 [1, 30]
-0.028817028 -0.0880514 -0.0044904016 -0.045235667 0.020368092 0.22227441 0.061311226 -0.002558027
0.15225941 -0.11981819 0.0483913 0.11173244 0.026576241 0.09124965 -0.028012307 0.035950016
-0.040689297 -0.14255877 0.13249446 -0.028636293 0.14136241 -0.005376529 -0.007875126 0.055173
-0.027893737 -0.08100864 -0.060034093 -0.13575143 -0.05535136 0.05912518
00000000: b011 ecbc 4b54 b4bd 3824 93bb 0949 39bd
00000010: fcda a63c e79b 633e 7b21 7b3d 92a4 27bb
00000020: e4e9 1b3e 3d63 f5bd f535 463d fad3 e43d
00000030: 6bb6 d93c 19e1 ba3d 117a e5bc 5340 133d
00000040: d2a9 26bd edfa 11be a1ac 073e a996 eabc
00000050: 4fc1 103e 982d b0bb ac06 01bc 15fd 613d
00000060: 6881 e4bc dce7 a5bd 4fe6 75bd 6c02 0bbe
00000070: 1cb8 62bd 3f2d 723d
