paper/Cable_equation/runs/test_2000b/checkpoint.pt (torch, 59095 bytes, 36 tensors)

func_approx.network.0.weight f4 [30, 2]
-0.47998357 0.5370999 -0.59205234 0.39426136 0.3914839 -0.74964845 0.61808294 -0.5982343
-0.119669035 0.44511124 -0.20560552 0.67125833 -0.27046147 -0.15203989 -0.3938984 -0.32803488
0.77422994 0.4793863 -0.023307765 -0.05450736 -0.5233274 0.6397771 -0.10652251 -0.22264327
-0.48984927 0.6789067 0.28474355 0.3914704 0.04005698 -0.56549466 0.26530552 0.038661264
0.15416388 -0.2728198 -0.25963232 0.6931722 0.15315321 -0.39719954 0.10282689 -0.06447806
-0.061056793 0.45356792 -0.5324846 0.7163025 0.48449987 -0.008325925 -0.25410005 0.21581289
-0.4392594 0.5294066 -0.30037645 0.23215117 -0.6866966 0.40791738 0.40379485 0.4724803
0.07517127 0.48523453 0.17633311 0.43645856
00000000: 68c0 f5be 617f 093f be90 17bf a0dc c93e
00000010: 9470 c83e f6e8 3fbf af3a 1e3f e225 19bf
00000020: 0a15 f5bd 9fe5 e33e 418a 52be 96d7 2b3f
00000030: ed79 8abe 58b0 1bbe 0dad c9be 30f4 a7be
00000040: ef33 463f 1f72 f53e edef bebc 1c43 5fbd
00000050: c9f8 05bf 6fc8 233f 7928 dabd 99fc 63be
00000060: 86cd fabe d4cc 2d3f e8c9 913e cf6e c83e
00000070: ca12 243d 42c4 10bf 20d6 873e 465b 1e3d
00000080: 23dd 1d3e 09af 8bbe 87ee 84be bc73 313f
00000090: 32d4 1c3e bd5d cbbe e896 d23d 130d 84bd
000000a0: b016 7abd 0e3a e83e e950 08bf 9a5f 373f
000000b0: 5e10 f83e 7669 08bc 6719 82be 0efe 5c3e
000000c0: 9ce6 e0be 3187 073f f1ca 99be 09b9 6d3e
000000d0: 59cb 2fbf 8cda d03e 33be ce3e f0e8 f13e
000000e0: 65f3 993d a970 f83e ab90 343e 7f77 df3e

func_approx.network.0.bias f4 [30]
0.44955924 -0.56621945 0.033080224 -0.22368696 -0.34079817 0.4938881 -0.04043793 0.18591133
0.5350409 0.4220933 0.41673812 -0.14518572 -0.5845446 -0.73380196 0.21649763 -0.045706607
-0.5084882 0.34160927 0.58487064 0.42546108 -0.11664571 0.08366154 -0.4497753 0.33753607
-0.53510237 0.5347206 -0.32816687 -0.35812888 -0.58555645 -0.24790783
00000000: a12c e63e c2f3 10bf 217f 073d 320e 65be
00000010: 197d aebe e7de fc3e 3ea2 25bd 8a5f 3e3e
00000020: 71f8 083f 9d1c d83e b35e d53e 91ab 14be
00000030: b7a4 15bf 72da 3bbf 8eb1 5d3e da36 3bbd
00000040: 482c 02bf 69e7 ae3e 15ba 153f 09d6 d93e
00000050: f2e3 eebd be56 ab3d f348 e6be 87d1 ac3e
00000060: 78fc 08bf 73e3 083f 7d05 a8be ab5c b7be
00000070: 07e7 15bf 8ddb 7dbe

func_approx.network.2.weight f4 [30, 30]
-0.024717871 -0.08708684 0.15631233 0.110815115 -0.19291398 -0.101072565 0.07409093 0.1962679
-0.04691893 0.112996265 -0.022619393 -0.037904646 0.102892384 -0.23751771 0.27440867 0.16562219
0.022517717 -0.035058796 0.19291295 0.061981782 -0.06134284 0.051489256 -0.096634634 0.05596206
-0.10398142 0.17051367 -0.081016205 0.01280575 -0.1571232 0.046406772 -0.04242636 0.07030203
-0.028047435 -0.07010172 0.059388783 -0.0100435745 -0.19982804 0.01340098 -0.07649697 -0.03266638
-0.08543874 -0.05013021 -0.090092614 0.059704803 -0.09259942 0.1795662 0.13116248 -0.06570946
-0.10079095 0.0277263 0.11900072 -0.03308319 0.16949864 0.08999411 0.02527757 -0.024806803
0.07439934 0.004734615 0.07521186 0.23755203 -0.08741727 0.017866952 -0.099265166 -0.14266169
0.1307671 0.20731317 -0.114853285 0.043156996 0.059219126 0.06883656 0.10770188 0.1365315
0.14882937 -0.07314431 -0.20042229 0.11817296 -0.15362541 0.14773478 -0.090398535 0.027824974
0.2278824 0.0719637 0.16469112 -0.04655575 0.10672301 0.026781008 -0.05509803 -0.0935749
0.27579543 -0.005095301 0.14242768 0.116608314 -0.00030888472 -0.15252161 0.0050238823 -0.11407346
0.060366422 -0.054769956 0.13496901 -0.17590576 -0.04775776 0.05177674 0.015781427 0.09524566
-0.029456424 -0.15978336 0.06562796 0.036949128 0.12011286 -0.10200842 -0.1539082 -0.07722461
-0.0064552124 0.07997507 -0.10532566 0.0068651806 -0.029458031 0.14265276 -0.0995894 0.14162153
-0.063840576 -0.041873578 -0.16592209 0.09440302 -0.1067312 -0.008573007 -0.017986257 0.23667249
-0.00961493 -0.19799769 0.07516945 0.081681974 -0.14535342 -0.07936009 0.19976509 0.0021419353
-0.08732689 -0.036402818 0.018212773 -0.10842113 0.14177282 0.19215634 0.025692845 -0.0054280483
-0.13924427 -0.024106078 0.21208896 -0.23054625 -0.19981113 -0.09599643 0.057175048 -0.1820093
-0.1526301 0.0019855658 -0.085657105 0.035048638 0.064776324 -0.14038014 -0.16872762 0.12555955
-0.037136223 -0.050101817 0.05286502 -0.10084724 0.20616262 0.030059962 -0.020340942 -0.23385689
0.105963446 -0.10662261 -0.1522115 0.016917003 -0.12605396 0.11256533 -0.13139117 0.061411805
0.019545779 0.04170072 -0.2839793 -0.02953161 0.10123925 -0.105553925 0.019320346 -0.010791631
0.18652157 0.035135884 0.0008638052 -0.08547457 -0.052167673 0.03960065 -0.16044106 0.12039109
0.14652185 0.1323853 0.0327849 -0.052023273 -0.016676556 0.08486916 -0.1439073 -0.08300342
0.05624756 -0.027202051 -0.15294217 -0.13014981 -0.0037006785 -0.030676464 -0.15491743 0.052304182
0.1942138 0.17911126 0.16448034 -0.10974062 -0.10637136 -0.102925085 0.08577271 0.105879456
0.031439565 0.084630035 0.08690183 -0.11166472 0.14729215 0.09370533 0.050042026 -0.056579497
-0.24233624 0.06498539 0.03624028 0.30536556 0.06540187 0.040668905 0.12923367 0.15703024
-0.034754045 0.048266206 -0.06404084 -0.051476855 0.124151796 0.120074235 0.06854689 0.05345953
-0.058939263 0.115143515 0.08865585 0.025082214 -0.15175769 -0.15350643 0.15883322 0.010392945
0.08342966 0.10433475 -0.01200377 -0.072164945 -0.14031084 0.011531763 0.09051755 -0.067303896
00000000: 227d cabc 965a b2bd 5710 203e 09f3 e23d
00000010: 3e8b 45be 22ff cebd fcbc 973d 74fa 483e
00000020: 102e 40bd 966a e73d 4e4c b9bc e741 1bbd
00000030: 3eb9 d23d d837 73be 4b7f 8c3e dd98 293e
00000040: 1377 b83c d099 0fbd f98a 453e 9ce0 7d3d
00000050: a142 7bbd 66e6 523d 61e8 c5bd 7938 653d
00000060: 36f4 d4bd 239b 2e3e d3eb a5bd 35cf 513c
00000070: e7e4 20be 0715 3e3d 43c7 2dbd 83fa 8f3d
00000080: bcc3 e5bc 7e91 8fbd a741 733d ce8d 24bc
00000090: b99f 4cbe c98f 5b3c 72aa 9cbd 2fcd 05bd
000000a0: 82fa aebd 5655 4dbd 7a82 b8bd 068d 743d
000000b0: c4a4 bdbd 34e0 373e 754f 063e ae92 86bd
000000c0: 7c6b cebd 4422 e33c a6b6 f33d 3d82 07bd
000000d0: 0d91 2d3e d54e b83d e812 cf3c a337 cbbc
000000e0: ae5e 983d d424 9b3b ad08 9a3d d740 733e
000000f0: d307 b3bd b75d 923c 894b cbbd e815 12be
00000100: d0e7 053e e749 543e 3338 ebbd 64c5 303d
00000110: c18f 723d 2ffa 8c3d ce92 dc3d eace 0b3e
00000120: ba66 183e afcc 95bd 803b 4dbe aa04 f23d
00000130: fb4f 1dbe c947 173e de22 b9bd 33f1 e33c
00000140: 015a 693e b461 933d caa4 283e 3eb1 3ebd
00000150: 9891 da3d d863 db3c 79ae 61bd 32a4 bfbd
00000160: 0f35 8d3e 7cf6 a6bb 90d8 113e 57d0 ee3d
00000170: cef1 a1b9 a02e 1cbe 619f a43b 599f e9bd
00000180: c842 773d 7656 60bd 5135 0a3e a420 34be
00000190: a49d 43bd d913 543d 0d48 813c 2810 c33d
000001a0: 994e f1bc 409e 23be f467 863d f857 173d
000001b0: bbfd f53d cae9 d0bd 1c9a 1dbe f027 9ebd
000001c0: 3f86 d3bb f8c9 a33d fbb4 d7bd 4ff5 e03b
000001d0: f851 f1bc 9113 123e 87f5 cbbd 3c05 113e
000001e0: d9be 82bd a183 2bbd 7be7 29be 5f56 c13d
000001f0: e395 dabd cc75 0cbc ea57 93bc 465a 723e
00000200: f087 1dbc e8bf 4abe 71f2 993d e148 a73d
00000210: 87d7 14be 8b87 a2bd 388f 4c3e b65f 0c3b
00000220: 71d8 b2bd 1f1b 15bd f432 953c e60b debd
00000230: e52c 113e a2c4 443e cd79 d23c c5dd b1bb
00000240: 0d96 0ebe 1c7a c5bc d92d 593e 5114 6cbe
00000250: 4a9b 4cbe c799 c4bd 6230 6a3d a560 3abe
00000260: 114b 1cbe 4420 023b fe6c afbd 298f 0f3d
00000270: 73a9 843d d0bf 0fbe efc6 2cbe af92 003e
00000280: 271c 18bd 9037 4dbd fe88 583d ff88 cebd
00000290: 4b1c 533e 4f40 f63c 0ca2 a6bc 2e78 6fbe
000002a0: 5d03 d93d f45c dabd 55dd 1bbe 8795 8a3c
000002b0: 4a14 01be a788 e63d 688b 06be f28a 7b3d
000002c0: 781e a03c 60ce 2a3d bc65 91be 46ec f1bc
000002d0: 8656 cf3d a82c d8bd b445 9e3c 62cf 30bc
000002e0: 83ff 3e3e a5ea 0f3d fc70 623a 4b0d afbd
000002f0: c5ad 55bd 4b34 223d a94a 24be 9b8f f63d
00000300: d309 163e 0390 073e 7649 063d 5b16 55bd
00000310: 469d 88bc e2cf ad3d 6f5c 13be b2fd a9bd
00000320: d763 663d d6d6 debc df9c 1cbe fe45 05be
00000330: 1587 72bb 354d fbbc ada2 1ebe e93c 563d
00000340: fbdf 463e f168 373e 896d 283e b1bf e0bd
00000350: 3ad9 d9bd 63ca d2bd 9aa9 af3d 54d7 d83d
00000360: c6c6 003d 8352 ad3d 96f9 b13d 79b0 e4bd
00000370: c1d3 163e 94e8 bf3d def8 4c3d e7bf 67bd
00000380: fe26 78be 0f17 853d b070 143d e058 9c3e
00000390: 6af1 853d 7094 263d d555 043e 89cc 203e
000003a0: 425a 0ebd c9b2 453d d827 83bd 65d9 52bd
000003b0: 4c43 fe3d 7be9 f53d 5062 8c3d 61f8 5a3d
000003c0: 4c6a 71bd 5dd0 eb3d 3391 b53d 3779 cd3c
000003d0: 5e66 1bbe ca30 1dbe 2da5 223e 2c47 2a3c
000003e0: 2bdd aa3d 75ad d53d 76ab 44bc 37cb 93bd
000003f0: a5ad 0fbe b8ef 3c3c 4461 b93d a0d6 89bd

func_approx.network.2.bias f4 [30]
0.031820994 0.15891752 0.16122274 -0.02670728 -0.0034705289 0.16980514 -0.13737033 -0.07470368
-0.0019993966 -0.018458964 0.038251113 0.096368186 -0.104219414 0.035708107 0.20330478 -0.13989533
-0.12283914 -0.10841088 0.11994333 -0.11573365 -0.08153559 0.11937635 -0.13296846 0.1200808
-0.055320747 0.06850826 0.008644464 -0.022000724 0.12151535 0.1364192
00000000: bb56 023d 46bb 223e 9317 253e 3ac9 dabc
00000010: d071 63bb 66e1 2d3e cfaa 0cbe 3efe 98bd
00000020: 4f08 03bb 4137 97bc 33ad 1c3d af5c c53d
00000030: fd70 d5bd aa42 123d 212f 503e b940 0fbe
00000040: 1693 fbbd 8606 debd d9a4 f53d c405 edbd
00000050: 22fc a6bd 967b f43d e228 08be ecec f53d
00000060: 0298 62bd 0f4e 8c3d 83a1 0d3c dd3a b4bc
00000070: 0add f83d 7ab1 0b3e

func_approx.network.4.weight f4 [30, 30]
-0.09192757 0.05331627 0.027911913 -0.033364315 -0.055250082 0.068991326 0.13786443 -0.171044
-0.10603409 -0.20304969 0.030259289 -0.043409817 -0.036453865 0.19187824 -0.07752003 -0.08659942
0.033127118 -0.06273071 -0.032877885 0.073387444 0.059664346 -0.096924365 0.16574794 0.13089764
-0.18282674 0.046112467 0.14238043 -0.1112238 -0.123162106 -0.16207911 0.09694564 -0.026281206
0.06254318 -0.10178502 0.21559021 0.029317385 -0.14361256 -0.047633294 0.18190882 0.025253613
-0.027869007 -0.10869141 -0.09899599 0.16694857 -0.11141544 0.15017754 -0.037234712 0.073460594
-0.14356579 -0.075175494 0.16456741 -0.18812744 0.09399416 -0.16325675 -0.029022316 -0.19601414
-0.055414584 -0.119276956 -0.07310915 0.01624311 -0.110518396 -0.004590664 0.084334195 0.2500481
0.17372538 0.14944233 -0.06612324 -0.048612863 0.15717186 0.065164566 -0.08252774 0.107332565
-0.109481275 0.1814454 0.022356054 -0.059798885 -0.20097512 0.06427396 0.15025346 -0.053553488
-0.045631323 0.13846342 0.054533742 0.029244034 0.1405426 0.040419873 0.06618151 0.11564859
-0.13436025 -0.053097397 -0.0071355333 0.10274042 -0.0039208946 0.078837894 -0.013229822 -0.18797004
0.06690897 -0.005505794 -0.2022293 0.028768605 -0.036583077 -0.10711225 -0.17684188 0.13354917
-0.09621685 0.00874933 0.1301196 -0.08028271 -0.16726458 -0.16559294 0.011790171 -0.08548457
0.020493256 0.06950747 -0.004506044 0.15766329 -0.10220741 -0.10063495 -0.12254704 0.05582564
-0.08564074 0.0023527902 -0.044999175 0.083904944 -0.036997005 -0.07081321 -0.042989254 -0.11908511
0.17939627 -0.08867663 0.067426376 0.11104245 0.096126094 -0.016072387 0.13083366 -0.106616184
-0.16735576 0.05643355 -0.07988515 -0.12994686 0.066930704 0.11307563 -0.08071498 -0.04190372
-0.16151714 0.025650647 0.123629756 0.009219383 0.13900809 -0.13639145 0.030849477 -0.108957306
0.10081709 0.09705162 0.19875686 0.21766287 0.04206809 -0.19559239 -0.05815399 -0.016038807
-0.2155246 0.07330742 0.063229136 0.10243162 -0.18298829 0.1292703 -0.0325906 -0.027392449
0.13238882 0.022259504 -0.026977038 0.06241893 -0.17325984 0.14444904 0.14981295 0.0720132
0.122497596 -0.13837089 -0.054893263 -0.1673672 -0.12852679 -0.091684036 0.16620952 0.09869666
0.030852422 -0.10546316 0.14170589 -0.0061507826 -0.11967805 0.13057402 0.13942961 -0.13815765
0.15453511 -0.045862645 0.076042615 -0.21357946 0.008852476 -0.14827538 -0.15360433 -0.051502306
-0.028793536 -0.044214457 -0.10204179 0.13341022 0.1103524 -0.12636879 -0.04181168 0.0006851277
-0.0018245797 0.040759414 -0.044772424 0.0459677 -0.100448035 -0.0591905 0.19220643 -0.14397553
0.13757466 0.18564919 -0.16893657 -0.05907742 0.1790091 0.016829595 0.09402902 0.01177321
0.039030388 -0.04151817 0.06777274 0.05133587 -0.08343812 -0.20950726 0.032482076 0.043374963
-0.0152454125 0.16102207 -0.029383933 -0.12069206 -0.049015142 -0.08151377 -0.065199226 -0.106135644
-0.09901406 0.08416466 0.073369116 0.013804391 0.10766056 0.03913086 0.13021606 0.029365038
0.09925483 -0.12386232 0.051152322 -0.16269398 0.063641064 -0.1368279 -0.09260737 0.109019324
00000000: 8644 bcbd 2962 5a3d 86a7 e43c 05a9 08bd
00000010: e94d 62bd 534b 8d3d 552c 0d3e 2926 2fbe
00000020: 6728 d9bd 42ec 4fbe 54e2 f73c 7ece 31bd
00000030: a650 15bd bb7b 443e d2c2 9ebd 095b b1bd
00000040: 4db0 073d f578 80bd f6aa 06bd 284c 963d
00000050: 9a62 743d 4880 c6bd d4b9 293e 080a 063e
00000060: ef36 3bbe 6de0 3c3d 2dcc 113e 4ec9 e3bd
00000070: 6a3c fcbd 11f8 25be 708b c63d af4b d7bc
00000080: a416 803d aa74 d0bd aec3 5c3e 032b f03c
00000090: 2c0f 13be 211b 43bd 4e46 3a3e aae0 ce3c
000000a0: 8b4d e4bc 9a99 debd 69be cabd 91f4 2a3e
000000b0: c72d e4bd 24c8 193e 6d83 18bd 8272 963d
000000c0: e902 13be 9cf5 99bd 5c84 283e 7ba4 40be
000000d0: 0380 c03d c72c 27be 35c0 edbc eeb7 48be
000000e0: 67fa 62bd 7a47 f4bd 40ba 95bd 4510 853c
000000f0: 7857 e2bd 486d 96bb 68b7 ac3d 4e06 803e
00000100: 11e5 313e 6907 193e 9f6b 87bd 481e 47bd
00000110: a9f1 203e 0075 853d 4e04 a9bd 2dd1 db3d
00000120: b837 e0bd d3cc 393e 0b24 b73c adef 74bd
00000130: 6ccc 4dbe 11a2 833d 0bdc 193e e75a 5bbd
00000140: e9e7 3abd 5bc9 0d3e c65e 5f3d 2f91 ef3c
00000150: 66ea 0f3e 4f8f 253d 2c8a 873d 2bd9 ec3d
00000160: bc95 09be a87c 59bd 31d1 e9bb 9269 d23d
00000170: d97a 80bb c375 a13d e5c1 58bc 387b 40be
00000180: 9207 893d f369 b4bb 3315 4fbe 23ac eb3c
00000190: 23d8 15bd ab5d dbbd 0a16 35be 1dc1 083e
000001a0: 570d c5bd 5a59 0f3c 133e 053e 436b a4bd
000001b0: 6847 2bbe 3291 29be 902b 413c 8912 afbd
000001c0: 79e1 a73c ef59 8e3d 70a7 93bb 7c72 213e
000001d0: 1e52 d1bd b219 cebd f1f9 fabd 6da9 643d
000001e0: 6a64 afbd 4531 1a3b 0e51 38bd 5bd6 ab3d
000001f0: 2c8a 17bd 8406 91bd 8015 30bd e5e2 f3bd
00000200: a8b3 373e 189c b5bd d716 8a3d 396a e33d
00000210: c2dd c43d 3daa 83bc 42f9 053e 9659 dabd
00000220: 4f5f 2bbe de26 673d d39a a3bd ca10 05be
00000230: f712 893d 3294 e73d e54d a5bd 3ca3 2bbd
00000240: c064 25be 4e21 d23c 9931 fd3d e50c 173c
00000250: 2358 0e3e 33aa 0bbe 0bb8 fc3c 0225 dfbd
00000260: 3179 ce3d 00c3 c63d eb86 4b3e 04e3 5e3e
00000270: 974f 2c3d 5f49 48be e132 6ebd d163 83bc
00000280: 7bb2 5cbe 3322 963d 477e 813d abc7 d13d
00000290: 4861 3bbe 6f5f 043e b97d 05bd 2166 e0bc
000002a0: ef90 073e 9059 b63c f3fe dcbc feaa 7f3d
000002b0: 076b 31be 73ea 133e 9168 193e a87b 933d
000002c0: 05e0 fa3d 19b1 0dbe c2d7 60bd 4f62 2bbe
000002d0: 879c 03be d7c4 bbbd d432 2a3e 7921 ca3d
000002e0: 38be fc3c 12fd d7bd 591b 113e 818c c9bb
000002f0: c419 f5bd 32b5 053e a3c6 0e3e 3379 0dbe
00000300: 743e 1e3e 78da 3bbd 3bbc 9b3d 93b4 5abe
00000310: fa09 113c 80d5 17be 744a 1dbe 15f4 52bd
00000320: 6ce0 ebbc 381a 35bd 49fb d0bd b09c 083e
00000330: 7000 e23d d266 01be b942 2bbd 249a 333a
00000340: bc26 efba 58f3 263d 4a63 37bd a148 3c3d
00000350: b3b7 cdbd bd71 72bd c3d1 443e 526e 13be
00000360: 5fe0 0c3e d21a 3e3e b5fd 2cbe 2afb 71bd
00000370: 294e 373e 38de 893c 4992 c03d 6ce4 403c
00000380: 54de 1f3d f50e 2abd 6fcc 8a3d 9045 523d
00000390: 9be1 aabd 1289 56be ed0b 053d f2a9 313d
000003a0: e5c7 79bc f8e2 243e 93b6 f0bc 662d f7bd
000003b0: 1ac4 48bd b1f0 a6bd 2c87 85bd a55d d9bd
000003c0: e2c7 cabd 855e ac3d 8c42 963d d02b 623c
000003d0: 247d dc3d ae47 203d 5c57 053e f38e f03c
000003e0: 1e46 cb3d 87ab fdbd 1985 513d 4099 26be
000003f0: 3f56 823d 9d1c 0cbe efa8 bdbd 8645 df3d

func_approx.network.4.bias f4 [30]
0.08811593 -0.01324093 -0.1223473 -0.064745635 0.19768772 -0.09567391 -0.16724579 0.10322392
0.20302637 -0.14920199 -0.12709542 -0.0858502 0.204276 -0.07114652 0.028182922 0.1702787
-0.10337205 -0.024472455 -0.1254323 0.0106701525 0.20504993 0.1064623 0.16183348 -0.014750534
0.0014700091 -0.001205053 0.048049536 -0.047679186 -0.1236012 -0.03345978
00000000: 2076 b43d 7cf0 58bc 3991 fabd 5c99 84bd
00000010: a66e 4a3e aff0 c3bd 7b42 2bbe 1067 d33d
00000020: 25e6 4f3e 68c8 18be 4d25 02be 3bd2 afbd
00000030: ba2d 513e 44b5 91bd dfdf e63c 8a5d 2e3e
00000040: bab4 d3bd 757a c8bc 5371 00be ddd1 2e3c
00000050: 9cf8 513e e808 da3d adb7 253e 39ac 71bc
00000060: 52ad c03a def2 9dba 97cf 443d 404b 43bd
00000070: a022 fdbd 1f0d 09bd

func_approx.network.6.weight f4 [30, 30]
0.060403906 0.20183888 -0.06290414 -0.16390273 -0.10971479 -0.16953889 0.048257746 0.07360896
0.03334237 0.06785587 0.07735437 0.09518163 0.13286252 0.042148437 0.078253746 0.09603678
-0.08567249 -0.18142316 0.029805189 0.03250992 -0.24470587 -0.1186077 -0.12400689 0.17890878
0.11642969 -0.1463502 0.060221784 -0.03860475 0.12191614 -0.19960935 -0.100888155 -0.18416451
0.09908719 -0.05625333 0.102268405 0.09096598 -0.05088782 0.0063979956 -0.08670871 0.03483578
-0.039787363 0.10227579 -0.007974191 -0.11461331 -0.14108957 -0.11609802 0.054439854 0.081839755
0.00751625 -0.0998023 -0.14270526 -0.09450287 -0.17630583 -0.19106382 -0.18694302 -0.047705058
-0.20488 0.041840192 0.09761507 0.08284525 -0.21527432 0.14426394 0.040291235 0.061016157
-0.03797592 0.06423521 -0.20805559 0.013067376 0.15732437 0.121133566 -0.20597455 -0.08939526
-0.0020868094 0.061655488 -0.041534502 0.013889697 -0.024889756 -0.07434071 -0.01585963 -0.11738109
-0.16467883 0.17755245 0.18784775 0.0055015315 0.1690238 0.06837046 -0.089771785 -0.059541002
-0.15230195 0.044888865 -0.012017463 -0.0487813 0.195447 -0.08827893 -0.14465596 -0.15160502
-0.07674864 0.1766301 -0.08171691 -0.02005236 0.13090773 -0.11532214 -0.14350678 0.20737517
-0.105705425 -0.12039671 -0.064411245 0.04025378 0.064671546 0.08331717 -0.038395748 0.15927556
-0.18565097 0.00814318 -0.045041427 -0.041882362 0.13035285 -0.15522325 0.056730393 0.16673893
0.245845 -0.09733612 -0.051029477 0.14167707 -0.10841385 0.07106274 -0.16003995 0.07647591
-0.1159269 0.099829935 -0.094912924 0.058002766 0.060336076 -0.06722202 0.015245685 -0.09097542
-0.02397749 -0.021500416 -0.21288016 0.0968493 -0.15167093 -0.025437593 0.022560528 -0.16706286
0.046824068 -0.12445425 -0.09030335 -0.07423244 0.10201544 0.028880289 0.15836965 0.016637126
-0.12529744 0.17145287 -0.053528685 -0.12969178 0.037186958 0.09601517 -0.11769396 0.02595448
-0.116810784 -0.037365757 -0.011527177 -0.12108466 -0.112573974 0.059184097 -0.01743732 0.061865877
-0.010111032 -0.16813894 -0.24775451 -0.10232174 0.08758052 -0.05629854 -0.10422823 -0.009609016
-0.09461496 -0.11609362 0.12703481 -0.1584745 -0.023718186 0.11764707 0.01397834 0.15971516
-0.14913018 0.12021224 -0.003518204 -0.050069157 -0.07046716 -0.20480223 0.14833374 -0.010526102
-0.18196298 0.18912384 0.111758135 0.09603828 0.14944442 0.20775546 0.16046762 0.14863268
0.19734265 0.031585116 -0.036052853 -0.011241599 -0.07691103 0.1543462 -0.0085676825 0.009748413
-0.10050268 -0.057934172 0.10081443 0.043130416 0.06833531 -0.18659641 -0.07355504 -0.029265584
-0.050070744 0.061808247 -0.04631043 0.18816842 -0.0699602 0.037504815 -0.11228926 -0.007321973
-0.15503916 -0.17095728 -0.08122938 0.0019501342 0.0029528928 0.0128003415 -0.064151086 0.17553918
0.20776528 0.09408817 0.14996752 -0.081192374 -0.045300357 0.05067017 0.09473971 -0.044885404
-0.17616154 0.085111134 -0.036031555 -0.1148437 0.11674718 -0.028473455 -0.13420783 -0.160356
0.17903143 0.15665913 -0.16309024 -0.032816917 0.010721526 0.05121835 -0.13437404 -0.013822336
00000000: 166a 773d daae 4e3e e3d3 80bd 1ed6 27be
00000010: 26b2 e0bd 9a9b 2dbe eaa9 453d 4bc0 963d
00000020: 0292 083d 05f8 8a3d f86b 9e3d 96ee c23d
00000030: 1d0d 083e d7a3 2c3d 8043 a03d eeae c43d
00000040: 0f75 afbd fec6 39be 032a f43c 1f29 053d
00000050: 2d94 7abe 98e8 f2bd 53f7 fdbd dd33 373e
00000060: b072 ee3d d4dc 15be 1eab 763d 0420 1ebd
00000070: 2baf f93d 6566 4cbe 739e cebd 9f95 3cbe
00000080: 3aee ca3d e469 66bd 1972 d13d 5f4c ba3d
00000090: bf6f 50bd 47a6 d13b 5694 b1bd f6af 0e3d
000000a0: 13f8 22bd f875 d13d 2ea6 02bc 62ba eabd
000000b0: c979 10be ccc4 edbd 53fc 5e3d 9a9b a73d
000000c0: e04a f63b 2665 ccbd 5421 12be b98a c1bd
000000d0: 8489 34be 3ca6 43be fe6d 3fbe 6166 43bd
000000e0: 10cc 51be 9f60 2b3d 69ea c73d c5aa a93d
000000f0: df70 5cbe edb9 133e 6c08 253d 14ec 793d
00000100: a38c 1bbd c08d 833d 860c 55be 8c18 563c
00000110: a419 213e e014 f83d feea 52be dd14 b7bd
00000120: dac2 08bb 778a 7c3d 1520 2abd 9d91 633c
00000130: 9ae5 cbbc f13f 98bd 0eec 81bc 7f65 f0bd
00000140: 91a1 28be 4fd0 353e 295b 403e 3146 b43b
00000150: 9314 2d3e d005 8c3d 45da b7bd 44e1 73bd
00000160: 0bf5 1bbe 63dd 373d e5e4 44bc e7ce 47bd
00000170: 4223 483e 95cb b4bd b120 14be 593e 1bbe
00000180: 642e 9dbd 85de 343e 325b a7bd d944 a4bc
00000190: ad0c 063e 042e ecbd 71f3 12be 285a 543e
000001a0: 167c d8bd 8d92 f6bd 0bea 83bd 26e1 243d
000001b0: 8472 843d 31a2 aa3d dc44 1dbd 2219 233e
000001c0: 4a1b 3ebe f96a 053c 5c7d 38bd d78c 2bbd
000001d0: 387b 053e d8f2 1ebe 215e 683d 9cbd 2a3e
000001e0: cbbe 7b3e 2958 c7bd 4904 51bd cb13 113e
000001f0: 1508 debd 5889 913d 83e1 23be 679f 9c3d
00000200: 156b edbd a373 cc3d b561 c2bd 4f94 6d3d
00000210: f622 773d b3ab 89bd 0ac9 793c 5251 babd
00000220: 716c c4bc a421 b0bc 42fd 59be ed58 c63d
00000230: a04f 1bbe 8062 d0bc dbd0 b83c 8712 2bbe
00000240: 98ca 3f3d dfe1 febd f6f0 b8bd 2d07 98bd
00000250: 79ed d03d 5b96 ec3c a72b 223e 954a 883c
00000260: f94d 00be 5791 2f3e e540 5bbd eccd 04be
00000270: 5a51 183d 9aa3 c43d 8809 f1bd 7d9e d43c
00000280: 7e3a efbd d60c 19bd 7cdc 3cbc 3cfb f7bd
00000290: 2f8d e6bd 066b 723d b6d8 8ebc 1367 7d3d
000002a0: bea8 25bc 9d2c 2cbe 5cb3 7dbe 0f8e d1bd
000002b0: 6a5d b33d 4c99 66bd 9c75 d5bd 226f 1dbc
000002c0: 7dc5 c1bd 7ec2 edbd 6a15 023e 2447 22be
000002d0: a44c c2bc f2f0 f03d 6805 653c 5f8c 233e
000002e0: 95b5 18be d631 f63d ab91 66bb 5115 4dbd
000002f0: 1651 90bd adb7 51be cde4 173e ac75 2cbc
00000300: 8154 3abe aea9 413e 73e1 e43d b8af c43d
00000310: f507 193e d9bd 543e a051 243e 2a33 183e
00000320: 3114 4a3e 655f 013d 28ac 13bd af2e 38bc
00000330: 8883 9dbd ee0c 1e3e 775f 0cbc cfb7 1f3c
00000340: 59d4 cdbd 624c 6dbd cc77 ce3d 85a9 303d
00000350: 62f3 8b3d 2113 3fbe 06a4 96bd 61be efbc
00000360: fb16 4dbd a52a 7d3d 01b0 3dbd 39af 403e
00000370: 4b47 8fbd a69e 193d e9f7 e5bd 29ed efbb
00000380: 96c2 1ebe 6d0f 2fbe 975b a6bd a59b ff3a
00000390: 5285 413b 86b8 513c a561 83bd 8bc0 333e
000003a0: 6cc0 543e 4cb1 c03d 1691 193e 3048 a6bd
000003b0: de8c 39bd 868b 4f3d e506 c23d c2d9 37bd
000003c0: b163 34be bf4e ae3d d395 13bd 2c33 ebbd
000003d0: 2519 ef3d 2a41 e9bc c76d 09be 5d34 24be
000003e0: 0454 373e 406b 203e 2101 27be 086b 06bd
000003f0: 57a9 2f3c 55ca 513d 5999 09be 1477 62bc

func_approx.network.6.bias f4 [30]
0.13382468 -0.14462139 0.12047344 0.0958922 -0.009519748 0.13443412 -0.002419512 -0.022417396
0.04526717 0.09534667 0.060496677 -0.075251035 0.100990474 -0.12124736 -0.12164282 -0.11746276
-0.17837758 0.017105289 0.04752879 -0.04332079 -0.09407691 0.06395359 0.07000927 -0.0731956
-0.0036122326 0.033567917 -0.0758784 -0.018580906 -0.03965559 0.19693547
00000000: 5609 093e a117 14be c7ba f63d 2163 c43d
00000010: b8f8 1bbc 19a9 093e ad90 1ebb b0a4 b7bc
00000020: 116a 393d 1d45 c33d 5dcb 773d 371d 9abd
00000030: 18d4 ce3d 8950 f8bd df1f f9bd 5190 f0bd
00000040: 9da8 36be 6420 8c3c 8cad 423d 2471 31bd
00000050: 65ab c0bd 1afa 823d 0561 8f3d 93e7 95bd
00000060: 35bb 6cbb 837e 093d 2266 9bbd fc36 98bc
00000070: e66d 22bd 74a9 493e

func_approx.network.8.weight f4 [1, 30]
-0.024959952 -0.1479471 0.15299222 0.053298056 -0.005992478 -0.025361756 -0.015996588 0.14948796
0.09808757 -0.022453794 -0.05952545 -0.06586006 -0.08331651 -0.070316695 0.01939507 -0.20644924
-0.022772625 -0.060742248 0.080517136 -0.12194433 -0.01164375 -0.032223497 0.15847985 -0.037033673
-0.08295038 -0.016906 0.0883109 0.031699117 0.021857545 0.12909494
00000000: d078 ccbc 727f 17be fea9 1c3e 104f 5a3d
00000010: 8d5c c4bb 75c3 cfbc 470b 83bc 5f13 193e
00000020: 23e2 c83d 05f1 b7bc f5d0 73bd a4e1 86bd
00000030: d9a1 aabd 3302 90bd 69e2 9e3c 6e67 53be
00000040: a88d babc ddcc 78bd 2be6 a43d f3bd f9bd
00000050: 6dc5 3ebc c9fc 03bd 8b48 223e 9fb0 17bd
00000060: e4e1 a9bd 747e 8abc 58dc b43d efd6 013d
00000070: 980e b33c 7731 043e

exp_avg f4 [30, 2]
-0.0007732271 -0.00038722318 7.366693e-05 1.3572787e-05 0.0006922162 0.0005420486 -0.0002336261 0.00032486726
-0.00028571952 -0.0008293038 0.0020680632 -0.0004010096 -0.0009889985 -1.1106193e-05 -0.0019013518 -0.0003085082
-8.534842e-05 3.561505e-06 -0.00014158482 0.00069790933 -0.0008288061 -0.0006024249 -0.0006082094 -0.00046624517
0.00010027719 -6.0295784e-05 0.005982702 0.0006659454 -0.0010320868 0.00160499 0.00047398364 0.00012271927
0.0005413583 0.00017786789 0.0004482005 -0.0013301731 0.00057841174 0.0005505592 0.0002890175 -0.0001385831
0.0016597757 -0.00053803326 0.00033939947 -0.00018990609 0.00090902083 0.00017612912 -0.0014254664 -0.00060660375
5.691897e-05 -5.5280452e-05 -0.00016336284 -0.00037008172 1.7948031e-06 -8.560241e-05 0.0025252295 0.0004723636
0.001671616 -0.00059458177 0.005286057 0.00035652885
00000000: 64b2 4aba 3704 cbb9 a27d 9a38 adb6 6337
00000010: d875 353a 4418 0e3a 87f9 74b9 f252 aa39
00000020: a0cc 95b9 a365 59ba 5888 073b 993e d2b9
00000030: 48a1 81ba bc54 3ab7 c836 f9ba 45bf a1b9
00000040: 16fd b2b8 3102 6f36 6376 14b9 e7f3 363a
00000050: 3c44 59ba 0dec 1dba 3e70 1fba 5e72 f4b9
00000060: e84b d238 1be6 7cb8 8b0a c43b d792 2e3a
00000070: 1647 87ba 875e d23a 0281 f839 34ae 0039
00000080: f1e9 0d3a 0c82 3a39 74fc ea39 3459 aeba
00000090: 8ea0 173a 6753 103a 4687 9739 9e50 11b9
000000a0: d58c d93a cd0a 0dba 6df1 b139 8721 47b9
000000b0: 5b4b 6e3a 4daf 3839 b7d6 baba 7d04 1fba
000000c0: 47bc 6e38 efdc 67b8 614c 2bb9 8707 c2b9
000000d0: f7e4 f035 7285 b3b8 527e 253b 92a7 f739
000000e0: 201a db3a b5dd 1bba a936 ad3b 7eec ba39

exp_avg_sq f4 [30, 2]
3.8773546e-06 6.495057e-07 2.0343376e-07 1.1060409e-07 2.6202351e-05 5.2673586e-06 2.2887585e-05 6.212052e-06
0.00022282363 1.9717036e-05 0.0001690643 5.9683903e-06 1.1734448e-05 8.299331e-07 2.158614e-05 1.5433301e-06
2.752007e-08 5.122634e-09 0.0001023639 6.4094534e-06 1.033731e-05 2.409199e-06 1.2676463e-05 1.4587675e-06
2.9468185e-06 1.0513324e-06 0.00044294295 2.1285885e-05 0.00085769576 5.988173e-05 1.2773093e-06 8.968455e-08
5.984845e-06 6.026278e-07 0.00047465126 2.9370101e-05 3.0014426e-05 4.8632464e-06 6.2356576e-06 4.2193625e-07
0.00052552205 3.1186857e-05 3.2833723e-05 5.7427005e-06 8.9816895e-06 4.506708e-07 1.5947742e-05 2.259971e-06
3.3712558e-06 9.495415e-07 1.4812592e-05 1.1220899e-06 2.8769418e-07 2.189668e-07 3.9897273e-05 2.5630127e-06
0.0006048551 3.4345896e-05 0.00027383617 1.160024e-05
00000000: 391a 8236 b159 2e35 726f 5a34 3e85 ed33
00000010: 1fcd db37 44be b036 b7fe bf37 1f71 d036
00000020: c3a5 6939 0366 a537 da46 3139 1544 c836
00000030: 12df 4437 91c8 5e35 e213 b537 6b24 cf35
00000040: 4665 ec32 2a03 b031 33ac d638 c910 d736
00000050: 696e 2d37 b9ad 2136 feac 5437 dfca c335
00000060: f5c1 4536 821b 8d35 cc3a e839 178f b237
00000070: fdd6 603a 8529 7b38 0370 ab35 9a98 c033
00000080: 6dd1 c836 44c4 2135 9dda f839 d05f f637
00000090: 7dc7 fb37 f82e a336 e43b d136 7a86 e234
000000a0: 30c3 093a a2ce 0238 f1b6 0938 6cb1 c036
000000b0: 10b0 1637 b9f3 f134 84c7 8537 02aa 1736
000000c0: bc3d 6236 ffe3 7e35 9983 7837 b79a 9635
000000d0: 6374 9a34 231d 6b34 5f57 2738 3900 2c36
000000e0: 238f 1e3a a00e 1038 ab91 8f39 a79e 4237

max_exp_avg_sq f4 [30, 2]
4.5612446e-06 9.0960594e-07 2.0343376e-07 1.1060409e-07 2.6258474e-05 5.2673586e-06 2.2887585e-05 6.212052e-06
0.00022319729 1.9717036e-05 0.000169192 6.0070324e-06 1.1734448e-05 8.299331e-07 2.158614e-05 1.5433301e-06
2.752007e-08 5.122634e-09 0.00010239048 6.4353676e-06 1.3086722e-05 3.2133717e-06 1.481612e-05 1.7021979e-06
2.9468185e-06 1.0513324e-06 0.00044294295 2.1285885e-05 0.00085769576 5.988173e-05 1.4382246e-06 1.04250745e-07
7.94433e-06 8.058472e-07 0.00047569288 2.9495615e-05 3.0101863e-05 4.8632464e-06 8.464364e-06 6.2980615e-07
0.00052552205 3.1186857e-05 3.2833723e-05 5.7427005e-06 8.98604e-06 4.506708e-07 1.5947742e-05 3.5034038e-06
3.3712558e-06 9.495415e-07 1.4933079e-05 1.2385685e-06 3.227191e-07 2.6165932e-07 3.9897273e-05 2.5630127e-06
0.0006048551 3.4345896e-05 0.00027383617 1.160024e-05
00000000: cb0c 9936 a52b 7435 726f 5a34 3e85 ed33
00000010: a545 dc37 44be b036 b7fe bf37 1f71 d036
00000020: 110a 6a39 0366 a537 2269 3139 0490 c936
00000030: 12df 4437 91c8 5e35 e213 b537 6b24 cf35
00000040: 4665 ec32 2a03 b031 78ba d638 63ef d736
00000050: 0b8f 5b37 4ea5 5736 c092 7837 1377 e435
00000060: f5c1 4536 821b 8d35 cc3a e839 178f b237
00000070: fdd6 603a 8529 7b38 0509 c135 74e0 df33
00000080: a348 0537 6651 5835 6b66 f939 5a6d f737
00000090: 4283 fc37 f82e a336 2b02 0e37 f30f 2935
000000a0: 30c3 093a a2ce 0238 f1b6 0938 6cb1 c036
000000b0: bfc2 1637 b9f3 f134 84c7 8537 051c 6b36
000000c0: bc3d 6236 ffe3 7e35 1689 7a37 e43c a635
000000d0: 2d42 ad34 2f7a 8c34 5f57 2738 3900 2c36
000000e0: 238f 1e3a a00e 1038 ab91 8f39 a79e 4237

exp_avg f4 [30]
-0.00022615377 7.462312e-05 -0.00027291253 -0.0007666245 0.0010795259 0.0014427098 -0.00067103107 -0.0012117358
-9.082235e-05 -0.000643218 -9.41677e-06 1.6415162e-05 0.00023737355 0.0031097068 -0.0024460617 0.0002533794
-3.1581083e-06 0.0019461674 -0.00026081144 0.00023779171 0.0020354325 0.00088603754 0.00059770554 -0.00039370402
0.00019000629 0.00018914 5.6092707e-05 0.0014972863 0.0019027046 0.0028400496
00000000: b123 6db9 fc7e 9c38 b315 8fb9 4df7 48ba
00000010: e17e 8d3a 4f19 bd3a 22e8 2fba 1bd3 9eba
00000020: e177 beb8 a19d 28ba b8fc 1db7 4bb3 8937
00000030: 7ae7 7839 39cc 4b3b 1b4e 20bb 02d8 8439
00000040: e3ef 53b6 8b16 ff3a 85bd 88b9 ba57 7939
00000050: e464 053b f944 683a 57af 1c3a 0f6a ceb9
00000060: 6d3c 4739 e253 4639 1645 6b38 9740 c43a
00000070: 2c64 f93a 2020 3a3b

exp_avg_sq f4 [30]
1.0862965e-06 1.4892784e-07 6.9182174e-06 9.474568e-06 4.021947e-05 2.424224e-05 3.0264e-06 7.2447688e-06
2.8203704e-08 1.41272785e-05 3.4760596e-06 2.0161417e-06 1.5381199e-06 8.6438486e-05 0.00014761573 3.1611498e-07
1.0823321e-06 7.710604e-05 7.326238e-06 1.1717933e-06 8.82056e-05 1.081157e-05 2.9336406e-06 3.2453454e-06
1.4530834e-06 1.8777157e-06 2.1828595e-07 1.2115669e-05 9.9965226e-05 5.32486e-05
00000000: ddcc 9135 f9e8 1f34 0923 e836 f6f4 1e37
00000010: 54b1 2838 d05b cb37 2819 4b36 1718 f336
00000020: 9a44 f232 3304 6d37 4046 6936 0d4d 0736
00000030: 6671 ce35 4f46 b538 4cc9 1a39 83b6 a934
00000040: a644 9135 fdb3 a138 e8d3 f536 8346 9d35
00000050: 05fb b838 5763 3537 90df 4436 9cca 5936
00000060: 9107 c335 d205 fc35 fc61 6a34 6744 4b37
00000070: 6ca4 d138 4057 5f38

max_exp_avg_sq f4 [30]
1.3495184e-06 1.4892784e-07 6.9182174e-06 9.474568e-06 4.021947e-05 2.424224e-05 3.0264e-06 7.2447688e-06
2.8515982e-08 1.41272785e-05 4.734267e-06 2.4897843e-06 1.5381199e-06 8.6438486e-05 0.00014761573 3.504273e-07
1.1621532e-06 7.710604e-05 7.326238e-06 1.6006073e-06 8.82056e-05 1.081157e-05 2.9407317e-06 3.2499452e-06
1.4530834e-06 1.8905068e-06 2.5729418e-07 1.2115669e-05 9.9965226e-05 5.32486e-05
00000000: 1921 b535 f9e8 1f34 0923 e836 f6f4 1e37
00000010: 54b1 2838 d05b cb37 2819 4b36 1718 f336
00000020: 4ff3 f432 3304 6d37 0bdb 9e36 2b16 2736
00000030: 6671 ce35 4f46 b538 4cc9 1a39 5d22 bc34
00000040: 48fb 9b35 fdb3 a138 e8d3 f536 73d4 d635
00000050: 05fb b838 5763 3537 6359 4536 a219 5a36
00000060: 9107 c335 52bd fd35 3e22 8a34 6744 4b37
00000070: 6ca4 d138 4057 5f38

exp_avg f4 [30, 30]
-0.00020732355 0.00050392665 -0.00020945683 -1.9071495e-05 0.0004124061 0.00026165706 1.41281935e-05 -0.000111602545
-0.0005585937 -0.00019393516 -0.00014033807 -0.00020223692 0.00046765682 0.0009788631 -0.0006029641 0.00013414929
0.0002668571 0.00018683523 -0.00042958494 -0.0003562317 0.00043290126 0.000113458074 0.00030456326 -0.00027988988
0.0004394015 -0.00045307892 0.00044214472 0.0003086925 0.0008393076 0.00057405856 -0.00012521562 -0.00089900696
0.000547331 0.00042682566 -0.0006342307 -0.00015165139 -0.0003264059 -0.0002445523 0.00094208133 0.00032894575
-0.00020725072 -9.6964126e-05 -0.0008659372 -0.00077150116 0.00062113465 0.00022576754 -0.00030400098 -0.00024220963
0.0007372907 0.0006281235 -0.00049242144 -0.00050318026 7.321105e-05 6.21357e-05 -0.0008332173 0.00026332343
-0.00083565974 5.1698436e-05 -0.000861212 -0.0003253172 0.00021513963 -0.00024359398 0.00016489858 -6.443835e-05
-0.00030351494 -0.0002857561 0.00016906614 0.0003349087 0.00021467751 9.0352354e-05 0.0001488433 0.00031533197
-0.00027240548 -0.00095136894 0.0005387461 -0.00026570898 -0.0001858821 -0.00019310511 0.0002551534 0.00018709802
-0.00039243928 -5.324208e-05 -0.00042796758 0.00028541198 -0.00023501128 0.0004126071 -0.00019298622 -0.00052678544
-0.00071019295 -0.0006525267 5.0517225e-05 -0.00019776981 2.5904244e-05 2.3802873e-05 -8.732427e-05 6.567743e-05
-8.685702e-05 -8.8630906e-05 0.0002532001 9.7121556e-05 4.2265838e-05 -5.6383265e-05 -0.00015756361 -0.00011813785
6.631865e-05 4.1155912e-05 -9.849565e-05 3.509606e-05 0.00014393714 0.00011119465 -2.7910213e-05 -2.277512e-05
4.916471e-06 4.678884e-05 -0.00015768693 9.797559e-05 -0.00017847458 6.0573224e-05 -0.00013608865 -1.4188986e-05
0.0001512947 0.00070753915 -0.00038236592 -0.00037487218 0.00041193396 -3.3546545e-05 0.00036039136 0.00034712683
-0.00076492067 -0.00025836975 0.00019849613 0.00021219796 0.0006583688 0.00030515206 -0.00028737713 -0.00028576763
0.00023250448 8.0476726e-05 -0.0005414043 -0.00048228417 0.0002364155 0.0003933895 -0.00020943895 2.1807587e-05
0.0006431805 -0.00010646637 0.0006692518 -0.0002476821 0.00044524827 1.9577561e-05 -3.2027551e-06 0.0007465909
-0.0003105251 -0.00025482214 0.0004428636 2.8296392e-05 0.00031199568 0.00027729827 -0.00085266173 -0.00029734222
4.9724043e-05 0.00011290004 0.0006656229 0.0005529671 -0.00041131815 -0.00017221164 0.00028863276 9.2598864e-05
-0.0005767447 -0.0004889483 0.00029241553 0.00028733385 -5.7600926e-05 -0.000101797516 0.0006501423 -0.00026652595
0.0006898369 -0.00014030474 0.00062986027 0.00017794737 -0.00010289053 -0.00091668084 0.00047708707 0.00039164184
-0.0005828298 -0.000120846744 -0.00039144405 -0.00033949615 0.0010099331 0.00036917336 -0.00017290395 -0.00012427277
-0.0008461144 -0.00064998836 0.0005510324 0.0002317365 -0.00028196344 -0.00021741568 0.0007339906 0.0005980844
-0.00040098038 -0.0004416611 0.00010843228 6.366789e-05 -0.000820471 0.00023967275 -0.0008535499 0.00016569055
-0.00078293134 -0.00021942978 0.00014362104 -0.00036823793 0.00030603333 2.8767827e-05 -0.00042008582 -0.0002832552
0.00012476966 0.0003183025 0.00031250683 0.000162703 6.467677e-05 0.00027928717 -0.0004166396 -0.0010217746
0.0006405731 -0.00020495096 -0.00018266062 -0.0002597024 0.0003850738 0.00027370595 -0.00047309083 -0.00017456763
-0.0004163114 0.00025100785 -0.00036948736 0.00039523043 -0.0003039232 -0.00053873105 -0.0008260183 -0.0006678987
0.0003018318 0.0015123952 -0.00078379764 -0.0007589018 0.0009215787 1.4939819e-05 0.00076234905 0.0007657307
-0.0016965363 -0.0005795188 0.00039275526 0.00044700268 0.0013766122 0.0006927816 -0.0007326729 -0.00059933757
00000000: fe64 59b9 f219 043a a4a1 5bb9 b9fb 9fb7
00000010: 3638 d839 042f 8939 2108 6d37 290c eab8
00000020: 976e 12ba 135b 4bb9 b727 13b9 8f0f 54b9
00000030: d62f f539 324d 803a 3c10 1eba 6daa 0c39
00000040: f4e8 8b39 33e9 4339 ea39 e1b9 9cc4 bab9
00000050: 06f7 e239 57f0 ed38 caad 9f39 2fbe 92b9
00000060: 795f e639 398b edb9 a9cf e739 02d8 a139
00000070: fb04 5c3a 6b7c 163a 504c 03b9 56ab 6bba
00000080: c37a 0f3a 92c7 df39 8042 26ba 9c04 1fb9
00000090: 7521 abb9 4137 80b9 02f6 763a 5a76 ac39
000000a0: 7151 59b9 3859 cbb8 1000 63ba 913e 4aba
000000b0: a4d3 223a 03bc 6c39 5262 9fb9 a7f9 7db9
000000c0: be46 413a a8a8 243a d815 01ba dbe7 03ba
000000d0: e288 9938 da4e 8238 446c 5aba ac0e 8a39
000000e0: 2d10 5bba c6d6 5838 f5c2 61ba 568f aab9
000000f0: 1b97 6139 436d 7fb9 a0e8 2c39 1323 87b8
00000100: 1621 9fb9 89d1 95b9 5947 3139 af96 af39
00000110: 0e1b 6139 8d7b bd38 d212 1c39 2453 a539
00000120: a5d1 8eb9 4a65 79ba a43a 0d3a db4e 8bb9
00000130: 59e9 42b9 427c 4ab9 1cc6 8539 be2f 4439
00000140: 4fc0 cdb9 4050 5fb8 d660 e0b9 59a3 9539
00000150: 5c6d 76b9 3053 d839 585c 4ab9 f917 0aba
00000160: 3e2c 3aba 530e 2bba 75e2 5338 6e60 4fb9
00000170: f14c d937 48ac c737 dc21 b7b8 4dbc 8938
00000180: 0227 b6b8 5bdf b9b8 f1bf 8439 bdad cb38
00000190: 9946 3138 127d 6cb8 a937 25b9 c6c0 f7b8
000001a0: 8e14 8b38 d39e 2c38 738f ceb8 1c34 1338
000001b0: d5ed 1639 2c31 e938 ba20 eab7 330d bfb7
000001c0: 2af8 a436 223f 4438 c358 25b9 3f78 cd38
000001d0: e824 3bb9 0110 7e38 05b3 0eb9 3b0d 6eb7
000001e0: dda4 1e39 267a 393a 4978 c8b9 7e8a c4b9
000001f0: d7f8 d739 54b4 0cb8 e9f2 bc39 93fe b539
00000200: f584 48ba cd75 87b9 6623 5039 7581 5e39
00000210: 6296 2c3a d1fc 9f39 1bab 96b9 15d3 95b9
00000220: 72cc 7339 9dc5 a838 07ed 0dba 16db fcb9
00000230: 4de6 7739 d83f ce39 d79c 5bb9 70ef b637
00000240: 1d9b 283a b246 dfb8 ba70 2f3a 54db 81b9
00000250: 3670 e939 7e3a a437 eaee 56b6 deb6 433a
00000260: f9cd a2b9 a699 85b9 2530 e839 0a5e ed37
00000270: 5a93 a339 5862 9139 2985 5fba 99e4 9bb9
00000280: c98e 5038 bfc4 ec38 327d 2e3a fef4 103a
00000290: 30a6 d7b9 b693 34b9 a253 9739 a331 c238
000002a0: ae30 17ba c42c 00ba 594f 9939 4ca5 9639
000002b0: 8698 71b8 207c d5b8 506e 2a3a 82bc 8bb9
000002c0: 2cd6 343a c41e 13b9 351d 253a 6297 3a39
000002d0: efc6 d7b8 694d 70ba 8b21 fa39 4755 cd39
000002e0: 0cc9 18ba 1a6f fdb8 bb3a cdb9 67fe b1b9
000002f0: bb5f 843a 9c8d c139 8d4d 35b9 384f 02b9
00000300: c7cd 5dba fb63 2aba 2973 103a 4bfe 7239
00000310: 7ed4 93b9 14fa 63b9 4669 403a c4c8 1c3a
00000320: ad3a d2b9 c08e e7b9 2366 e338 7085 8538
00000330: e014 57ba aa50 7b39 c4c0 5fba 38bd 2d39
00000340: a23d 4dba bc16 66b9 fb98 1639 0f10 c1b9
00000350: 1973 a039 7052 f137 f73e dcb9 df81 94b9
00000360: 9ad4 0239 d7e1 a639 f5d7 a339 419b 2a39
00000370: 14a3 8738 4a6d 9239 6c70 dab9 11ed 85ba
00000380: 22ec 273a 1be8 56b9 9688 3fb9 ab28 88b9
00000390: bbe3 c939 3180 8f39 2d09 f8b9 240c 37b9
000003a0: 5f44 dab9 b499 8339 c1b7 c1b9 ee36 cf39
000003b0: e257 9fb9 a139 0dba 2689 58ba ec15 2fba
000003c0: 2e3f 9e39 903b c63a c577 4dba 0af1 46ba
000003d0: 1a96 713a 09a6 7a37 61d8 473a 51bb 483a
000003e0: 505e deba d9ea 17ba b8ea cd39 af5b ea39
000003f0: 716f b43a c99b 353a d910 40ba dd1c 1dba

exp_avg_sq f4 [30, 30]
4.788786e-06 2.634e-05 7.1852487e-06 1.0787904e-05 5.2594364e-06 4.6037794e-06 1.4382985e-05 1.8154347e-05
3.192906e-05 5.7633574e-06 5.2570745e-06 9.783954e-06 2.1466245e-05 4.3485647e-06 1.1801915e-06 1.1704778e-05
1.7674793e-06 1.1524511e-06 1.4374803e-05 9.880754e-06 5.8765016e-07 9.324513e-06 1.0277278e-05 1.9596628e-06
2.1101514e-05 1.6689148e-06 2.4329729e-05 1.7602631e-05 2.175098e-06 8.929767e-06 3.601176e-06 1.7108641e-05
6.396227e-06 7.9707115e-06 4.7286258e-06 1.5300095e-06 8.355725e-06 1.0069795e-05 1.9348276e-05 3.5450064e-06
4.1438147e-06 5.1207667e-06 1.4961679e-05 2.4037377e-06 1.5461558e-06 7.0006854e-06 6.202842e-07 6.5638875e-07
1.0248442e-05 6.593215e-06 8.9918905e-07 7.4850655e-06 6.1539185e-06 1.3132839e-06 1.445775e-05 8.761272e-07
1.5935975e-05 9.2467835e-06 2.7670837e-06 4.249257e-06 2.8729823e-06 1.5293052e-05 4.3526456e-06 6.367461e-06
3.1229988e-06 3.0767865e-06 8.392544e-06 1.0997374e-05 1.8082981e-05 3.8988114e-06 3.1111397e-06 6.0007856e-06
1.26686255e-05 3.4527277e-06 8.535144e-07 7.121815e-06 7.3217836e-07 5.915888e-07 8.690538e-06 5.1801944e-06
4.3176232e-07 5.48052e-06 6.155693e-06 1.2128963e-06 1.23191385e-05 1.0502749e-06 1.40795455e-05 1.1136276e-05
1.5618018e-06 6.215431e-06 6.335067e-07 3.3716676e-06 9.482955e-07 1.4950277e-06 6.914372e-07 4.3402778e-07
1.8337386e-06 2.2832855e-06 4.0438094e-06 6.0050974e-07 7.093618e-07 1.194676e-06 2.7831325e-06 5.636789e-07
1.524892e-07 1.4831221e-06 2.0588992e-07 7.385541e-08 1.7884465e-06 1.3560015e-06 7.792386e-08 1.2876325e-06
1.4137809e-06 2.456663e-07 2.7398717e-06 1.837598e-07 3.1643121e-06 2.1742146e-06 3.148758e-07 1.0216179e-06
1.2586753e-06 6.795293e-06 2.3420687e-06 2.9970129e-06 1.7621177e-06 5.067547e-07 3.2129126e-06 3.7993432e-06
7.831056e-06 1.3101987e-06 1.4760406e-06 1.8687967e-06 5.85454e-06 5.463331e-07 4.2348424e-07 2.5574768e-06
3.2004502e-07 1.9095324e-07 3.9452575e-06 2.654013e-06 2.4857636e-07 2.7995918e-06 2.2309503e-06 4.2572105e-07
5.671985e-06 2.518257e-07 6.3276716e-06 3.3490471e-06 8.694164e-07 1.3259738e-06 3.325361e-06 1.9490406e-05
5.1287825e-06 8.326207e-06 3.7922125e-06 2.1328717e-06 1.0398573e-05 1.2813247e-05 2.3683067e-05 3.256311e-06
3.7812133e-06 6.481274e-06 1.5892087e-05 2.1686112e-06 4.1655818e-07 8.092378e-06 1.2704119e-06 2.2547259e-07
1.0103516e-05 7.912883e-06 2.0540533e-07 7.129387e-06 7.725192e-06 1.2149163e-06 1.5692662e-05 8.0435115e-07
1.8285413e-05 1.190191e-05 1.2483599e-06 5.0140043e-06 5.6331382e-06 2.7113065e-05 8.4831745e-06 1.2442004e-05
5.8741775e-06 2.6240973e-06 1.4581568e-05 1.790531e-05 3.203065e-05 5.20829e-06 6.345495e-06 8.869564e-06
2.2720838e-05 3.308142e-06 9.023943e-07 1.155349e-05 1.4002256e-06 6.359967e-07 1.4975513e-05 1.0499524e-05
4.238281e-07 1.0961009e-05 1.0912702e-05 2.0657778e-06 2.2240307e-05 1.5362712e-06 2.5449945e-05 1.6699652e-05
2.0002617e-06 7.4273107e-06 1.8701969e-06 1.2817657e-05 3.7525754e-06 4.788363e-06 3.072466e-06 2.757749e-06
6.317492e-06 8.316239e-06 1.48643785e-05 3.3387319e-06 2.0873315e-06 4.6960467e-06 1.0820116e-05 3.262825e-06
1.3851472e-06 5.510575e-06 5.786333e-07 6.064358e-07 7.558236e-06 4.3976975e-06 7.674767e-07 4.3477335e-06
4.3860814e-06 7.6706544e-07 1.0408237e-05 6.2882964e-07 1.1591774e-05 8.496572e-06 2.4652622e-06 4.8691786e-06
1.24308235e-05 5.213834e-05 1.9216995e-05 2.6072983e-05 1.2995724e-05 3.1564089e-06 2.7271279e-05 3.272103e-05
5.9683633e-05 9.473288e-06 1.4237885e-05 1.5515729e-05 4.5142893e-05 5.5229066e-06 2.7772935e-06 2.1714484e-05
00000000: 5caf a036 b8f4 dc37 d118 f136 b2fd 3437
00000010: 377a b036 2a7a 9a36 734e 7137 2a4a 9837
00000020: 91eb 0538 dd62 c136 ed65 b036 c325 2437
00000030: 6912 b437 e3e9 9136 1267 9e35 a45f 4437
00000040: 203a ed35 ebad 9a35 4f2b 7137 84c5 2537
00000050: 03bf 1d35 7a70 1c37 936c 2c37 c082 0336
00000060: 2803 b137 7aff df35 b217 cc37 5da9 9337
00000070: e6f7 1136 0fd1 1537 bcab 7136 8784 8f37
00000080: 2c9f d636 f2b9 0537 96aa 9e36 ba5a cd35
00000090: 912f 0c37 71f1 2837 1b4e a237 bfe6 6d36
000000a0: 190b 8b36 0dd3 ab36 ec03 7b37 e64f 2136
000000b0: 8285 cf35 6ee7 ea36 9b81 2635 b132 3035
000000c0: b9f0 2b37 493b dd36 cd5f 7135 3928 fb36
000000d0: c27d ce36 1744 b035 908f 7237 012f 6b35
000000e0: 3fae 8537 a222 1b37 23b2 3936 d794 8e36
000000f0: 76cd 4036 9449 8037 f10c 9236 13a8 d536
00000100: b694 5136 ca7a 4e36 b4cd 0c37 5d81 3837
00000110: e8b0 9737 89d2 8236 f9c8 5036 5b5a c936
00000120: 558b 5437 69b5 6736 101d 6535 edf7 ee36
00000130: ea8a 4435 accd 1e35 94cd 1137 88d1 ad36
00000140: f6cc e734 4fe5 b736 008d ce36 cdca a235
00000150: 4cae 4e37 2cf7 8c35 3037 6c37 f1d5 3a37
00000160: 1a9f d135 258e d036 400e 2a35 cf44 6236
00000170: 5f8e 7e35 c3a8 c835 349b 3935 5304 e934
00000180: c71e f635 8c3a 1936 0fb0 8736 b732 2135
00000190: f96a 3e35 c158 a035 dac5 3a36 b84f 1735
000001a0: eabb 2334 b00f c735 9712 5d34 719a 9e33
000001b0: 8e0a f035 dbff b535 1857 a733 b7d2 ac35
000001c0: 24c1 bd35 1fe4 8334 a3de 3736 824f 4534
000001d0: 785a 5436 b9e8 1136 330c a934 861e 8935
000001e0: c1ef a835 1f03 e436 6f2c 1d36 4a20 4936
000001f0: e781 ec35 eb07 0835 6b9d 5736 38f8 7e36
00000200: 2162 0337 16da af35 5e1c c635 5ed3 fa35
00000210: 1e72 c436 baa7 1235 3b5b e334 1ea1 2b36
00000220: a7d2 ab34 d408 4d34 8161 8436 991b 3236
00000230: 1374 8534 9fe0 3b36 6fb7 1536 a88e e434
00000240: fb51 be36 a932 8734 4952 d436 31c0 6036
00000250: d761 6935 1df8 b135 4429 5f36 547f a337
00000260: e817 ac36 c9b0 0b37 b77d 7e36 7522 0f36
00000270: 8875 2e37 7af8 5637 00ab c637 ff86 5a36
00000280: c0c0 7d36 b879 d936 ff4f 8537 7588 1136
00000290: 52a3 df34 80c4 0737 0583 aa35 6f19 7234
000002a0: 4582 2937 93c1 0437 638d 5c34 f838 ef36
000002b0: 729b 0137 3510 a335 bca3 8337 97ea 5735
000002c0: a063 9937 50ae 4737 528d a735 f83d a836
000002d0: 4a04 bd36 dd70 e337 f552 0e37 00be 5037
000002e0: cd1a c536 a619 3036 5ca3 7437 5c33 9637
000002f0: a658 0638 dfc2 ae36 63eb d436 7dce 1437
00000300: a198 be37 7201 5e36 103c 7235 ddd5 4137
00000310: 63ef bb35 5cb9 2a35 573f 7b37 1d27 3037
00000320: 7e8a e334 2de5 3737 b315 3737 cba1 0a36
00000330: b290 ba37 e031 ce35 577d d537 3b16 8c37
00000340: 3c3c 0636 1d38 f936 7a03 fb35 6b0b 5737
00000350: c1d4 7b36 baab a036 9030 4e36 c411 3936
00000360: d8fa d336 f985 0b37 0562 7937 fa0e 6036
00000370: 1514 0c36 bc92 9d36 0b88 3537 e8f6 5a36
00000380: 4ce9 b935 7be7 b836 6153 1b35 f3c9 2235
00000390: c19c fd36 ef8f 9336 9904 4e35 bfe2 9136
000003a0: 272c 9336 56e8 4d35 0a9f 2e37 d8cc 2835
000003b0: 4a7a 4237 808c 0e37 e270 2536 ed61 a336
000003c0: fb8d 5037 1eaf 5a38 2f34 a137 4eb7 da37
000003d0: 3608 5a37 b1d2 5336 a0c4 e437 f03d 0938
000003e0: d054 7a38 76ef 1e37 40df 6e37 c627 8237
000003f0: d057 3d38 6851 b936 8a61 3a36 8027 b637
